…
I0717 11:32:39.701048 14746 net.cpp:294] The NetState phase (0) differed from the phase (1) specified by a rule in layer acc/top-1
I0717 11:32:39.701658 14746 net.cpp:51] Initializing net from parameters: 
name: "ResNet-50"
state {
  phase: TRAIN
  level: 0
  stage: ""
}
layer {
  name: "data"
  type: "Data"
  top: "data"
  top: "label"
  include {
    phase: TRAIN
  }
  transform_param {
    mirror: true
    crop_size: 224
    mean_file: "modeldef/mean.binaryproto"
  }
  data_param {
    source: "lmdb/train_lmdb"
    batch_size: 24
    backend: LMDB
  }
}
layer {
  name: "conv1"
  type: "Convolution"
  bottom: "data"
  top: "conv1"
  convolution_param {
    num_output: 64
    bias_term: true
    pad: 3
    kernel_size: 7
    stride: 2
    weight_filler {
      type: "msra"
    }
  }
}
layer {
  name: "bn_conv1"
  type: "BatchNorm"
  bottom: "conv1"
  top: "conv1"
  param {
    lr_mult: 0
    decay_mult: 0
  }
  param {
    lr_mult: 0
    decay_mult: 0
  }
  param {
    lr_mult: 0
    decay_mult: 0
  }
}
layer {
  name: "scale_conv1"
  type: "Scale"
  bottom: "conv1"
  top: "conv1"
  scale_param {
    bias_term: true
  }
}
layer {
  name: "conv1_relu"
  type: "ReLU"
  bottom: "conv1"
  top: "conv1"
}
layer {
  name: "pool1"
  type: "Pooling"
  bottom: "conv1"
  top: "pool1"
  pooling_param {
    pool: MAX
    kernel_size: 3
    stride: 2
  }
}
layer {
  name: "res2a_branch1"
  type: "Convolution"
  bottom: "pool1"
  top: "res2a_branch1"
  convolution_param {
    num_output: 256
    bias_term: false
    pad: 0
    kernel_size: 1
    stride: 1
    weight_filler {
      type: "msra"
    }
  }
}
layer {
  name: "bn2a_branch1"
  type: "BatchNorm"
  bottom: "res2a_branch1"
  top: "res2a_branch1"
  param {
    lr_mult: 0
    decay_mult: 0
  }
  param {
    lr_mult: 0
    decay_mult: 0
  }
  param {
    lr_mult: 0
    decay_mult: 0
  }
}
layer {
  name: "scale2a_branch1"
  type: "Scale"
  bottom: "res2a_branch1"
  top: "res2a_branch1"
  scale_param {
    bias_term: true
  }
}
layer {
  name: "res2a_branch2a"
  type: "Convolution"
  bottom: "pool1"
  top: "res2a_branch2a"
  convolution_param {
    num_output: 64
    bias_term: false
    pad: 0
    kernel_size: 1
    stride: 1
    weight_filler {
      type: "msra"
    }
  }
}
layer {
  name: "bn2a_branch2a"
  type: "BatchNorm"
  bottom: "res2a_branch2a"
  top: "res2a_branch2a"
  param {
    lr_mult: 0
    decay_mult: 0
  }
  param {
    lr_mult: 0
    decay_mult: 0
  }
  param {
    lr_mult: 0
    decay_mult: 0
  }
}
layer {
  name: "scale2a_branch2a"
  type: "Scale"
  bottom: "res2a_branch2a"
  top: "res2a_branch2a"
  scale_param {
    bias_term: true
  }
}
layer {
  name: "res2a_branch2a_relu"
  type: "ReLU"
  bottom: "res2a_branch2a"
  top: "res2a_branch2a"
}
layer {
  name: "res2a_branch2b"
  type: "Convolution"
  bottom: "res2a_branch2a"
  top: "res2a_branch2b"
  convolution_param {
    num_output: 64
    bias_term: false
    pad: 1
    kernel_size: 3
    stride: 1
    weight_filler {
      type: "msra"
    }
  }
}
layer {
  name: "bn2a_branch2b"
  type: "BatchNorm"
  bottom: "res2a_branch2b"
  top: "res2a_branch2b"
  param {
    lr_mult: 0
    decay_mult: 0
  }
  param {
    lr_mult: 0
    decay_mult: 0
  }
  param {
    lr_mult: 0
    decay_mult: 0
  }
}
layer {
  name: "scale2a_branch2b"
  type: "Scale"
  bottom: "res2a_branch2b"
  top: "res2a_branch2b"
  scale_param {
    bias_term: true
  }
}
layer {
  name: "res2a_branch2b_relu"
  type: "ReLU"
  bottom: "res2a_branch2b"
  top: "res2a_branch2b"
}
layer {
  name: "res2a_branch2c"
  type: "Convolution"
  bottom: "res2a_branch2b"
  top: "res2a_branch2c"
  convolution_param {
    num_output: 256
    bias_term: false
    pad: 0
    kernel_size: 1
    stride: 1
    weight_filler {
      type: "msra"
    }
  }
}
layer {
  name: "bn2a_branch2c"
  type: "BatchNorm"
  bottom: "res2a_branch2c"
  top: "res2a_branch2c"
  param {
    lr_mult: 0
    decay_mult: 0
  }
  param {
    lr_mult: 0
    decay_mult: 0
  }
  param {
    lr_mult: 0
    decay_mult: 0
  }
}
layer {
  name: "scale2a_branch2c"
  type: "Scale"
  bottom: "res2a_branch2c"
  top: "res2a_branch2c"
  scale_param {
    bias_term: true
  }
}
layer {
  name: "res2a"
  type: "Eltwise"
  bottom: "res2a_branch1"
  bottom: "res2a_branch2c"
  top: "res2a"
  eltwise_param {
    operation: SUM
  }
}
layer {
  name: "res2a_relu"
  type: "ReLU"
  bottom: "res2a"
  top: "res2a"
}
layer {
  name: "res2b_branch2a"
  type: "Convolution"
  bottom: "res2a"
  top: "res2b_branch2a"
  convolution_param {
    num_output: 64
    bias_term: false
    pad: 0
    kernel_size: 1
    stride: 1
    weight_filler {
      type: "msra"
    }
  }
}
layer {
  name: "bn2b_branch2a"
  type: "BatchNorm"
  bottom: "res2b_branch2a"
  top: "res2b_branch2a"
  param {
    lr_mult: 0
    decay_mult: 0
  }
  param {
    lr_mult: 0
    decay_mult: 0
  }
  param {
    lr_mult: 0
    decay_mult: 0
  }
}
layer {
  name: "scale2b_branch2a"
  type: "Scale"
  bottom: "res2b_branch2a"
  top: "res2b_branch2a"
  scale_param {
    bias_term: true
  }
}
layer {
  name: "res2b_branch2a_relu"
  type: "ReLU"
  bottom: "res2b_branch2a"
  top: "res2b_branch2a"
}
layer {
  name: "res2b_branch2b"
  type: "Convolution"
  bottom: "res2b_branch2a"
  top: "res2b_branch2b"
  convolution_param {
    num_output: 64
    bias_term: false
    pad: 1
    kernel_size: 3
    stride: 1
    weight_filler {
      type: "msra"
    }
  }
}
layer {
  name: "bn2b_branch2b"
  type: "BatchNorm"
  bottom: "res2b_branch2b"
  top: "res2b_branch2b"
  param {
    lr_mult: 0
    decay_mult: 0
  }
  param {
    lr_mult: 0
    decay_mult: 0
  }
  param {
    lr_mult: 0
    decay_mult: 0
  }
}
layer {
  name: "scale2b_branch2b"
  type: "Scale"
  bottom: "res2b_branch2b"
  top: "res2b_branch2b"
  scale_param {
    bias_term: true
  }
}
layer {
  name: "res2b_branch2b_relu"
  type: "ReLU"
  bottom: "res2b_branch2b"
  top: "res2b_branch2b"
}
layer {
  name: "res2b_branch2c"
  type: "Convolution"
  bottom: "res2b_branch2b"
  top: "res2b_branch2c"
  convolution_param {
    num_output: 256
    bias_term: false
    pad: 0
    kernel_size: 1
    stride: 1
    weight_filler {
      type: "msra"
    }
  }
}
layer {
  name: "bn2b_branch2c"
  type: "BatchNorm"
  bottom: "res2b_branch2c"
  top: "res2b_branch2c"
  param {
    lr_mult: 0
    decay_mult: 0
  }
  param {
    lr_mult: 0
    decay_mult: 0
  }
  param {
    lr_mult: 0
    decay_mult: 0
  }
}
layer {
  name: "scale2b_branch2c"
  type: "Scale"
  bottom: "res2b_branch2c"
  top: "res2b_branch2c"
  scale_param {
    bias_term: true
  }
}
layer {
  name: "res2b"
  type: "Eltwise"
  bottom: "res2a"
  bottom: "res2b_branch2c"
  top: "res2b"
  eltwise_param {
    operation: SUM
  }
}
layer {
  name: "res2b_relu"
  type: "ReLU"
  bottom: "res2b"
  top: "res2b"
}
layer {
  name: "res2c_branch2a"
  type: "Convolution"
  bottom: "res2b"
  top: "res2c_branch2a"
  convolution_param {
    num_output: 64
    bias_term: false
    pad: 0
    kernel_size: 1
    stride: 1
    weight_filler {
      type: "msra"
    }
  }
}
layer {
  name: "bn2c_branch2a"
  type: "BatchNorm"
  bottom: "res2c_branch2a"
  top: "res2c_branch2a"
  param {
    lr_mult: 0
    decay_mult: 0
  }
  param {
    lr_mult: 0
    decay_mult: 0
  }
  param {
    lr_mult: 0
    decay_mult: 0
  }
}
layer {
  name: "scale2c_branch2a"
  type: "Scale"
  bottom: "res2c_branch2a"
  top: "res2c_branch2a"
  scale_param {
    bias_term: true
  }
}
layer {
  name: "res2c_branch2a_relu"
  type: "ReLU"
  bottom: "res2c_branch2a"
  top: "res2c_branch2a"
}
layer {
  name: "res2c_branch2b"
  type: "Convolution"
  bottom: "res2c_branch2a"
  top: "res2c_branch2b"
  convolution_param {
    num_output: 64
    bias_term: false
    pad: 1
    kernel_size: 3
    stride: 1
    weight_filler {
      type: "msra"
    }
  }
}
layer {
  name: "bn2c_branch2b"
  type: "BatchNorm"
  bottom: "res2c_branch2b"
  top: "res2c_branch2b"
  param {
    lr_mult: 0
    decay_mult: 0
  }
  param {
    lr_mult: 0
    decay_mult: 0
  }
  param {
    lr_mult: 0
    decay_mult: 0
  }
}
layer {
  name: "scale2c_branch2b"
  type: "Scale"
  bottom: "res2c_branch2b"
  top: "res2c_branch2b"
  scale_param {
    bias_term: true
  }
}
layer {
  name: "res2c_branch2b_relu"
  type: "ReLU"
  bottom: "res2c_branch2b"
  top: "res2c_branch2b"
}
layer {
  name: "res2c_branch2c"
  type: "Convolution"
  bottom: "res2c_branch2b"
  top: "res2c_branch2c"
  convolution_param {
    num_output: 256
    bias_term: false
    pad: 0
    kernel_size: 1
    stride: 1
    weight_filler {
      type: "msra"
    }
  }
}
layer {
  name: "bn2c_branch2c"
  type: "BatchNorm"
  bottom: "res2c_branch2c"
  top: "res2c_branch2c"
  param {
    lr_mult: 0
    decay_mult: 0
  }
  param {
    lr_mult: 0
    decay_mult: 0
  }
  param {
    lr_mult: 0
    decay_mult: 0
  }
}
layer {
  name: "scale2c_branch2c"
  type: "Scale"
  bottom: "res2c_branch2c"
  top: "res2c_branch2c"
  scale_param {
    bias_term: true
  }
}
layer {
  name: "res2c"
  type: "Eltwise"
  bottom: "res2b"
  bottom: "res2c_branch2c"
  top: "res2c"
  eltwise_param {
    operation: SUM
  }
}
layer {
  name: "res2c_relu"
  type: "ReLU"
  bottom: "res2c"
  top: "res2c"
}
layer {
  name: "res3a_branch1"
  type: "Convolution"
  bottom: "res2c"
  top: "res3a_branch1"
  convolution_param {
    num_output: 512
    bias_term: false
    pad: 0
    kernel_size: 1
    stride: 2
    weight_filler {
      type: "msra"
    }
  }
}
layer {
  name: "bn3a_branch1"
  type: "BatchNorm"
  bottom: "res3a_branch1"
  top: "res3a_branch1"
  param {
    lr_mult: 0
    decay_mult: 0
  }
  param {
    lr_mult: 0
    decay_mult: 0
  }
  param {
    lr_mult: 0
    decay_mult: 0
  }
}
layer {
  name: "scale3a_branch1"
  type: "Scale"
  bottom: "res3a_branch1"
  top: "res3a_branch1"
  scale_param {
    bias_term: true
  }
}
layer {
  name: "res3a_branch2a"
  type: "Convolution"
  bottom: "res2c"
  top: "res3a_branch2a"
  convolution_param {
    num_output: 128
    bias_term: false
    pad: 0
    kernel_size: 1
    stride: 2
    weight_filler {
      type: "msra"
    }
  }
}
layer {
  name: "bn3a_branch2a"
  type: "BatchNorm"
  bottom: "res3a_branch2a"
  top: "res3a_branch2a"
  param {
    lr_mult: 0
    decay_mult: 0
  }
  param {
    lr_mult: 0
    decay_mult: 0
  }
  param {
    lr_mult: 0
    decay_mult: 0
  }
}
layer {
  name: "scale3a_branch2a"
  type: "Scale"
  bottom: "res3a_branch2a"
  top: "res3a_branch2a"
  scale_param {
    bias_term: true
  }
}
layer {
  name: "res3a_branch2a_relu"
  type: "ReLU"
  bottom: "res3a_branch2a"
  top: "res3a_branch2a"
}
layer {
  name: "res3a_branch2b"
  type: "Convolution"
  bottom: "res3a_branch2a"
  top: "res3a_branch2b"
  convolution_param {
    num_output: 128
    bias_term: false
    pad: 1
    kernel_size: 3
    stride: 1
    weight_filler {
      type: "msra"
    }
  }
}
layer {
  name: "bn3a_branch2b"
  type: "BatchNorm"
  bottom: "res3a_branch2b"
  top: "res3a_branch2b"
  param {
    lr_mult: 0
    decay_mult: 0
  }
  param {
    lr_mult: 0
    decay_mult: 0
  }
  param {
    lr_mult: 0
    decay_mult: 0
  }
}
layer {
  name: "scale3a_branch2b"
  type: "Scale"
  bottom: "res3a_branch2b"
  top: "res3a_branch2b"
  scale_param {
    bias_term: true
  }
}
layer {
  name: "res3a_branch2b_relu"
  type: "ReLU"
  bottom: "res3a_branch2b"
  top: "res3a_branch2b"
}
layer {
  name: "res3a_branch2c"
  type: "Convolution"
  bottom: "res3a_branch2b"
  top: "res3a_branch2c"
  convolution_param {
    num_output: 512
    bias_term: false
    pad: 0
    kernel_size: 1
    stride: 1
    weight_filler {
      type: "msra"
    }
  }
}
layer {
  name: "bn3a_branch2c"
  type: "BatchNorm"
  bottom: "res3a_branch2c"
  top: "res3a_branch2c"
  param {
    lr_mult: 0
    decay_mult: 0
  }
  param {
    lr_mult: 0
    decay_mult: 0
  }
  param {
    lr_mult: 0
    decay_mult: 0
  }
}
layer {
  name: "scale3a_branch2c"
  type: "Scale"
  bottom: "res3a_branch2c"
  top: "res3a_branch2c"
  scale_param {
    bias_term: true
  }
}
layer {
  name: "res3a"
  type: "Eltwise"
  bottom: "res3a_branch1"
  bottom: "res3a_branch2c"
  top: "res3a"
  eltwise_param {
    operation: SUM
  }
}
layer {
  name: "res3a_relu"
  type: "ReLU"
  bottom: "res3a"
  top: "res3a"
}
layer {
  name: "res3b_branch2a"
  type: "Convolution"
  bottom: "res3a"
  top: "res3b_branch2a"
  convolution_param {
    num_output: 128
    bias_term: false
    pad: 0
    kernel_size: 1
    stride: 1
    weight_filler {
      type: "msra"
    }
  }
}
layer {
  name: "bn3b_branch2a"
  type: "BatchNorm"
  bottom: "res3b_branch2a"
  top: "res3b_branch2a"
  param {
    lr_mult: 0
    decay_mult: 0
  }
  param {
    lr_mult: 0
    decay_mult: 0
  }
  param {
    lr_mult: 0
    decay_mult: 0
  }
}
layer {
  name: "scale3b_branch2a"
  type: "Scale"
  bottom: "res3b_branch2a"
  top: "res3b_branch2a"
  scale_param {
    bias_term: true
  }
}
layer {
  name: "res3b_branch2a_relu"
  type: "ReLU"
  bottom: "res3b_branch2a"
  top: "res3b_branch2a"
}
layer {
  name: "res3b_branch2b"
  type: "Convolution"
  bottom: "res3b_branch2a"
  top: "res3b_branch2b"
  convolution_param {
    num_output: 128
    bias_term: false
    pad: 1
    kernel_size: 3
    stride: 1
    weight_filler {
      type: "msra"
    }
  }
}
layer {
  name: "bn3b_branch2b"
  type: "BatchNorm"
  bottom: "res3b_branch2b"
  top: "res3b_branch2b"
  param {
    lr_mult: 0
    decay_mult: 0
  }
  param {
    lr_mult: 0
    decay_mult: 0
  }
  param {
    lr_mult: 0
    decay_mult: 0
  }
}
layer {
  name: "scale3b_branch2b"
  type: "Scale"
  bottom: "res3b_branch2b"
  top: "res3b_branch2b"
  scale_param {
    bias_term: true
  }
}
layer {
  name: "res3b_branch2b_relu"
  type: "ReLU"
  bottom: "res3b_branch2b"
  top: "res3b_branch2b"
}
layer {
  name: "res3b_branch2c"
  type: "Convolution"
  bottom: "res3b_branch2b"
  top: "res3b_branch2c"
  convolution_param {
    num_output: 512
    bias_term: false
    pad: 0
    kernel_size: 1
    stride: 1
    weight_filler {
      type: "msra"
    }
  }
}
layer {
  name: "bn3b_branch2c"
  type: "BatchNorm"
  bottom: "res3b_branch2c"
  top: "res3b_branch2c"
  param {
    lr_mult: 0
    decay_mult: 0
  }
  param {
    lr_mult: 0
    decay_mult: 0
  }
  param {
    lr_mult: 0
    decay_mult: 0
  }
}
layer {
  name: "scale3b_branch2c"
  type: "Scale"
  bottom: "res3b_branch2c"
  top: "res3b_branch2c"
  scale_param {
    bias_term: true
  }
}
layer {
  name: "res3b"
  type: "Eltwise"
  bottom: "res3a"
  bottom: "res3b_branch2c"
  top: "res3b"
  eltwise_param {
    operation: SUM
  }
}
layer {
  name: "res3b_relu"
  type: "ReLU"
  bottom: "res3b"
  top: "res3b"
}
layer {
  name: "res3c_branch2a"
  type: "Convolution"
  bottom: "res3b"
  top: "res3c_branch2a"
  convolution_param {
    num_output: 128
    bias_term: false
    pad: 0
    kernel_size: 1
    stride: 1
    weight_filler {
      type: "msra"
    }
  }
}
layer {
  name: "bn3c_branch2a"
  type: "BatchNorm"
  bottom: "res3c_branch2a"
  top: "res3c_branch2a"
  param {
    lr_mult: 0
    decay_mult: 0
  }
  param {
    lr_mult: 0
    decay_mult: 0
  }
  param {
    lr_mult: 0
    decay_mult: 0
  }
}
layer {
  name: "scale3c_branch2a"
  type: "Scale"
  bottom: "res3c_branch2a"
  top: "res3c_branch2a"
  scale_param {
    bias_term: true
  }
}
layer {
  name: "res3c_branch2a_relu"
  type: "ReLU"
  bottom: "res3c_branch2a"
  top: "res3c_branch2a"
}
layer {
  name: "res3c_branch2b"
  type: "Convolution"
  bottom: "res3c_branch2a"
  top: "res3c_branch2b"
  convolution_param {
    num_output: 128
    bias_term: false
    pad: 1
    kernel_size: 3
    stride: 1
    weight_filler {
      type: "msra"
    }
  }
}
layer {
  name: "bn3c_branch2b"
  type: "BatchNorm"
  bottom: "res3c_branch2b"
  top: "res3c_branch2b"
  param {
    lr_mult: 0
    decay_mult: 0
  }
  param {
    lr_mult: 0
    decay_mult: 0
  }
  param {
    lr_mult: 0
    decay_mult: 0
  }
}
layer {
  name: "scale3c_branch2b"
  type: "Scale"
  bottom: "res3c_branch2b"
  top: "res3c_branch2b"
  scale_param {
    bias_term: true
  }
}
layer {
  name: "res3c_branch2b_relu"
  type: "ReLU"
  bottom: "res3c_branch2b"
  top: "res3c_branch2b"
}
layer {
  name: "res3c_branch2c"
  type: "Convolution"
  bottom: "res3c_branch2b"
  top: "res3c_branch2c"
  convolution_param {
    num_output: 512
    bias_term: false
    pad: 0
    kernel_size: 1
    stride: 1
    weight_filler {
      type: "msra"
    }
  }
}
layer {
  name: "bn3c_branch2c"
  type: "BatchNorm"
  bottom: "res3c_branch2c"
  top: "res3c_branch2c"
  param {
    lr_mult: 0
    decay_mult: 0
  }
  param {
    lr_mult: 0
    decay_mult: 0
  }
  param {
    lr_mult: 0
    decay_mult: 0
  }
}
layer {
  name: "scale3c_branch2c"
  type: "Scale"
  bottom: "res3c_branch2c"
  top: "res3c_branch2c"
  scale_param {
    bias_term: true
  }
}
layer {
  name: "res3c"
  type: "Eltwise"
  bottom: "res3b"
  bottom: "res3c_branch2c"
  top: "res3c"
  eltwise_param {
    operation: SUM
  }
}
layer {
  name: "res3c_relu"
  type: "ReLU"
  bottom: "res3c"
  top: "res3c"
}
layer {
  name: "res3d_branch2a"
  type: "Convolution"
  bottom: "res3c"
  top: "res3d_branch2a"
  convolution_param {
    num_output: 128
    bias_term: false
    pad: 0
    kernel_size: 1
    stride: 1
    weight_filler {
      type: "msra"
    }
  }
}
layer {
  name: "bn3d_branch2a"
  type: "BatchNorm"
  bottom: "res3d_branch2a"
  top: "res3d_branch2a"
  param {
    lr_mult: 0
    decay_mult: 0
  }
  param {
    lr_mult: 0
    decay_mult: 0
  }
  param {
    lr_mult: 0
    decay_mult: 0
  }
}
layer {
  name: "scale3d_branch2a"
  type: "Scale"
  bottom: "res3d_branch2a"
  top: "res3d_branch2a"
  scale_param {
    bias_term: true
  }
}
layer {
  name: "res3d_branch2a_relu"
  type: "ReLU"
  bottom: "res3d_branch2a"
  top: "res3d_branch2a"
}
layer {
  name: "res3d_branch2b"
  type: "Convolution"
  bottom: "res3d_branch2a"
  top: "res3d_branch2b"
  convolution_param {
    num_output: 128
    bias_term: false
    pad: 1
    kernel_size: 3
    stride: 1
    weight_filler {
      type: "msra"
    }
  }
}
layer {
  name: "bn3d_branch2b"
  type: "BatchNorm"
  bottom: "res3d_branch2b"
  top: "res3d_branch2b"
  param {
    lr_mult: 0
    decay_mult: 0
  }
  param {
    lr_mult: 0
    decay_mult: 0
  }
  param {
    lr_mult: 0
    decay_mult: 0
  }
}
layer {
  name: "scale3d_branch2b"
  type: "Scale"
  bottom: "res3d_branch2b"
  top: "res3d_branch2b"
  scale_param {
    bias_term: true
  }
}
layer {
  name: "res3d_branch2b_relu"
  type: "ReLU"
  bottom: "res3d_branch2b"
  top: "res3d_branch2b"
}
layer {
  name: "res3d_branch2c"
  type: "Convolution"
  bottom: "res3d_branch2b"
  top: "res3d_branch2c"
  convolution_param {
    num_output: 512
    bias_term: false
    pad: 0
    kernel_size: 1
    stride: 1
    weight_filler {
      type: "msra"
    }
  }
}
layer {
  name: "bn3d_branch2c"
  type: "BatchNorm"
  bottom: "res3d_branch2c"
  top: "res3d_branch2c"
  param {
    lr_mult: 0
    decay_mult: 0
  }
  param {
    lr_mult: 0
    decay_mult: 0
  }
  param {
    lr_mult: 0
    decay_mult: 0
  }
}
layer {
  name: "scale3d_branch2c"
  type: "Scale"
  bottom: "res3d_branch2c"
  top: "res3d_branch2c"
  scale_param {
    bias_term: true
  }
}
layer {
  name: "res3d"
  type: "Eltwise"
  bottom: "res3c"
  bottom: "res3d_branch2c"
  top: "res3d"
  eltwise_param {
    operation: SUM
  }
}
layer {
  name: "res3d_relu"
  type: "ReLU"
  bottom: "res3d"
  top: "res3d"
}
layer {
  name: "res4a_branch1"
  type: "Convolution"
  bottom: "res3d"
  top: "res4a_branch1"
  convolution_param {
    num_output: 1024
    bias_term: false
    pad: 0
    kernel_size: 1
    stride: 2
    weight_filler {
      type: "msra"
    }
  }
}
layer {
  name: "bn4a_branch1"
  type: "BatchNorm"
  bottom: "res4a_branch1"
  top: "res4a_branch1"
  param {
    lr_mult: 0
    decay_mult: 0
  }
  param {
    lr_mult: 0
    decay_mult: 0
  }
  param {
    lr_mult: 0
    decay_mult: 0
  }
}
layer {
  name: "scale4a_branch1"
  type: "Scale"
  bottom: "res4a_branch1"
  top: "res4a_branch1"
  scale_param {
    bias_term: true
  }
}
layer {
  name: "res4a_branch2a"
  type: "Convolution"
  bottom: "res3d"
  top: "res4a_branch2a"
  convolution_param {
    num_output: 256
    bias_term: false
    pad: 0
    kernel_size: 1
    stride: 2
    weight_filler {
      type: "msra"
    }
  }
}
layer {
  name: "bn4a_branch2a"
  type: "BatchNorm"
  bottom: "res4a_branch2a"
  top: "res4a_branch2a"
  param {
    lr_mult: 0
    decay_mult: 0
  }
  param {
    lr_mult: 0
    decay_mult: 0
  }
  param {
    lr_mult: 0
    decay_mult: 0
  }
}
layer {
  name: "scale4a_branch2a"
  type: "Scale"
  bottom: "res4a_branch2a"
  top: "res4a_branch2a"
  scale_param {
    bias_term: true
  }
}
layer {
  name: "res4a_branch2a_relu"
  type: "ReLU"
  bottom: "res4a_branch2a"
  top: "res4a_branch2a"
}
layer {
  name: "res4a_branch2b"
  type: "Convolution"
  bottom: "res4a_branch2a"
  top: "res4a_branch2b"
  convolution_param {
    num_output: 256
    bias_term: false
    pad: 1
    kernel_size: 3
    stride: 1
    weight_filler {
      type: "msra"
    }
  }
}
layer {
  name: "bn4a_branch2b"
  type: "BatchNorm"
  bottom: "res4a_branch2b"
  top: "res4a_branch2b"
  param {
    lr_mult: 0
    decay_mult: 0
  }
  param {
    lr_mult: 0
    decay_mult: 0
  }
  param {
    lr_mult: 0
    decay_mult: 0
  }
}
layer {
  name: "scale4a_branch2b"
  type: "Scale"
  bottom: "res4a_branch2b"
  top: "res4a_branch2b"
  scale_param {
    bias_term: true
  }
}
layer {
  name: "res4a_branch2b_relu"
  type: "ReLU"
  bottom: "res4a_branch2b"
  top: "res4a_branch2b"
}
layer {
  name: "res4a_branch2c"
  type: "Convolution"
  bottom: "res4a_branch2b"
  top: "res4a_branch2c"
  convolution_param {
    num_output: 1024
    bias_term: false
    pad: 0
    kernel_size: 1
    stride: 1
    weight_filler {
      type: "msra"
    }
  }
}
layer {
  name: "bn4a_branch2c"
  type: "BatchNorm"
  bottom: "res4a_branch2c"
  top: "res4a_branch2c"
  param {
    lr_mult: 0
    decay_mult: 0
  }
  param {
    lr_mult: 0
    decay_mult: 0
  }
  param {
    lr_mult: 0
    decay_mult: 0
  }
}
layer {
  name: "scale4a_branch2c"
  type: "Scale"
  bottom: "res4a_branch2c"
  top: "res4a_branch2c"
  scale_param {
    bias_term: true
  }
}
layer {
  name: "res4a"
  type: "Eltwise"
  bottom: "res4a_branch1"
  bottom: "res4a_branch2c"
  top: "res4a"
  eltwise_param {
    operation: SUM
  }
}
layer {
  name: "res4a_relu"
  type: "ReLU"
  bottom: "res4a"
  top: "res4a"
}
layer {
  name: "res4b_branch2a"
  type: "Convolution"
  bottom: "res4a"
  top: "res4b_branch2a"
  convolution_param {
    num_output: 256
    bias_term: false
    pad: 0
    kernel_size: 1
    stride: 1
    weight_filler {
      type: "msra"
    }
  }
}
layer {
  name: "bn4b_branch2a"
  type: "BatchNorm"
  bottom: "res4b_branch2a"
  top: "res4b_branch2a"
  param {
    lr_mult: 0
    decay_mult: 0
  }
  param {
    lr_mult: 0
    decay_mult: 0
  }
  param {
    lr_mult: 0
    decay_mult: 0
  }
}
layer {
  name: "scale4b_branch2a"
  type: "Scale"
  bottom: "res4b_branch2a"
  top: "res4b_branch2a"
  scale_param {
    bias_term: true
  }
}
layer {
  name: "res4b_branch2a_relu"
  type: "ReLU"
  bottom: "res4b_branch2a"
  top: "res4b_branch2a"
}
layer {
  name: "res4b_branch2b"
  type: "Convolution"
  bottom: "res4b_branch2a"
  top: "res4b_branch2b"
  convolution_param {
    num_output: 256
    bias_term: false
    pad: 1
    kernel_size: 3
    stride: 1
    weight_filler {
      type: "msra"
    }
  }
}
layer {
  name: "bn4b_branch2b"
  type: "BatchNorm"
  bottom: "res4b_branch2b"
  top: "res4b_branch2b"
  param {
    lr_mult: 0
    decay_mult: 0
  }
  param {
    lr_mult: 0
    decay_mult: 0
  }
  param {
    lr_mult: 0
    decay_mult: 0
  }
}
layer {
  name: "scale4b_branch2b"
  type: "Scale"
  bottom: "res4b_branch2b"
  top: "res4b_branch2b"
  scale_param {
    bias_term: true
  }
}
layer {
  name: "res4b_branch2b_relu"
  type: "ReLU"
  bottom: "res4b_branch2b"
  top: "res4b_branch2b"
}
layer {
  name: "res4b_branch2c"
  type: "Convolution"
  bottom: "res4b_branch2b"
  top: "res4b_branch2c"
  convolution_param {
    num_output: 1024
    bias_term: false
    pad: 0
    kernel_size: 1
    stride: 1
    weight_filler {
      type: "msra"
    }
  }
}
layer {
  name: "bn4b_branch2c"
  type: "BatchNorm"
  bottom: "res4b_branch2c"
  top: "res4b_branch2c"
  param {
    lr_mult: 0
    decay_mult: 0
  }
  param {
    lr_mult: 0
    decay_mult: 0
  }
  param {
    lr_mult: 0
    decay_mult: 0
  }
}
layer {
  name: "scale4b_branch2c"
  type: "Scale"
  bottom: "res4b_branch2c"
  top: "res4b_branch2c"
  scale_param {
    bias_term: true
  }
}
layer {
  name: "res4b"
  type: "Eltwise"
  bottom: "res4a"
  bottom: "res4b_branch2c"
  top: "res4b"
  eltwise_param {
    operation: SUM
  }
}
layer {
  name: "res4b_relu"
  type: "ReLU"
  bottom: "res4b"
  top: "res4b"
}
layer {
  name: "res4c_branch2a"
  type: "Convolution"
  bottom: "res4b"
  top: "res4c_branch2a"
  convolution_param {
    num_output: 256
    bias_term: false
    pad: 0
    kernel_size: 1
    stride: 1
    weight_filler {
      type: "msra"
    }
  }
}
layer {
  name: "bn4c_branch2a"
  type: "BatchNorm"
  bottom: "res4c_branch2a"
  top: "res4c_branch2a"
  param {
    lr_mult: 0
    decay_mult: 0
  }
  param {
    lr_mult: 0
    decay_mult: 0
  }
  param {
    lr_mult: 0
    decay_mult: 0
  }
}
layer {
  name: "scale4c_branch2a"
  type: "Scale"
  bottom: "res4c_branch2a"
  top: "res4c_branch2a"
  scale_param {
    bias_term: true
  }
}
layer {
  name: "res4c_branch2a_relu"
  type: "ReLU"
  bottom: "res4c_branch2a"
  top: "res4c_branch2a"
}
layer {
  name: "res4c_branch2b"
  type: "Convolution"
  bottom: "res4c_branch2a"
  top: "res4c_branch2b"
  convolution_param {
    num_output: 256
    bias_term: false
    pad: 1
    kernel_size: 3
    stride: 1
    weight_filler {
      type: "msra"
    }
  }
}
layer {
  name: "bn4c_branch2b"
  type: "BatchNorm"
  bottom: "res4c_branch2b"
  top: "res4c_branch2b"
  param {
    lr_mult: 0
    decay_mult: 0
  }
  param {
    lr_mult: 0
    decay_mult: 0
  }
  param {
    lr_mult: 0
    decay_mult: 0
  }
}
layer {
  name: "scale4c_branch2b"
  type: "Scale"
  bottom: "res4c_branch2b"
  top: "res4c_branch2b"
  scale_param {
    bias_term: true
  }
}
layer {
  name: "res4c_branch2b_relu"
  type: "ReLU"
  bottom: "res4c_branch2b"
  top: "res4c_branch2b"
}
layer {
  name: "res4c_branch2c"
  type: "Convolution"
  bottom: "res4c_branch2b"
  top: "res4c_branch2c"
  convolution_param {
    num_output: 1024
    bias_term: false
    pad: 0
    kernel_size: 1
    stride: 1
    weight_filler {
      type: "msra"
    }
  }
}
layer {
  name: "bn4c_branch2c"
  type: "BatchNorm"
  bottom: "res4c_branch2c"
  top: "res4c_branch2c"
  param {
    lr_mult: 0
    decay_mult: 0
  }
  param {
    lr_mult: 0
    decay_mult: 0
  }
  param {
    lr_mult: 0
    decay_mult: 0
  }
}
layer {
  name: "scale4c_branch2c"
  type: "Scale"
  bottom: "res4c_branch2c"
  top: "res4c_branch2c"
  scale_param {
    bias_term: true
  }
}
layer {
  name: "res4c"
  type: "Eltwise"
  bottom: "res4b"
  bottom: "res4c_branch2c"
  top: "res4c"
  eltwise_param {
    operation: SUM
  }
}
layer {
  name: "res4c_relu"
  type: "ReLU"
  bottom: "res4c"
  top: "res4c"
}
layer {
  name: "res4d_branch2a"
  type: "Convolution"
  bottom: "res4c"
  top: "res4d_branch2a"
  convolution_param {
    num_output: 256
    bias_term: false
    pad: 0
    kernel_size: 1
    stride: 1
    weight_filler {
      type: "msra"
    }
  }
}
layer {
  name: "bn4d_branch2a"
  type: "BatchNorm"
  bottom: "res4d_branch2a"
  top: "res4d_branch2a"
  param {
    lr_mult: 0
    decay_mult: 0
  }
  param {
    lr_mult: 0
    decay_mult: 0
  }
  param {
    lr_mult: 0
    decay_mult: 0
  }
}
layer {
  name: "scale4d_branch2a"
  type: "Scale"
  bottom: "res4d_branch2a"
  top: "res4d_branch2a"
  scale_param {
    bias_term: true
  }
}
layer {
  name: "res4d_branch2a_relu"
  type: "ReLU"
  bottom: "res4d_branch2a"
  top: "res4d_branch2a"
}
layer {
  name: "res4d_branch2b"
  type: "Convolution"
  bottom: "res4d_branch2a"
  top: "res4d_branch2b"
  convolution_param {
    num_output: 256
    bias_term: false
    pad: 1
    kernel_size: 3
    stride: 1
    weight_filler {
      type: "msra"
    }
  }
}
layer {
  name: "bn4d_branch2b"
  type: "BatchNorm"
  bottom: "res4d_branch2b"
  top: "res4d_branch2b"
  param {
    lr_mult: 0
    decay_mult: 0
  }
  param {
    lr_mult: 0
    decay_mult: 0
  }
  param {
    lr_mult: 0
    decay_mult: 0
  }
}
layer {
  name: "scale4d_branch2b"
  type: "Scale"
  bottom: "res4d_branch2b"
  top: "res4d_branch2b"
  scale_param {
    bias_term: true
  }
}
layer {
  name: "res4d_branch2b_relu"
  type: "ReLU"
  bottom: "res4d_branch2b"
  top: "res4d_branch2b"
}
layer {
  name: "res4d_branch2c"
  type: "Convolution"
  bottom: "res4d_branch2b"
  top: "res4d_branch2c"
  convolution_param {
    num_output: 1024
    bias_term: false
    pad: 0
    kernel_size: 1
    stride: 1
    weight_filler {
      type: "msra"
    }
  }
}
layer {
  name: "bn4d_branch2c"
  type: "BatchNorm"
  bottom: "res4d_branch2c"
  top: "res4d_branch2c"
  param {
    lr_mult: 0
    decay_mult: 0
  }
  param {
    lr_mult: 0
    decay_mult: 0
  }
  param {
    lr_mult: 0
    decay_mult: 0
  }
}
layer {
  name: "scale4d_branch2c"
  type: "Scale"
  bottom: "res4d_branch2c"
  top: "res4d_branch2c"
  scale_param {
    bias_term: true
  }
}
layer {
  name: "res4d"
  type: "Eltwise"
  bottom: "res4c"
  bottom: "res4d_branch2c"
  top: "res4d"
  eltwise_param {
    operation: SUM
  }
}
layer {
  name: "res4d_relu"
  type: "ReLU"
  bottom: "res4d"
  top: "res4d"
}
layer {
  name: "res4e_branch2a"
  type: "Convolution"
  bottom: "res4d"
  top: "res4e_branch2a"
  convolution_param {
    num_output: 256
    bias_term: false
    pad: 0
    kernel_size: 1
    stride: 1
    weight_filler {
      type: "msra"
    }
  }
}
layer {
  name: "bn4e_branch2a"
  type: "BatchNorm"
  bottom: "res4e_branch2a"
  top: "res4e_branch2a"
  param {
    lr_mult: 0
    decay_mult: 0
  }
  param {
    lr_mult: 0
    decay_mult: 0
  }
  param {
    lr_mult: 0
    decay_mult: 0
  }
}
layer {
  name: "scale4e_branch2a"
  type: "Scale
I0717 11:32:39.702157 14746 layer_factory.hpp:77] Creating layer data
I0717 11:32:39.702231 14746 db_lmdb.cpp:35] Opened lmdb lmdb/train_lmdb
I0717 11:32:39.702251 14746 net.cpp:84] Creating Layer data
I0717 11:32:39.702256 14746 net.cpp:380] data -> data
I0717 11:32:39.702272 14746 net.cpp:380] data -> label
I0717 11:32:39.702282 14746 data_transformer.cpp:25] Loading mean file from: modeldef/mean.binaryproto
I0717 11:32:39.704730 14746 data_layer.cpp:45] output data size: 24,3,224,224
I0717 11:32:39.731182 14746 net.cpp:122] Setting up data
I0717 11:32:39.731225 14746 net.cpp:129] Top shape: 24 3 224 224 (3612672)
I0717 11:32:39.731230 14746 net.cpp:129] Top shape: 24 (24)
I0717 11:32:39.731232 14746 net.cpp:137] Memory required for data: 14450784
I0717 11:32:39.731241 14746 layer_factory.hpp:77] Creating layer conv1
I0717 11:32:39.731258 14746 net.cpp:84] Creating Layer conv1
I0717 11:32:39.731276 14746 net.cpp:406] conv1 <- data
I0717 11:32:39.731300 14746 net.cpp:380] conv1 -> conv1
I0717 11:32:40.206712 14746 net.cpp:122] Setting up conv1
I0717 11:32:40.206732 14746 net.cpp:129] Top shape: 24 64 112 112 (19267584)
I0717 11:32:40.206735 14746 net.cpp:137] Memory required for data: 91521120
I0717 11:32:40.206749 14746 layer_factory.hpp:77] Creating layer bn_conv1
I0717 11:32:40.206758 14746 net.cpp:84] Creating Layer bn_conv1
I0717 11:32:40.206761 14746 net.cpp:406] bn_conv1 <- conv1
I0717 11:32:40.206766 14746 net.cpp:367] bn_conv1 -> conv1 (in-place)
I0717 11:32:40.206954 14746 net.cpp:122] Setting up bn_conv1
I0717 11:32:40.206959 14746 net.cpp:129] Top shape: 24 64 112 112 (19267584)
I0717 11:32:40.206974 14746 net.cpp:137] Memory required for data: 168591456
I0717 11:32:40.206981 14746 layer_factory.hpp:77] Creating layer scale_conv1
I0717 11:32:40.206985 14746 net.cpp:84] Creating Layer scale_conv1
I0717 11:32:40.206987 14746 net.cpp:406] scale_conv1 <- conv1
I0717 11:32:40.206991 14746 net.cpp:367] scale_conv1 -> conv1 (in-place)
I0717 11:32:40.207023 14746 layer_factory.hpp:77] Creating layer scale_conv1
I0717 11:32:40.207103 14746 net.cpp:122] Setting up scale_conv1
I0717 11:32:40.207108 14746 net.cpp:129] Top shape: 24 64 112 112 (19267584)
I0717 11:32:40.207110 14746 net.cpp:137] Memory required for data: 245661792
I0717 11:32:40.207114 14746 layer_factory.hpp:77] Creating layer conv1_relu
I0717 11:32:40.207119 14746 net.cpp:84] Creating Layer conv1_relu
I0717 11:32:40.207121 14746 net.cpp:406] conv1_relu <- conv1
I0717 11:32:40.207124 14746 net.cpp:367] conv1_relu -> conv1 (in-place)
I0717 11:32:40.207465 14746 net.cpp:122] Setting up conv1_relu
I0717 11:32:40.207473 14746 net.cpp:129] Top shape: 24 64 112 112 (19267584)
I0717 11:32:40.207475 14746 net.cpp:137] Memory required for data: 322732128
I0717 11:32:40.207478 14746 layer_factory.hpp:77] Creating layer pool1
I0717 11:32:40.207482 14746 net.cpp:84] Creating Layer pool1
I0717 11:32:40.207484 14746 net.cpp:406] pool1 <- conv1
I0717 11:32:40.207487 14746 net.cpp:380] pool1 -> pool1
I0717 11:32:40.207537 14746 net.cpp:122] Setting up pool1
I0717 11:32:40.207556 14746 net.cpp:129] Top shape: 24 64 56 56 (4816896)
I0717 11:32:40.207557 14746 net.cpp:137] Memory required for data: 341999712
I0717 11:32:40.207559 14746 layer_factory.hpp:77] Creating layer pool1_pool1_0_split
I0717 11:32:40.207562 14746 net.cpp:84] Creating Layer pool1_pool1_0_split
I0717 11:32:40.207566 14746 net.cpp:406] pool1_pool1_0_split <- pool1
I0717 11:32:40.207569 14746 net.cpp:380] pool1_pool1_0_split -> pool1_pool1_0_split_0
I0717 11:32:40.207574 14746 net.cpp:380] pool1_pool1_0_split -> pool1_pool1_0_split_1
I0717 11:32:40.207612 14746 net.cpp:122] Setting up pool1_pool1_0_split
I0717 11:32:40.207617 14746 net.cpp:129] Top shape: 24 64 56 56 (4816896)
I0717 11:32:40.207620 14746 net.cpp:129] Top shape: 24 64 56 56 (4816896)
I0717 11:32:40.207623 14746 net.cpp:137] Memory required for data: 380534880
I0717 11:32:40.207623 14746 layer_factory.hpp:77] Creating layer res2a_branch1
I0717 11:32:40.207643 14746 net.cpp:84] Creating Layer res2a_branch1
I0717 11:32:40.207645 14746 net.cpp:406] res2a_branch1 <- pool1_pool1_0_split_0
I0717 11:32:40.207664 14746 net.cpp:380] res2a_branch1 -> res2a_branch1
I0717 11:32:40.209064 14746 net.cpp:122] Setting up res2a_branch1
I0717 11:32:40.209074 14746 net.cpp:129] Top shape: 24 256 56 56 (19267584)
I0717 11:32:40.209076 14746 net.cpp:137] Memory required for data: 457605216
I0717 11:32:40.209080 14746 layer_factory.hpp:77] Creating layer bn2a_branch1
I0717 11:32:40.209086 14746 net.cpp:84] Creating Layer bn2a_branch1
I0717 11:32:40.209089 14746 net.cpp:406] bn2a_branch1 <- res2a_branch1
I0717 11:32:40.209092 14746 net.cpp:367] bn2a_branch1 -> res2a_branch1 (in-place)
I0717 11:32:40.209885 14746 net.cpp:122] Setting up bn2a_branch1
I0717 11:32:40.209894 14746 net.cpp:129] Top shape: 24 256 56 56 (19267584)
I0717 11:32:40.209898 14746 net.cpp:137] Memory required for data: 534675552
I0717 11:32:40.209918 14746 layer_factory.hpp:77] Creating layer scale2a_branch1
I0717 11:32:40.209923 14746 net.cpp:84] Creating Layer scale2a_branch1
I0717 11:32:40.209924 14746 net.cpp:406] scale2a_branch1 <- res2a_branch1
I0717 11:32:40.209928 14746 net.cpp:367] scale2a_branch1 -> res2a_branch1 (in-place)
I0717 11:32:40.209971 14746 layer_factory.hpp:77] Creating layer scale2a_branch1
I0717 11:32:40.210086 14746 net.cpp:122] Setting up scale2a_branch1
I0717 11:32:40.210091 14746 net.cpp:129] Top shape: 24 256 56 56 (19267584)
I0717 11:32:40.210094 14746 net.cpp:137] Memory required for data: 611745888
I0717 11:32:40.210098 14746 layer_factory.hpp:77] Creating layer res2a_branch2a
I0717 11:32:40.210105 14746 net.cpp:84] Creating Layer res2a_branch2a
I0717 11:32:40.210115 14746 net.cpp:406] res2a_branch2a <- pool1_pool1_0_split_1
I0717 11:32:40.210120 14746 net.cpp:380] res2a_branch2a -> res2a_branch2a
I0717 11:32:40.211474 14746 net.cpp:122] Setting up res2a_branch2a
I0717 11:32:40.211483 14746 net.cpp:129] Top shape: 24 64 56 56 (4816896)
I0717 11:32:40.211486 14746 net.cpp:137] Memory required for data: 631013472
I0717 11:32:40.211490 14746 layer_factory.hpp:77] Creating layer bn2a_branch2a
I0717 11:32:40.211494 14746 net.cpp:84] Creating Layer bn2a_branch2a
I0717 11:32:40.211496 14746 net.cpp:406] bn2a_branch2a <- res2a_branch2a
I0717 11:32:40.211500 14746 net.cpp:367] bn2a_branch2a -> res2a_branch2a (in-place)
I0717 11:32:40.211658 14746 net.cpp:122] Setting up bn2a_branch2a
I0717 11:32:40.211663 14746 net.cpp:129] Top shape: 24 64 56 56 (4816896)
I0717 11:32:40.211664 14746 net.cpp:137] Memory required for data: 650281056
I0717 11:32:40.211670 14746 layer_factory.hpp:77] Creating layer scale2a_branch2a
I0717 11:32:40.211694 14746 net.cpp:84] Creating Layer scale2a_branch2a
I0717 11:32:40.211695 14746 net.cpp:406] scale2a_branch2a <- res2a_branch2a
I0717 11:32:40.211699 14746 net.cpp:367] scale2a_branch2a -> res2a_branch2a (in-place)
I0717 11:32:40.211738 14746 layer_factory.hpp:77] Creating layer scale2a_branch2a
I0717 11:32:40.211845 14746 net.cpp:122] Setting up scale2a_branch2a
I0717 11:32:40.211850 14746 net.cpp:129] Top shape: 24 64 56 56 (4816896)
I0717 11:32:40.211853 14746 net.cpp:137] Memory required for data: 669548640
I0717 11:32:40.211870 14746 layer_factory.hpp:77] Creating layer res2a_branch2a_relu
I0717 11:32:40.211875 14746 net.cpp:84] Creating Layer res2a_branch2a_relu
I0717 11:32:40.211877 14746 net.cpp:406] res2a_branch2a_relu <- res2a_branch2a
I0717 11:32:40.211881 14746 net.cpp:367] res2a_branch2a_relu -> res2a_branch2a (in-place)
I0717 11:32:40.212182 14746 net.cpp:122] Setting up res2a_branch2a_relu
I0717 11:32:40.212189 14746 net.cpp:129] Top shape: 24 64 56 56 (4816896)
I0717 11:32:40.212191 14746 net.cpp:137] Memory required for data: 688816224
I0717 11:32:40.212208 14746 layer_factory.hpp:77] Creating layer res2a_branch2b
I0717 11:32:40.212214 14746 net.cpp:84] Creating Layer res2a_branch2b
I0717 11:32:40.212218 14746 net.cpp:406] res2a_branch2b <- res2a_branch2a
I0717 11:32:40.212224 14746 net.cpp:380] res2a_branch2b -> res2a_branch2b
I0717 11:32:40.214608 14746 net.cpp:122] Setting up res2a_branch2b
I0717 11:32:40.214618 14746 net.cpp:129] Top shape: 24 64 56 56 (4816896)
I0717 11:32:40.214622 14746 net.cpp:137] Memory required for data: 708083808
I0717 11:32:40.214624 14746 layer_factory.hpp:77] Creating layer bn2a_branch2b
I0717 11:32:40.214630 14746 net.cpp:84] Creating Layer bn2a_branch2b
I0717 11:32:40.214633 14746 net.cpp:406] bn2a_branch2b <- res2a_branch2b
I0717 11:32:40.214638 14746 net.cpp:367] bn2a_branch2b -> res2a_branch2b (in-place)
I0717 11:32:40.214777 14746 net.cpp:122] Setting up bn2a_branch2b
I0717 11:32:40.214782 14746 net.cpp:129] Top shape: 24 64 56 56 (4816896)
I0717 11:32:40.214784 14746 net.cpp:137] Memory required for data: 727351392
I0717 11:32:40.214789 14746 layer_factory.hpp:77] Creating layer scale2a_branch2b
I0717 11:32:40.214800 14746 net.cpp:84] Creating Layer scale2a_branch2b
I0717 11:32:40.214802 14746 net.cpp:406] scale2a_branch2b <- res2a_branch2b
I0717 11:32:40.214805 14746 net.cpp:367] scale2a_branch2b -> res2a_branch2b (in-place)
I0717 11:32:40.214833 14746 layer_factory.hpp:77] Creating layer scale2a_branch2b
I0717 11:32:40.214911 14746 net.cpp:122] Setting up scale2a_branch2b
I0717 11:32:40.214916 14746 net.cpp:129] Top shape: 24 64 56 56 (4816896)
I0717 11:32:40.214918 14746 net.cpp:137] Memory required for data: 746618976
I0717 11:32:40.214922 14746 layer_factory.hpp:77] Creating layer res2a_branch2b_relu
I0717 11:32:40.214926 14746 net.cpp:84] Creating Layer res2a_branch2b_relu
I0717 11:32:40.214927 14746 net.cpp:406] res2a_branch2b_relu <- res2a_branch2b
I0717 11:32:40.214931 14746 net.cpp:367] res2a_branch2b_relu -> res2a_branch2b (in-place)
I0717 11:32:40.215492 14746 net.cpp:122] Setting up res2a_branch2b_relu
I0717 11:32:40.215507 14746 net.cpp:129] Top shape: 24 64 56 56 (4816896)
I0717 11:32:40.215510 14746 net.cpp:137] Memory required for data: 765886560
I0717 11:32:40.215528 14746 layer_factory.hpp:77] Creating layer res2a_branch2c
I0717 11:32:40.215534 14746 net.cpp:84] Creating Layer res2a_branch2c
I0717 11:32:40.215538 14746 net.cpp:406] res2a_branch2c <- res2a_branch2b
I0717 11:32:40.215541 14746 net.cpp:380] res2a_branch2c -> res2a_branch2c
I0717 11:32:40.217053 14746 net.cpp:122] Setting up res2a_branch2c
I0717 11:32:40.217079 14746 net.cpp:129] Top shape: 24 256 56 56 (19267584)
I0717 11:32:40.217082 14746 net.cpp:137] Memory required for data: 842956896
I0717 11:32:40.217087 14746 layer_factory.hpp:77] Creating layer bn2a_branch2c
I0717 11:32:40.217090 14746 net.cpp:84] Creating Layer bn2a_branch2c
I0717 11:32:40.217093 14746 net.cpp:406] bn2a_branch2c <- res2a_branch2c
I0717 11:32:40.217097 14746 net.cpp:367] bn2a_branch2c -> res2a_branch2c (in-place)
I0717 11:32:40.217229 14746 net.cpp:122] Setting up bn2a_branch2c
I0717 11:32:40.217234 14746 net.cpp:129] Top shape: 24 256 56 56 (19267584)
I0717 11:32:40.217237 14746 net.cpp:137] Memory required for data: 920027232
I0717 11:32:40.217242 14746 layer_factory.hpp:77] Creating layer scale2a_branch2c
I0717 11:32:40.217247 14746 net.cpp:84] Creating Layer scale2a_branch2c
I0717 11:32:40.217250 14746 net.cpp:406] scale2a_branch2c <- res2a_branch2c
I0717 11:32:40.217254 14746 net.cpp:367] scale2a_branch2c -> res2a_branch2c (in-place)
I0717 11:32:40.217281 14746 layer_factory.hpp:77] Creating layer scale2a_branch2c
I0717 11:32:40.217355 14746 net.cpp:122] Setting up scale2a_branch2c
I0717 11:32:40.217360 14746 net.cpp:129] Top shape: 24 256 56 56 (19267584)
I0717 11:32:40.217361 14746 net.cpp:137] Memory required for data: 997097568
I0717 11:32:40.217365 14746 layer_factory.hpp:77] Creating layer res2a
I0717 11:32:40.217370 14746 net.cpp:84] Creating Layer res2a
I0717 11:32:40.217372 14746 net.cpp:406] res2a <- res2a_branch1
I0717 11:32:40.217375 14746 net.cpp:406] res2a <- res2a_branch2c
I0717 11:32:40.217380 14746 net.cpp:380] res2a -> res2a
I0717 11:32:40.217417 14746 net.cpp:122] Setting up res2a
I0717 11:32:40.217422 14746 net.cpp:129] Top shape: 24 256 56 56 (19267584)
I0717 11:32:40.217424 14746 net.cpp:137] Memory required for data: 1074167904
I0717 11:32:40.217427 14746 layer_factory.hpp:77] Creating layer res2a_relu
I0717 11:32:40.217429 14746 net.cpp:84] Creating Layer res2a_relu
I0717 11:32:40.217432 14746 net.cpp:406] res2a_relu <- res2a
I0717 11:32:40.217437 14746 net.cpp:367] res2a_relu -> res2a (in-place)
I0717 11:32:40.217772 14746 net.cpp:122] Setting up res2a_relu
I0717 11:32:40.217780 14746 net.cpp:129] Top shape: 24 256 56 56 (19267584)
I0717 11:32:40.217782 14746 net.cpp:137] Memory required for data: 1151238240
I0717 11:32:40.217785 14746 layer_factory.hpp:77] Creating layer res2a_res2a_relu_0_split
I0717 11:32:40.217789 14746 net.cpp:84] Creating Layer res2a_res2a_relu_0_split
I0717 11:32:40.217792 14746 net.cpp:406] res2a_res2a_relu_0_split <- res2a
I0717 11:32:40.217797 14746 net.cpp:380] res2a_res2a_relu_0_split -> res2a_res2a_relu_0_split_0
I0717 11:32:40.217802 14746 net.cpp:380] res2a_res2a_relu_0_split -> res2a_res2a_relu_0_split_1
I0717 11:32:40.217828 14746 net.cpp:122] Setting up res2a_res2a_relu_0_split
I0717 11:32:40.217834 14746 net.cpp:129] Top shape: 24 256 56 56 (19267584)
I0717 11:32:40.217838 14746 net.cpp:129] Top shape: 24 256 56 56 (19267584)
I0717 11:32:40.217852 14746 net.cpp:137] Memory required for data: 1305378912
I0717 11:32:40.217854 14746 layer_factory.hpp:77] Creating layer res2b_branch2a
I0717 11:32:40.217864 14746 net.cpp:84] Creating Layer res2b_branch2a
I0717 11:32:40.217867 14746 net.cpp:406] res2b_branch2a <- res2a_res2a_relu_0_split_0
I0717 11:32:40.217873 14746 net.cpp:380] res2b_branch2a -> res2b_branch2a
I0717 11:32:40.219421 14746 net.cpp:122] Setting up res2b_branch2a
I0717 11:32:40.219431 14746 net.cpp:129] Top shape: 24 64 56 56 (4816896)
I0717 11:32:40.219434 14746 net.cpp:137] Memory required for data: 1324646496
I0717 11:32:40.219451 14746 layer_factory.hpp:77] Creating layer bn2b_branch2a
I0717 11:32:40.219460 14746 net.cpp:84] Creating Layer bn2b_branch2a
I0717 11:32:40.219463 14746 net.cpp:406] bn2b_branch2a <- res2b_branch2a
I0717 11:32:40.219467 14746 net.cpp:367] bn2b_branch2a -> res2b_branch2a (in-place)
I0717 11:32:40.219621 14746 net.cpp:122] Setting up bn2b_branch2a
I0717 11:32:40.219627 14746 net.cpp:129] Top shape: 24 64 56 56 (4816896)
I0717 11:32:40.219631 14746 net.cpp:137] Memory required for data: 1343914080
I0717 11:32:40.219642 14746 layer_factory.hpp:77] Creating layer scale2b_branch2a
I0717 11:32:40.219648 14746 net.cpp:84] Creating Layer scale2b_branch2a
I0717 11:32:40.219651 14746 net.cpp:406] scale2b_branch2a <- res2b_branch2a
I0717 11:32:40.219656 14746 net.cpp:367] scale2b_branch2a -> res2b_branch2a (in-place)
I0717 11:32:40.219686 14746 layer_factory.hpp:77] Creating layer scale2b_branch2a
I0717 11:32:40.219766 14746 net.cpp:122] Setting up scale2b_branch2a
I0717 11:32:40.219771 14746 net.cpp:129] Top shape: 24 64 56 56 (4816896)
I0717 11:32:40.219774 14746 net.cpp:137] Memory required for data: 1363181664
I0717 11:32:40.219777 14746 layer_factory.hpp:77] Creating layer res2b_branch2a_relu
I0717 11:32:40.219781 14746 net.cpp:84] Creating Layer res2b_branch2a_relu
I0717 11:32:40.219784 14746 net.cpp:406] res2b_branch2a_relu <- res2b_branch2a
I0717 11:32:40.219787 14746 net.cpp:367] res2b_branch2a_relu -> res2b_branch2a (in-place)
I0717 11:32:40.220103 14746 net.cpp:122] Setting up res2b_branch2a_relu
I0717 11:32:40.220109 14746 net.cpp:129] Top shape: 24 64 56 56 (4816896)
I0717 11:32:40.220113 14746 net.cpp:137] Memory required for data: 1382449248
I0717 11:32:40.220115 14746 layer_factory.hpp:77] Creating layer res2b_branch2b
I0717 11:32:40.220124 14746 net.cpp:84] Creating Layer res2b_branch2b
I0717 11:32:40.220127 14746 net.cpp:406] res2b_branch2b <- res2b_branch2a
I0717 11:32:40.220134 14746 net.cpp:380] res2b_branch2b -> res2b_branch2b
I0717 11:32:40.222875 14746 net.cpp:122] Setting up res2b_branch2b
I0717 11:32:40.222885 14746 net.cpp:129] Top shape: 24 64 56 56 (4816896)
I0717 11:32:40.222889 14746 net.cpp:137] Memory required for data: 1401716832
I0717 11:32:40.222895 14746 layer_factory.hpp:77] Creating layer bn2b_branch2b
I0717 11:32:40.222899 14746 net.cpp:84] Creating Layer bn2b_branch2b
I0717 11:32:40.222904 14746 net.cpp:406] bn2b_branch2b <- res2b_branch2b
I0717 11:32:40.222909 14746 net.cpp:367] bn2b_branch2b -> res2b_branch2b (in-place)
I0717 11:32:40.223048 14746 net.cpp:122] Setting up bn2b_branch2b
I0717 11:32:40.223053 14746 net.cpp:129] Top shape: 24 64 56 56 (4816896)
I0717 11:32:40.223055 14746 net.cpp:137] Memory required for data: 1420984416
I0717 11:32:40.223060 14746 layer_factory.hpp:77] Creating layer scale2b_branch2b
I0717 11:32:40.223064 14746 net.cpp:84] Creating Layer scale2b_branch2b
I0717 11:32:40.223067 14746 net.cpp:406] scale2b_branch2b <- res2b_branch2b
I0717 11:32:40.223070 14746 net.cpp:367] scale2b_branch2b -> res2b_branch2b (in-place)
I0717 11:32:40.223099 14746 layer_factory.hpp:77] Creating layer scale2b_branch2b
I0717 11:32:40.223186 14746 net.cpp:122] Setting up scale2b_branch2b
I0717 11:32:40.223191 14746 net.cpp:129] Top shape: 24 64 56 56 (4816896)
I0717 11:32:40.223193 14746 net.cpp:137] Memory required for data: 1440252000
I0717 11:32:40.223197 14746 layer_factory.hpp:77] Creating layer res2b_branch2b_relu
I0717 11:32:40.223201 14746 net.cpp:84] Creating Layer res2b_branch2b_relu
I0717 11:32:40.223202 14746 net.cpp:406] res2b_branch2b_relu <- res2b_branch2b
I0717 11:32:40.223206 14746 net.cpp:367] res2b_branch2b_relu -> res2b_branch2b (in-place)
I0717 11:32:40.223752 14746 net.cpp:122] Setting up res2b_branch2b_relu
I0717 11:32:40.223762 14746 net.cpp:129] Top shape: 24 64 56 56 (4816896)
I0717 11:32:40.223763 14746 net.cpp:137] Memory required for data: 1459519584
I0717 11:32:40.223765 14746 layer_factory.hpp:77] Creating layer res2b_branch2c
I0717 11:32:40.223775 14746 net.cpp:84] Creating Layer res2b_branch2c
I0717 11:32:40.223788 14746 net.cpp:406] res2b_branch2c <- res2b_branch2b
I0717 11:32:40.223791 14746 net.cpp:380] res2b_branch2c -> res2b_branch2c
I0717 11:32:40.225164 14746 net.cpp:122] Setting up res2b_branch2c
I0717 11:32:40.225174 14746 net.cpp:129] Top shape: 24 256 56 56 (19267584)
I0717 11:32:40.225178 14746 net.cpp:137] Memory required for data: 1536589920
I0717 11:32:40.225181 14746 layer_factory.hpp:77] Creating layer bn2b_branch2c
I0717 11:32:40.225188 14746 net.cpp:84] Creating Layer bn2b_branch2c
I0717 11:32:40.225189 14746 net.cpp:406] bn2b_branch2c <- res2b_branch2c
I0717 11:32:40.225195 14746 net.cpp:367] bn2b_branch2c -> res2b_branch2c (in-place)
I0717 11:32:40.225330 14746 net.cpp:122] Setting up bn2b_branch2c
I0717 11:32:40.225335 14746 net.cpp:129] Top shape: 24 256 56 56 (19267584)
I0717 11:32:40.225337 14746 net.cpp:137] Memory required for data: 1613660256
I0717 11:32:40.225342 14746 layer_factory.hpp:77] Creating layer scale2b_branch2c
I0717 11:32:40.225347 14746 net.cpp:84] Creating Layer scale2b_branch2c
I0717 11:32:40.225348 14746 net.cpp:406] scale2b_branch2c <- res2b_branch2c
I0717 11:32:40.225350 14746 net.cpp:367] scale2b_branch2c -> res2b_branch2c (in-place)
I0717 11:32:40.225379 14746 layer_factory.hpp:77] Creating layer scale2b_branch2c
I0717 11:32:40.225456 14746 net.cpp:122] Setting up scale2b_branch2c
I0717 11:32:40.225461 14746 net.cpp:129] Top shape: 24 256 56 56 (19267584)
I0717 11:32:40.225463 14746 net.cpp:137] Memory required for data: 1690730592
I0717 11:32:40.225467 14746 layer_factory.hpp:77] Creating layer res2b
I0717 11:32:40.225472 14746 net.cpp:84] Creating Layer res2b
I0717 11:32:40.225474 14746 net.cpp:406] res2b <- res2a_res2a_relu_0_split_1
I0717 11:32:40.225477 14746 net.cpp:406] res2b <- res2b_branch2c
I0717 11:32:40.225481 14746 net.cpp:380] res2b -> res2b
I0717 11:32:40.225500 14746 net.cpp:122] Setting up res2b
I0717 11:32:40.225507 14746 net.cpp:129] Top shape: 24 256 56 56 (19267584)
I0717 11:32:40.225509 14746 net.cpp:137] Memory required for data: 1767800928
I0717 11:32:40.225513 14746 layer_factory.hpp:77] Creating layer res2b_relu
I0717 11:32:40.225517 14746 net.cpp:84] Creating Layer res2b_relu
I0717 11:32:40.225522 14746 net.cpp:406] res2b_relu <- res2b
I0717 11:32:40.225524 14746 net.cpp:367] res2b_relu -> res2b (in-place)
I0717 11:32:40.225821 14746 net.cpp:122] Setting up res2b_relu
I0717 11:32:40.225828 14746 net.cpp:129] Top shape: 24 256 56 56 (19267584)
I0717 11:32:40.225831 14746 net.cpp:137] Memory required for data: 1844871264
I0717 11:32:40.225832 14746 layer_factory.hpp:77] Creating layer res2b_res2b_relu_0_split
I0717 11:32:40.225836 14746 net.cpp:84] Creating Layer res2b_res2b_relu_0_split
I0717 11:32:40.225839 14746 net.cpp:406] res2b_res2b_relu_0_split <- res2b
I0717 11:32:40.225862 14746 net.cpp:380] res2b_res2b_relu_0_split -> res2b_res2b_relu_0_split_0
I0717 11:32:40.225867 14746 net.cpp:380] res2b_res2b_relu_0_split -> res2b_res2b_relu_0_split_1
I0717 11:32:40.225896 14746 net.cpp:122] Setting up res2b_res2b_relu_0_split
I0717 11:32:40.225901 14746 net.cpp:129] Top shape: 24 256 56 56 (19267584)
I0717 11:32:40.225904 14746 net.cpp:129] Top shape: 24 256 56 56 (19267584)
I0717 11:32:40.225906 14746 net.cpp:137] Memory required for data: 1999011936
I0717 11:32:40.225921 14746 layer_factory.hpp:77] Creating layer res2c_branch2a
I0717 11:32:40.225926 14746 net.cpp:84] Creating Layer res2c_branch2a
I0717 11:32:40.225941 14746 net.cpp:406] res2c_branch2a <- res2b_res2b_relu_0_split_0
I0717 11:32:40.225945 14746 net.cpp:380] res2c_branch2a -> res2c_branch2a
I0717 11:32:40.227336 14746 net.cpp:122] Setting up res2c_branch2a
I0717 11:32:40.227344 14746 net.cpp:129] Top shape: 24 64 56 56 (4816896)
I0717 11:32:40.227347 14746 net.cpp:137] Memory required for data: 2018279520
I0717 11:32:40.227350 14746 layer_factory.hpp:77] Creating layer bn2c_branch2a
I0717 11:32:40.227355 14746 net.cpp:84] Creating Layer bn2c_branch2a
I0717 11:32:40.227358 14746 net.cpp:406] bn2c_branch2a <- res2c_branch2a
I0717 11:32:40.227361 14746 net.cpp:367] bn2c_branch2a -> res2c_branch2a (in-place)
I0717 11:32:40.227510 14746 net.cpp:122] Setting up bn2c_branch2a
I0717 11:32:40.227516 14746 net.cpp:129] Top shape: 24 64 56 56 (4816896)
I0717 11:32:40.227519 14746 net.cpp:137] Memory required for data: 2037547104
I0717 11:32:40.227524 14746 layer_factory.hpp:77] Creating layer scale2c_branch2a
I0717 11:32:40.227527 14746 net.cpp:84] Creating Layer scale2c_branch2a
I0717 11:32:40.227530 14746 net.cpp:406] scale2c_branch2a <- res2c_branch2a
I0717 11:32:40.227533 14746 net.cpp:367] scale2c_branch2a -> res2c_branch2a (in-place)
I0717 11:32:40.227562 14746 layer_factory.hpp:77] Creating layer scale2c_branch2a
I0717 11:32:40.227645 14746 net.cpp:122] Setting up scale2c_branch2a
I0717 11:32:40.227651 14746 net.cpp:129] Top shape: 24 64 56 56 (4816896)
I0717 11:32:40.227653 14746 net.cpp:137] Memory required for data: 2056814688
I0717 11:32:40.227656 14746 layer_factory.hpp:77] Creating layer res2c_branch2a_relu
I0717 11:32:40.227660 14746 net.cpp:84] Creating Layer res2c_branch2a_relu
I0717 11:32:40.227663 14746 net.cpp:406] res2c_branch2a_relu <- res2c_branch2a
I0717 11:32:40.227668 14746 net.cpp:367] res2c_branch2a_relu -> res2c_branch2a (in-place)
I0717 11:32:40.227962 14746 net.cpp:122] Setting up res2c_branch2a_relu
I0717 11:32:40.227969 14746 net.cpp:129] Top shape: 24 64 56 56 (4816896)
I0717 11:32:40.227972 14746 net.cpp:137] Memory required for data: 2076082272
I0717 11:32:40.227974 14746 layer_factory.hpp:77] Creating layer res2c_branch2b
I0717 11:32:40.227979 14746 net.cpp:84] Creating Layer res2c_branch2b
I0717 11:32:40.227982 14746 net.cpp:406] res2c_branch2b <- res2c_branch2a
I0717 11:32:40.227989 14746 net.cpp:380] res2c_branch2b -> res2c_branch2b
I0717 11:32:40.229775 14746 net.cpp:122] Setting up res2c_branch2b
I0717 11:32:40.229786 14746 net.cpp:129] Top shape: 24 64 56 56 (4816896)
I0717 11:32:40.229789 14746 net.cpp:137] Memory required for data: 2095349856
I0717 11:32:40.229807 14746 layer_factory.hpp:77] Creating layer bn2c_branch2b
I0717 11:32:40.229811 14746 net.cpp:84] Creating Layer bn2c_branch2b
I0717 11:32:40.229815 14746 net.cpp:406] bn2c_branch2b <- res2c_branch2b
I0717 11:32:40.229821 14746 net.cpp:367] bn2c_branch2b -> res2c_branch2b (in-place)
I0717 11:32:40.229987 14746 net.cpp:122] Setting up bn2c_branch2b
I0717 11:32:40.229992 14746 net.cpp:129] Top shape: 24 64 56 56 (4816896)
I0717 11:32:40.229995 14746 net.cpp:137] Memory required for data: 2114617440
I0717 11:32:40.230000 14746 layer_factory.hpp:77] Creating layer scale2c_branch2b
I0717 11:32:40.230005 14746 net.cpp:84] Creating Layer scale2c_branch2b
I0717 11:32:40.230006 14746 net.cpp:406] scale2c_branch2b <- res2c_branch2b
I0717 11:32:40.230010 14746 net.cpp:367] scale2c_branch2b -> res2c_branch2b (in-place)
I0717 11:32:40.230039 14746 layer_factory.hpp:77] Creating layer scale2c_branch2b
I0717 11:32:40.230123 14746 net.cpp:122] Setting up scale2c_branch2b
I0717 11:32:40.230128 14746 net.cpp:129] Top shape: 24 64 56 56 (4816896)
I0717 11:32:40.230129 14746 net.cpp:137] Memory required for data: 2133885024
I0717 11:32:40.230132 14746 layer_factory.hpp:77] Creating layer res2c_branch2b_relu
I0717 11:32:40.230137 14746 net.cpp:84] Creating Layer res2c_branch2b_relu
I0717 11:32:40.230139 14746 net.cpp:406] res2c_branch2b_relu <- res2c_branch2b
I0717 11:32:40.230142 14746 net.cpp:367] res2c_branch2b_relu -> res2c_branch2b (in-place)
I0717 11:32:40.230468 14746 net.cpp:122] Setting up res2c_branch2b_relu
I0717 11:32:40.230475 14746 net.cpp:129] Top shape: 24 64 56 56 (4816896)
I0717 11:32:40.230478 14746 net.cpp:137] Memory required for data: 2153152608
I0717 11:32:40.230479 14746 layer_factory.hpp:77] Creating layer res2c_branch2c
I0717 11:32:40.230485 14746 net.cpp:84] Creating Layer res2c_branch2c
I0717 11:32:40.230487 14746 net.cpp:406] res2c_branch2c <- res2c_branch2b
I0717 11:32:40.230492 14746 net.cpp:380] res2c_branch2c -> res2c_branch2c
I0717 11:32:40.231897 14746 net.cpp:122] Setting up res2c_branch2c
I0717 11:32:40.231921 14746 net.cpp:129] Top shape: 24 256 56 56 (19267584)
I0717 11:32:40.231940 14746 net.cpp:137] Memory required for data: 2230222944
I0717 11:32:40.231945 14746 layer_factory.hpp:77] Creating layer bn2c_branch2c
I0717 11:32:40.231950 14746 net.cpp:84] Creating Layer bn2c_branch2c
I0717 11:32:40.231953 14746 net.cpp:406] bn2c_branch2c <- res2c_branch2c
I0717 11:32:40.231961 14746 net.cpp:367] bn2c_branch2c -> res2c_branch2c (in-place)
I0717 11:32:40.232116 14746 net.cpp:122] Setting up bn2c_branch2c
I0717 11:32:40.232122 14746 net.cpp:129] Top shape: 24 256 56 56 (19267584)
I0717 11:32:40.232136 14746 net.cpp:137] Memory required for data: 2307293280
I0717 11:32:40.232151 14746 layer_factory.hpp:77] Creating layer scale2c_branch2c
I0717 11:32:40.232157 14746 net.cpp:84] Creating Layer scale2c_branch2c
I0717 11:32:40.232161 14746 net.cpp:406] scale2c_branch2c <- res2c_branch2c
I0717 11:32:40.232163 14746 net.cpp:367] scale2c_branch2c -> res2c_branch2c (in-place)
I0717 11:32:40.232197 14746 layer_factory.hpp:77] Creating layer scale2c_branch2c
I0717 11:32:40.232280 14746 net.cpp:122] Setting up scale2c_branch2c
I0717 11:32:40.232283 14746 net.cpp:129] Top shape: 24 256 56 56 (19267584)
I0717 11:32:40.232286 14746 net.cpp:137] Memory required for data: 2384363616
I0717 11:32:40.232290 14746 layer_factory.hpp:77] Creating layer res2c
I0717 11:32:40.232295 14746 net.cpp:84] Creating Layer res2c
I0717 11:32:40.232298 14746 net.cpp:406] res2c <- res2b_res2b_relu_0_split_1
I0717 11:32:40.232301 14746 net.cpp:406] res2c <- res2c_branch2c
I0717 11:32:40.232306 14746 net.cpp:380] res2c -> res2c
I0717 11:32:40.232324 14746 net.cpp:122] Setting up res2c
I0717 11:32:40.232329 14746 net.cpp:129] Top shape: 24 256 56 56 (19267584)
I0717 11:32:40.232331 14746 net.cpp:137] Memory required for data: 2461433952
I0717 11:32:40.232333 14746 layer_factory.hpp:77] Creating layer res2c_relu
I0717 11:32:40.232337 14746 net.cpp:84] Creating Layer res2c_relu
I0717 11:32:40.232339 14746 net.cpp:406] res2c_relu <- res2c
I0717 11:32:40.232342 14746 net.cpp:367] res2c_relu -> res2c (in-place)
I0717 11:32:40.233103 14746 net.cpp:122] Setting up res2c_relu
I0717 11:32:40.233119 14746 net.cpp:129] Top shape: 24 256 56 56 (19267584)
I0717 11:32:40.233122 14746 net.cpp:137] Memory required for data: 2538504288
I0717 11:32:40.233126 14746 layer_factory.hpp:77] Creating layer res2c_res2c_relu_0_split
I0717 11:32:40.233134 14746 net.cpp:84] Creating Layer res2c_res2c_relu_0_split
I0717 11:32:40.233139 14746 net.cpp:406] res2c_res2c_relu_0_split <- res2c
I0717 11:32:40.233147 14746 net.cpp:380] res2c_res2c_relu_0_split -> res2c_res2c_relu_0_split_0
I0717 11:32:40.233155 14746 net.cpp:380] res2c_res2c_relu_0_split -> res2c_res2c_relu_0_split_1
I0717 11:32:40.233223 14746 net.cpp:122] Setting up res2c_res2c_relu_0_split
I0717 11:32:40.233233 14746 net.cpp:129] Top shape: 24 256 56 56 (19267584)
I0717 11:32:40.233237 14746 net.cpp:129] Top shape: 24 256 56 56 (19267584)
I0717 11:32:40.233240 14746 net.cpp:137] Memory required for data: 2692644960
I0717 11:32:40.233243 14746 layer_factory.hpp:77] Creating layer res3a_branch1
I0717 11:32:40.233258 14746 net.cpp:84] Creating Layer res3a_branch1
I0717 11:32:40.233263 14746 net.cpp:406] res3a_branch1 <- res2c_res2c_relu_0_split_0
I0717 11:32:40.233268 14746 net.cpp:380] res3a_branch1 -> res3a_branch1
I0717 11:32:40.236460 14746 net.cpp:122] Setting up res3a_branch1
I0717 11:32:40.236601 14746 net.cpp:129] Top shape: 24 512 28 28 (9633792)
I0717 11:32:40.236675 14746 net.cpp:137] Memory required for data: 2731180128
I0717 11:32:40.236738 14746 layer_factory.hpp:77] Creating layer bn3a_branch1
I0717 11:32:40.236755 14746 net.cpp:84] Creating Layer bn3a_branch1
I0717 11:32:40.236760 14746 net.cpp:406] bn3a_branch1 <- res3a_branch1
I0717 11:32:40.236768 14746 net.cpp:367] bn3a_branch1 -> res3a_branch1 (in-place)
I0717 11:32:40.238514 14746 net.cpp:122] Setting up bn3a_branch1
I0717 11:32:40.238528 14746 net.cpp:129] Top shape: 24 512 28 28 (9633792)
I0717 11:32:40.238531 14746 net.cpp:137] Memory required for data: 2769715296
I0717 11:32:40.238538 14746 layer_factory.hpp:77] Creating layer scale3a_branch1
I0717 11:32:40.238554 14746 net.cpp:84] Creating Layer scale3a_branch1
I0717 11:32:40.238559 14746 net.cpp:406] scale3a_branch1 <- res3a_branch1
I0717 11:32:40.238564 14746 net.cpp:367] scale3a_branch1 -> res3a_branch1 (in-place)
I0717 11:32:40.238600 14746 layer_factory.hpp:77] Creating layer scale3a_branch1
I0717 11:32:40.238677 14746 net.cpp:122] Setting up scale3a_branch1
I0717 11:32:40.238683 14746 net.cpp:129] Top shape: 24 512 28 28 (9633792)
I0717 11:32:40.238685 14746 net.cpp:137] Memory required for data: 2808250464
I0717 11:32:40.238689 14746 layer_factory.hpp:77] Creating layer res3a_branch2a
I0717 11:32:40.238695 14746 net.cpp:84] Creating Layer res3a_branch2a
I0717 11:32:40.238699 14746 net.cpp:406] res3a_branch2a <- res2c_res2c_relu_0_split_1
I0717 11:32:40.238703 14746 net.cpp:380] res3a_branch2a -> res3a_branch2a
I0717 11:32:40.240594 14746 net.cpp:122] Setting up res3a_branch2a
I0717 11:32:40.240603 14746 net.cpp:129] Top shape: 24 128 28 28 (2408448)
I0717 11:32:40.240607 14746 net.cpp:137] Memory required for data: 2817884256
I0717 11:32:40.240610 14746 layer_factory.hpp:77] Creating layer bn3a_branch2a
I0717 11:32:40.240615 14746 net.cpp:84] Creating Layer bn3a_branch2a
I0717 11:32:40.240618 14746 net.cpp:406] bn3a_branch2a <- res3a_branch2a
I0717 11:32:40.240623 14746 net.cpp:367] bn3a_branch2a -> res3a_branch2a (in-place)
I0717 11:32:40.240763 14746 net.cpp:122] Setting up bn3a_branch2a
I0717 11:32:40.240768 14746 net.cpp:129] Top shape: 24 128 28 28 (2408448)
I0717 11:32:40.240770 14746 net.cpp:137] Memory required for data: 2827518048
I0717 11:32:40.240775 14746 layer_factory.hpp:77] Creating layer scale3a_branch2a
I0717 11:32:40.240780 14746 net.cpp:84] Creating Layer scale3a_branch2a
I0717 11:32:40.240783 14746 net.cpp:406] scale3a_branch2a <- res3a_branch2a
I0717 11:32:40.240787 14746 net.cpp:367] scale3a_branch2a -> res3a_branch2a (in-place)
I0717 11:32:40.240814 14746 layer_factory.hpp:77] Creating layer scale3a_branch2a
I0717 11:32:40.240893 14746 net.cpp:122] Setting up scale3a_branch2a
I0717 11:32:40.240898 14746 net.cpp:129] Top shape: 24 128 28 28 (2408448)
I0717 11:32:40.240900 14746 net.cpp:137] Memory required for data: 2837151840
I0717 11:32:40.240905 14746 layer_factory.hpp:77] Creating layer res3a_branch2a_relu
I0717 11:32:40.240908 14746 net.cpp:84] Creating Layer res3a_branch2a_relu
I0717 11:32:40.240911 14746 net.cpp:406] res3a_branch2a_relu <- res3a_branch2a
I0717 11:32:40.240914 14746 net.cpp:367] res3a_branch2a_relu -> res3a_branch2a (in-place)
I0717 11:32:40.241225 14746 net.cpp:122] Setting up res3a_branch2a_relu
I0717 11:32:40.241232 14746 net.cpp:129] Top shape: 24 128 28 28 (2408448)
I0717 11:32:40.241235 14746 net.cpp:137] Memory required for data: 2846785632
I0717 11:32:40.241236 14746 layer_factory.hpp:77] Creating layer res3a_branch2b
I0717 11:32:40.241243 14746 net.cpp:84] Creating Layer res3a_branch2b
I0717 11:32:40.241246 14746 net.cpp:406] res3a_branch2b <- res3a_branch2a
I0717 11:32:40.241250 14746 net.cpp:380] res3a_branch2b -> res3a_branch2b
I0717 11:32:40.243706 14746 net.cpp:122] Setting up res3a_branch2b
I0717 11:32:40.243717 14746 net.cpp:129] Top shape: 24 128 28 28 (2408448)
I0717 11:32:40.243721 14746 net.cpp:137] Memory required for data: 2856419424
I0717 11:32:40.243724 14746 layer_factory.hpp:77] Creating layer bn3a_branch2b
I0717 11:32:40.243728 14746 net.cpp:84] Creating Layer bn3a_branch2b
I0717 11:32:40.243732 14746 net.cpp:406] bn3a_branch2b <- res3a_branch2b
I0717 11:32:40.243736 14746 net.cpp:367] bn3a_branch2b -> res3a_branch2b (in-place)
I0717 11:32:40.243891 14746 net.cpp:122] Setting up bn3a_branch2b
I0717 11:32:40.243896 14746 net.cpp:129] Top shape: 24 128 28 28 (2408448)
I0717 11:32:40.243898 14746 net.cpp:137] Memory required for data: 2866053216
I0717 11:32:40.243906 14746 layer_factory.hpp:77] Creating layer scale3a_branch2b
I0717 11:32:40.243912 14746 net.cpp:84] Creating Layer scale3a_branch2b
I0717 11:32:40.243916 14746 net.cpp:406] scale3a_branch2b <- res3a_branch2b
I0717 11:32:40.243921 14746 net.cpp:367] scale3a_branch2b -> res3a_branch2b (in-place)
I0717 11:32:40.243963 14746 layer_factory.hpp:77] Creating layer scale3a_branch2b
I0717 11:32:40.244043 14746 net.cpp:122] Setting up scale3a_branch2b
I0717 11:32:40.244048 14746 net.cpp:129] Top shape: 24 128 28 28 (2408448)
I0717 11:32:40.244050 14746 net.cpp:137] Memory required for data: 2875687008
I0717 11:32:40.244055 14746 layer_factory.hpp:77] Creating layer res3a_branch2b_relu
I0717 11:32:40.244061 14746 net.cpp:84] Creating Layer res3a_branch2b_relu
I0717 11:32:40.244066 14746 net.cpp:406] res3a_branch2b_relu <- res3a_branch2b
I0717 11:32:40.244069 14746 net.cpp:367] res3a_branch2b_relu -> res3a_branch2b (in-place)
I0717 11:32:40.244366 14746 net.cpp:122] Setting up res3a_branch2b_relu
I0717 11:32:40.244374 14746 net.cpp:129] Top shape: 24 128 28 28 (2408448)
I0717 11:32:40.244376 14746 net.cpp:137] Memory required for data: 2885320800
I0717 11:32:40.244379 14746 layer_factory.hpp:77] Creating layer res3a_branch2c
I0717 11:32:40.244388 14746 net.cpp:84] Creating Layer res3a_branch2c
I0717 11:32:40.244392 14746 net.cpp:406] res3a_branch2c <- res3a_branch2b
I0717 11:32:40.244397 14746 net.cpp:380] res3a_branch2c -> res3a_branch2c
I0717 11:32:40.246109 14746 net.cpp:122] Setting up res3a_branch2c
I0717 11:32:40.246117 14746 net.cpp:129] Top shape: 24 512 28 28 (9633792)
I0717 11:32:40.246120 14746 net.cpp:137] Memory required for data: 2923855968
I0717 11:32:40.246126 14746 layer_factory.hpp:77] Creating layer bn3a_branch2c
I0717 11:32:40.246140 14746 net.cpp:84] Creating Layer bn3a_branch2c
I0717 11:32:40.246145 14746 net.cpp:406] bn3a_branch2c <- res3a_branch2c
I0717 11:32:40.246150 14746 net.cpp:367] bn3a_branch2c -> res3a_branch2c (in-place)
I0717 11:32:40.246287 14746 net.cpp:122] Setting up bn3a_branch2c
I0717 11:32:40.246292 14746 net.cpp:129] Top shape: 24 512 28 28 (9633792)
I0717 11:32:40.246295 14746 net.cpp:137] Memory required for data: 2962391136
I0717 11:32:40.246302 14746 layer_factory.hpp:77] Creating layer scale3a_branch2c
I0717 11:32:40.246309 14746 net.cpp:84] Creating Layer scale3a_branch2c
I0717 11:32:40.246312 14746 net.cpp:406] scale3a_branch2c <- res3a_branch2c
I0717 11:32:40.246316 14746 net.cpp:367] scale3a_branch2c -> res3a_branch2c (in-place)
I0717 11:32:40.246345 14746 layer_factory.hpp:77] Creating layer scale3a_branch2c
I0717 11:32:40.246428 14746 net.cpp:122] Setting up scale3a_branch2c
I0717 11:32:40.246433 14746 net.cpp:129] Top shape: 24 512 28 28 (9633792)
I0717 11:32:40.246435 14746 net.cpp:137] Memory required for data: 3000926304
I0717 11:32:40.246440 14746 layer_factory.hpp:77] Creating layer res3a
I0717 11:32:40.246448 14746 net.cpp:84] Creating Layer res3a
I0717 11:32:40.246451 14746 net.cpp:406] res3a <- res3a_branch1
I0717 11:32:40.246454 14746 net.cpp:406] res3a <- res3a_branch2c
I0717 11:32:40.246459 14746 net.cpp:380] res3a -> res3a
I0717 11:32:40.246477 14746 net.cpp:122] Setting up res3a
I0717 11:32:40.246482 14746 net.cpp:129] Top shape: 24 512 28 28 (9633792)
I0717 11:32:40.246485 14746 net.cpp:137] Memory required for data: 3039461472
I0717 11:32:40.246490 14746 layer_factory.hpp:77] Creating layer res3a_relu
I0717 11:32:40.246493 14746 net.cpp:84] Creating Layer res3a_relu
I0717 11:32:40.246496 14746 net.cpp:406] res3a_relu <- res3a
I0717 11:32:40.246502 14746 net.cpp:367] res3a_relu -> res3a (in-place)
I0717 11:32:40.247238 14746 net.cpp:122] Setting up res3a_relu
I0717 11:32:40.247251 14746 net.cpp:129] Top shape: 24 512 28 28 (9633792)
I0717 11:32:40.247256 14746 net.cpp:137] Memory required for data: 3077996640
I0717 11:32:40.247279 14746 layer_factory.hpp:77] Creating layer res3a_res3a_relu_0_split
I0717 11:32:40.247303 14746 net.cpp:84] Creating Layer res3a_res3a_relu_0_split
I0717 11:32:40.247309 14746 net.cpp:406] res3a_res3a_relu_0_split <- res3a
I0717 11:32:40.247331 14746 net.cpp:380] res3a_res3a_relu_0_split -> res3a_res3a_relu_0_split_0
I0717 11:32:40.247341 14746 net.cpp:380] res3a_res3a_relu_0_split -> res3a_res3a_relu_0_split_1
I0717 11:32:40.247437 14746 net.cpp:122] Setting up res3a_res3a_relu_0_split
I0717 11:32:40.247458 14746 net.cpp:129] Top shape: 24 512 28 28 (9633792)
I0717 11:32:40.247478 14746 net.cpp:129] Top shape: 24 512 28 28 (9633792)
I0717 11:32:40.247484 14746 net.cpp:137] Memory required for data: 3155066976
I0717 11:32:40.247488 14746 layer_factory.hpp:77] Creating layer res3b_branch2a
I0717 11:32:40.247527 14746 net.cpp:84] Creating Layer res3b_branch2a
I0717 11:32:40.247534 14746 net.cpp:406] res3b_branch2a <- res3a_res3a_relu_0_split_0
I0717 11:32:40.247542 14746 net.cpp:380] res3b_branch2a -> res3b_branch2a
I0717 11:32:40.250488 14746 net.cpp:122] Setting up res3b_branch2a
I0717 11:32:40.250507 14746 net.cpp:129] Top shape: 24 128 28 28 (2408448)
I0717 11:32:40.250510 14746 net.cpp:137] Memory required for data: 3164700768
I0717 11:32:40.250531 14746 layer_factory.hpp:77] Creating layer bn3b_branch2a
I0717 11:32:40.250542 14746 net.cpp:84] Creating Layer bn3b_branch2a
I0717 11:32:40.250546 14746 net.cpp:406] bn3b_branch2a <- res3b_branch2a
I0717 11:32:40.250555 14746 net.cpp:367] bn3b_branch2a -> res3b_branch2a (in-place)
I0717 11:32:40.250743 14746 net.cpp:122] Setting up bn3b_branch2a
I0717 11:32:40.250751 14746 net.cpp:129] Top shape: 24 128 28 28 (2408448)
I0717 11:32:40.250754 14746 net.cpp:137] Memory required for data: 3174334560
I0717 11:32:40.250761 14746 layer_factory.hpp:77] Creating layer scale3b_branch2a
I0717 11:32:40.250769 14746 net.cpp:84] Creating Layer scale3b_branch2a
I0717 11:32:40.250774 14746 net.cpp:406] scale3b_branch2a <- res3b_branch2a
I0717 11:32:40.250779 14746 net.cpp:367] scale3b_branch2a -> res3b_branch2a (in-place)
I0717 11:32:40.250815 14746 layer_factory.hpp:77] Creating layer scale3b_branch2a
I0717 11:32:40.250919 14746 net.cpp:122] Setting up scale3b_branch2a
I0717 11:32:40.251000 14746 net.cpp:129] Top shape: 24 128 28 28 (2408448)
I0717 11:32:40.251057 14746 net.cpp:137] Memory required for data: 3183968352
I0717 11:32:40.251114 14746 layer_factory.hpp:77] Creating layer res3b_branch2a_relu
I0717 11:32:40.251175 14746 net.cpp:84] Creating Layer res3b_branch2a_relu
I0717 11:32:40.251230 14746 net.cpp:406] res3b_branch2a_relu <- res3b_branch2a
I0717 11:32:40.251287 14746 net.cpp:367] res3b_branch2a_relu -> res3b_branch2a (in-place)
I0717 11:32:40.251827 14746 net.cpp:122] Setting up res3b_branch2a_relu
I0717 11:32:40.251840 14746 net.cpp:129] Top shape: 24 128 28 28 (2408448)
I0717 11:32:40.251843 14746 net.cpp:137] Memory required for data: 3193602144
I0717 11:32:40.251847 14746 layer_factory.hpp:77] Creating layer res3b_branch2b
I0717 11:32:40.251855 14746 net.cpp:84] Creating Layer res3b_branch2b
I0717 11:32:40.251860 14746 net.cpp:406] res3b_branch2b <- res3b_branch2a
I0717 11:32:40.251868 14746 net.cpp:380] res3b_branch2b -> res3b_branch2b
I0717 11:32:40.255712 14746 net.cpp:122] Setting up res3b_branch2b
I0717 11:32:40.255739 14746 net.cpp:129] Top shape: 24 128 28 28 (2408448)
I0717 11:32:40.255743 14746 net.cpp:137] Memory required for data: 3203235936
I0717 11:32:40.255748 14746 layer_factory.hpp:77] Creating layer bn3b_branch2b
I0717 11:32:40.255755 14746 net.cpp:84] Creating Layer bn3b_branch2b
I0717 11:32:40.255759 14746 net.cpp:406] bn3b_branch2b <- res3b_branch2b
I0717 11:32:40.255764 14746 net.cpp:367] bn3b_branch2b -> res3b_branch2b (in-place)
I0717 11:32:40.255941 14746 net.cpp:122] Setting up bn3b_branch2b
I0717 11:32:40.255946 14746 net.cpp:129] Top shape: 24 128 28 28 (2408448)
I0717 11:32:40.255964 14746 net.cpp:137] Memory required for data: 3212869728
I0717 11:32:40.255970 14746 layer_factory.hpp:77] Creating layer scale3b_branch2b
I0717 11:32:40.255973 14746 net.cpp:84] Creating Layer scale3b_branch2b
I0717 11:32:40.255976 14746 net.cpp:406] scale3b_branch2b <- res3b_branch2b
I0717 11:32:40.255980 14746 net.cpp:367] scale3b_branch2b -> res3b_branch2b (in-place)
I0717 11:32:40.256023 14746 layer_factory.hpp:77] Creating layer scale3b_branch2b
I0717 11:32:40.256131 14746 net.cpp:122] Setting up scale3b_branch2b
I0717 11:32:40.256136 14746 net.cpp:129] Top shape: 24 128 28 28 (2408448)
I0717 11:32:40.256151 14746 net.cpp:137] Memory required for data: 3222503520
I0717 11:32:40.256166 14746 layer_factory.hpp:77] Creating layer res3b_branch2b_relu
I0717 11:32:40.256170 14746 net.cpp:84] Creating Layer res3b_branch2b_relu
I0717 11:32:40.256175 14746 net.cpp:406] res3b_branch2b_relu <- res3b_branch2b
I0717 11:32:40.256180 14746 net.cpp:367] res3b_branch2b_relu -> res3b_branch2b (in-place)
I0717 11:32:40.256489 14746 net.cpp:122] Setting up res3b_branch2b_relu
I0717 11:32:40.256496 14746 net.cpp:129] Top shape: 24 128 28 28 (2408448)
I0717 11:32:40.256500 14746 net.cpp:137] Memory required for data: 3232137312
I0717 11:32:40.256502 14746 layer_factory.hpp:77] Creating layer res3b_branch2c
I0717 11:32:40.256508 14746 net.cpp:84] Creating Layer res3b_branch2c
I0717 11:32:40.256511 14746 net.cpp:406] res3b_branch2c <- res3b_branch2b
I0717 11:32:40.256516 14746 net.cpp:380] res3b_branch2c -> res3b_branch2c
I0717 11:32:40.258271 14746 net.cpp:122] Setting up res3b_branch2c
I0717 11:32:40.258281 14746 net.cpp:129] Top shape: 24 512 28 28 (9633792)
I0717 11:32:40.258296 14746 net.cpp:137] Memory required for data: 3270672480
I0717 11:32:40.258301 14746 layer_factory.hpp:77] Creating layer bn3b_branch2c
I0717 11:32:40.258306 14746 net.cpp:84] Creating Layer bn3b_branch2c
I0717 11:32:40.258309 14746 net.cpp:406] bn3b_branch2c <- res3b_branch2c
I0717 11:32:40.258313 14746 net.cpp:367] bn3b_branch2c -> res3b_branch2c (in-place)
I0717 11:32:40.258467 14746 net.cpp:122] Setting up bn3b_branch2c
I0717 11:32:40.258472 14746 net.cpp:129] Top shape: 24 512 28 28 (9633792)
I0717 11:32:40.258489 14746 net.cpp:137] Memory required for data: 3309207648
I0717 11:32:40.258494 14746 layer_factory.hpp:77] Creating layer scale3b_branch2c
I0717 11:32:40.258500 14746 net.cpp:84] Creating Layer scale3b_branch2c
I0717 11:32:40.258503 14746 net.cpp:406] scale3b_branch2c <- res3b_branch2c
I0717 11:32:40.258509 14746 net.cpp:367] scale3b_branch2c -> res3b_branch2c (in-place)
I0717 11:32:40.258555 14746 layer_factory.hpp:77] Creating layer scale3b_branch2c
I0717 11:32:40.258661 14746 net.cpp:122] Setting up scale3b_branch2c
I0717 11:32:40.258666 14746 net.cpp:129] Top shape: 24 512 28 28 (9633792)
I0717 11:32:40.258680 14746 net.cpp:137] Memory required for data: 3347742816
I0717 11:32:40.258685 14746 layer_factory.hpp:77] Creating layer res3b
I0717 11:32:40.258690 14746 net.cpp:84] Creating Layer res3b
I0717 11:32:40.258694 14746 net.cpp:406] res3b <- res3a_res3a_relu_0_split_1
I0717 11:32:40.258697 14746 net.cpp:406] res3b <- res3b_branch2c
I0717 11:32:40.258702 14746 net.cpp:380] res3b -> res3b
I0717 11:32:40.258720 14746 net.cpp:122] Setting up res3b
I0717 11:32:40.258725 14746 net.cpp:129] Top shape: 24 512 28 28 (9633792)
I0717 11:32:40.258728 14746 net.cpp:137] Memory required for data: 3386277984
I0717 11:32:40.258729 14746 layer_factory.hpp:77] Creating layer res3b_relu
I0717 11:32:40.258733 14746 net.cpp:84] Creating Layer res3b_relu
I0717 11:32:40.258735 14746 net.cpp:406] res3b_relu <- res3b
I0717 11:32:40.258739 14746 net.cpp:367] res3b_relu -> res3b (in-place)
I0717 11:32:40.259307 14746 net.cpp:122] Setting up res3b_relu
I0717 11:32:40.259316 14746 net.cpp:129] Top shape: 24 512 28 28 (9633792)
I0717 11:32:40.259320 14746 net.cpp:137] Memory required for data: 3424813152
I0717 11:32:40.259325 14746 layer_factory.hpp:77] Creating layer res3b_res3b_relu_0_split
I0717 11:32:40.259332 14746 net.cpp:84] Creating Layer res3b_res3b_relu_0_split
I0717 11:32:40.259336 14746 net.cpp:406] res3b_res3b_relu_0_split <- res3b
I0717 11:32:40.259341 14746 net.cpp:380] res3b_res3b_relu_0_split -> res3b_res3b_relu_0_split_0
I0717 11:32:40.259346 14746 net.cpp:380] res3b_res3b_relu_0_split -> res3b_res3b_relu_0_split_1
I0717 11:32:40.259378 14746 net.cpp:122] Setting up res3b_res3b_relu_0_split
I0717 11:32:40.259382 14746 net.cpp:129] Top shape: 24 512 28 28 (9633792)
I0717 11:32:40.259385 14746 net.cpp:129] Top shape: 24 512 28 28 (9633792)
I0717 11:32:40.259388 14746 net.cpp:137] Memory required for data: 3501883488
I0717 11:32:40.259392 14746 layer_factory.hpp:77] Creating layer res3c_branch2a
I0717 11:32:40.259410 14746 net.cpp:84] Creating Layer res3c_branch2a
I0717 11:32:40.259414 14746 net.cpp:406] res3c_branch2a <- res3b_res3b_relu_0_split_0
I0717 11:32:40.259419 14746 net.cpp:380] res3c_branch2a -> res3c_branch2a
I0717 11:32:40.261154 14746 net.cpp:122] Setting up res3c_branch2a
I0717 11:32:40.261163 14746 net.cpp:129] Top shape: 24 128 28 28 (2408448)
I0717 11:32:40.261168 14746 net.cpp:137] Memory required for data: 3511517280
I0717 11:32:40.261174 14746 layer_factory.hpp:77] Creating layer bn3c_branch2a
I0717 11:32:40.261183 14746 net.cpp:84] Creating Layer bn3c_branch2a
I0717 11:32:40.261188 14746 net.cpp:406] bn3c_branch2a <- res3c_branch2a
I0717 11:32:40.261193 14746 net.cpp:367] bn3c_branch2a -> res3c_branch2a (in-place)
I0717 11:32:40.261340 14746 net.cpp:122] Setting up bn3c_branch2a
I0717 11:32:40.261346 14746 net.cpp:129] Top shape: 24 128 28 28 (2408448)
I0717 11:32:40.261350 14746 net.cpp:137] Memory required for data: 3521151072
I0717 11:32:40.261358 14746 layer_factory.hpp:77] Creating layer scale3c_branch2a
I0717 11:32:40.261363 14746 net.cpp:84] Creating Layer scale3c_branch2a
I0717 11:32:40.261366 14746 net.cpp:406] scale3c_branch2a <- res3c_branch2a
I0717 11:32:40.261370 14746 net.cpp:367] scale3c_branch2a -> res3c_branch2a (in-place)
I0717 11:32:40.261402 14746 layer_factory.hpp:77] Creating layer scale3c_branch2a
I0717 11:32:40.261487 14746 net.cpp:122] Setting up scale3c_branch2a
I0717 11:32:40.261492 14746 net.cpp:129] Top shape: 24 128 28 28 (2408448)
I0717 11:32:40.261494 14746 net.cpp:137] Memory required for data: 3530784864
I0717 11:32:40.261500 14746 layer_factory.hpp:77] Creating layer res3c_branch2a_relu
I0717 11:32:40.261505 14746 net.cpp:84] Creating Layer res3c_branch2a_relu
I0717 11:32:40.261510 14746 net.cpp:406] res3c_branch2a_relu <- res3c_branch2a
I0717 11:32:40.261515 14746 net.cpp:367] res3c_branch2a_relu -> res3c_branch2a (in-place)
I0717 11:32:40.261828 14746 net.cpp:122] Setting up res3c_branch2a_relu
I0717 11:32:40.261837 14746 net.cpp:129] Top shape: 24 128 28 28 (2408448)
I0717 11:32:40.261847 14746 net.cpp:137] Memory required for data: 3540418656
I0717 11:32:40.261852 14746 layer_factory.hpp:77] Creating layer res3c_branch2b
I0717 11:32:40.261859 14746 net.cpp:84] Creating Layer res3c_branch2b
I0717 11:32:40.261863 14746 net.cpp:406] res3c_branch2b <- res3c_branch2a
I0717 11:32:40.261870 14746 net.cpp:380] res3c_branch2b -> res3c_branch2b
I0717 11:32:40.265229 14746 net.cpp:122] Setting up res3c_branch2b
I0717 11:32:40.265250 14746 net.cpp:129] Top shape: 24 128 28 28 (2408448)
I0717 11:32:40.265254 14746 net.cpp:137] Memory required for data: 3550052448
I0717 11:32:40.265262 14746 layer_factory.hpp:77] Creating layer bn3c_branch2b
I0717 11:32:40.265270 14746 net.cpp:84] Creating Layer bn3c_branch2b
I0717 11:32:40.265276 14746 net.cpp:406] bn3c_branch2b <- res3c_branch2b
I0717 11:32:40.265285 14746 net.cpp:367] bn3c_branch2b -> res3c_branch2b (in-place)
I0717 11:32:40.265475 14746 net.cpp:122] Setting up bn3c_branch2b
I0717 11:32:40.265482 14746 net.cpp:129] Top shape: 24 128 28 28 (2408448)
I0717 11:32:40.265486 14746 net.cpp:137] Memory required for data: 3559686240
I0717 11:32:40.265493 14746 layer_factory.hpp:77] Creating layer scale3c_branch2b
I0717 11:32:40.265501 14746 net.cpp:84] Creating Layer scale3c_branch2b
I0717 11:32:40.265522 14746 net.cpp:406] scale3c_branch2b <- res3c_branch2b
I0717 11:32:40.265529 14746 net.cpp:367] scale3c_branch2b -> res3c_branch2b (in-place)
I0717 11:32:40.265583 14746 layer_factory.hpp:77] Creating layer scale3c_branch2b
I0717 11:32:40.265749 14746 net.cpp:122] Setting up scale3c_branch2b
I0717 11:32:40.265760 14746 net.cpp:129] Top shape: 24 128 28 28 (2408448)
I0717 11:32:40.265763 14746 net.cpp:137] Memory required for data: 3569320032
I0717 11:32:40.265770 14746 layer_factory.hpp:77] Creating layer res3c_branch2b_relu
I0717 11:32:40.265777 14746 net.cpp:84] Creating Layer res3c_branch2b_relu
I0717 11:32:40.265782 14746 net.cpp:406] res3c_branch2b_relu <- res3c_branch2b
I0717 11:32:40.265787 14746 net.cpp:367] res3c_branch2b_relu -> res3c_branch2b (in-place)
I0717 11:32:40.266177 14746 net.cpp:122] Setting up res3c_branch2b_relu
I0717 11:32:40.266186 14746 net.cpp:129] Top shape: 24 128 28 28 (2408448)
I0717 11:32:40.266191 14746 net.cpp:137] Memory required for data: 3578953824
I0717 11:32:40.266193 14746 layer_factory.hpp:77] Creating layer res3c_branch2c
I0717 11:32:40.266203 14746 net.cpp:84] Creating Layer res3c_branch2c
I0717 11:32:40.266208 14746 net.cpp:406] res3c_branch2c <- res3c_branch2b
I0717 11:32:40.266214 14746 net.cpp:380] res3c_branch2c -> res3c_branch2c
I0717 11:32:40.268514 14746 net.cpp:122] Setting up res3c_branch2c
I0717 11:32:40.268532 14746 net.cpp:129] Top shape: 24 512 28 28 (9633792)
I0717 11:32:40.268535 14746 net.cpp:137] Memory required for data: 3617488992
I0717 11:32:40.268543 14746 layer_factory.hpp:77] Creating layer bn3c_branch2c
I0717 11:32:40.268553 14746 net.cpp:84] Creating Layer bn3c_branch2c
I0717 11:32:40.268559 14746 net.cpp:406] bn3c_branch2c <- res3c_branch2c
I0717 11:32:40.268566 14746 net.cpp:367] bn3c_branch2c -> res3c_branch2c (in-place)
I0717 11:32:40.268733 14746 net.cpp:122] Setting up bn3c_branch2c
I0717 11:32:40.268740 14746 net.cpp:129] Top shape: 24 512 28 28 (9633792)
I0717 11:32:40.268743 14746 net.cpp:137] Memory required for data: 3656024160
I0717 11:32:40.268748 14746 layer_factory.hpp:77] Creating layer scale3c_branch2c
I0717 11:32:40.268756 14746 net.cpp:84] Creating Layer scale3c_branch2c
I0717 11:32:40.268761 14746 net.cpp:406] scale3c_branch2c <- res3c_branch2c
I0717 11:32:40.268766 14746 net.cpp:367] scale3c_branch2c -> res3c_branch2c (in-place)
I0717 11:32:40.268806 14746 layer_factory.hpp:77] Creating layer scale3c_branch2c
I0717 11:32:40.268899 14746 net.cpp:122] Setting up scale3c_branch2c
I0717 11:32:40.268905 14746 net.cpp:129] Top shape: 24 512 28 28 (9633792)
I0717 11:32:40.268908 14746 net.cpp:137] Memory required for data: 3694559328
I0717 11:32:40.268911 14746 layer_factory.hpp:77] Creating layer res3c
I0717 11:32:40.268916 14746 net.cpp:84] Creating Layer res3c
I0717 11:32:40.268920 14746 net.cpp:406] res3c <- res3b_res3b_relu_0_split_1
I0717 11:32:40.268924 14746 net.cpp:406] res3c <- res3c_branch2c
I0717 11:32:40.268931 14746 net.cpp:380] res3c -> res3c
I0717 11:32:40.268959 14746 net.cpp:122] Setting up res3c
I0717 11:32:40.268965 14746 net.cpp:129] Top shape: 24 512 28 28 (9633792)
I0717 11:32:40.268967 14746 net.cpp:137] Memory required for data: 3733094496
I0717 11:32:40.268970 14746 layer_factory.hpp:77] Creating layer res3c_relu
I0717 11:32:40.268976 14746 net.cpp:84] Creating Layer res3c_relu
I0717 11:32:40.268980 14746 net.cpp:406] res3c_relu <- res3c
I0717 11:32:40.268985 14746 net.cpp:367] res3c_relu -> res3c (in-place)
I0717 11:32:40.269320 14746 net.cpp:122] Setting up res3c_relu
I0717 11:32:40.269330 14746 net.cpp:129] Top shape: 24 512 28 28 (9633792)
I0717 11:32:40.269333 14746 net.cpp:137] Memory required for data: 3771629664
I0717 11:32:40.269336 14746 layer_factory.hpp:77] Creating layer res3c_res3c_relu_0_split
I0717 11:32:40.269342 14746 net.cpp:84] Creating Layer res3c_res3c_relu_0_split
I0717 11:32:40.269348 14746 net.cpp:406] res3c_res3c_relu_0_split <- res3c
I0717 11:32:40.269354 14746 net.cpp:380] res3c_res3c_relu_0_split -> res3c_res3c_relu_0_split_0
I0717 11:32:40.269361 14746 net.cpp:380] res3c_res3c_relu_0_split -> res3c_res3c_relu_0_split_1
I0717 11:32:40.269397 14746 net.cpp:122] Setting up res3c_res3c_relu_0_split
I0717 11:32:40.269403 14746 net.cpp:129] Top shape: 24 512 28 28 (9633792)
I0717 11:32:40.269408 14746 net.cpp:129] Top shape: 24 512 28 28 (9633792)
I0717 11:32:40.269412 14746 net.cpp:137] Memory required for data: 3848700000
I0717 11:32:40.269414 14746 layer_factory.hpp:77] Creating layer res3d_branch2a
I0717 11:32:40.269423 14746 net.cpp:84] Creating Layer res3d_branch2a
I0717 11:32:40.269428 14746 net.cpp:406] res3d_branch2a <- res3c_res3c_relu_0_split_0
I0717 11:32:40.269433 14746 net.cpp:380] res3d_branch2a -> res3d_branch2a
I0717 11:32:40.272951 14746 net.cpp:122] Setting up res3d_branch2a
I0717 11:32:40.272984 14746 net.cpp:129] Top shape: 24 128 28 28 (2408448)
I0717 11:32:40.272987 14746 net.cpp:137] Memory required for data: 3858333792
I0717 11:32:40.272994 14746 layer_factory.hpp:77] Creating layer bn3d_branch2a
I0717 11:32:40.273005 14746 net.cpp:84] Creating Layer bn3d_branch2a
I0717 11:32:40.273012 14746 net.cpp:406] bn3d_branch2a <- res3d_branch2a
I0717 11:32:40.273020 14746 net.cpp:367] bn3d_branch2a -> res3d_branch2a (in-place)
I0717 11:32:40.273178 14746 net.cpp:122] Setting up bn3d_branch2a
I0717 11:32:40.273183 14746 net.cpp:129] Top shape: 24 128 28 28 (2408448)
I0717 11:32:40.273185 14746 net.cpp:137] Memory required for data: 3867967584
I0717 11:32:40.273203 14746 layer_factory.hpp:77] Creating layer scale3d_branch2a
I0717 11:32:40.273211 14746 net.cpp:84] Creating Layer scale3d_branch2a
I0717 11:32:40.273213 14746 net.cpp:406] scale3d_branch2a <- res3d_branch2a
I0717 11:32:40.273217 14746 net.cpp:367] scale3d_branch2a -> res3d_branch2a (in-place)
I0717 11:32:40.273257 14746 layer_factory.hpp:77] Creating layer scale3d_branch2a
I0717 11:32:40.273340 14746 net.cpp:122] Setting up scale3d_branch2a
I0717 11:32:40.273346 14746 net.cpp:129] Top shape: 24 128 28 28 (2408448)
I0717 11:32:40.273349 14746 net.cpp:137] Memory required for data: 3877601376
I0717 11:32:40.273353 14746 layer_factory.hpp:77] Creating layer res3d_branch2a_relu
I0717 11:32:40.273360 14746 net.cpp:84] Creating Layer res3d_branch2a_relu
I0717 11:32:40.273363 14746 net.cpp:406] res3d_branch2a_relu <- res3d_branch2a
I0717 11:32:40.273370 14746 net.cpp:367] res3d_branch2a_relu -> res3d_branch2a (in-place)
I0717 11:32:40.274070 14746 net.cpp:122] Setting up res3d_branch2a_relu
I0717 11:32:40.274082 14746 net.cpp:129] Top shape: 24 128 28 28 (2408448)
I0717 11:32:40.274086 14746 net.cpp:137] Memory required for data: 3887235168
I0717 11:32:40.274091 14746 layer_factory.hpp:77] Creating layer res3d_branch2b
I0717 11:32:40.274101 14746 net.cpp:84] Creating Layer res3d_branch2b
I0717 11:32:40.274108 14746 net.cpp:406] res3d_branch2b <- res3d_branch2a
I0717 11:32:40.274114 14746 net.cpp:380] res3d_branch2b -> res3d_branch2b
I0717 11:32:40.277122 14746 net.cpp:122] Setting up res3d_branch2b
I0717 11:32:40.277144 14746 net.cpp:129] Top shape: 24 128 28 28 (2408448)
I0717 11:32:40.277148 14746 net.cpp:137] Memory required for data: 3896868960
I0717 11:32:40.277158 14746 layer_factory.hpp:77] Creating layer bn3d_branch2b
I0717 11:32:40.277171 14746 net.cpp:84] Creating Layer bn3d_branch2b
I0717 11:32:40.277178 14746 net.cpp:406] bn3d_branch2b <- res3d_branch2b
I0717 11:32:40.277185 14746 net.cpp:367] bn3d_branch2b -> res3d_branch2b (in-place)
I0717 11:32:40.277413 14746 net.cpp:122] Setting up bn3d_branch2b
I0717 11:32:40.277422 14746 net.cpp:129] Top shape: 24 128 28 28 (2408448)
I0717 11:32:40.277426 14746 net.cpp:137] Memory required for data: 3906502752
I0717 11:32:40.277439 14746 layer_factory.hpp:77] Creating layer scale3d_branch2b
I0717 11:32:40.277449 14746 net.cpp:84] Creating Layer scale3d_branch2b
I0717 11:32:40.277454 14746 net.cpp:406] scale3d_branch2b <- res3d_branch2b
I0717 11:32:40.277462 14746 net.cpp:367] scale3d_branch2b -> res3d_branch2b (in-place)
I0717 11:32:40.277513 14746 layer_factory.hpp:77] Creating layer scale3d_branch2b
I0717 11:32:40.277606 14746 net.cpp:122] Setting up scale3d_branch2b
I0717 11:32:40.277612 14746 net.cpp:129] Top shape: 24 128 28 28 (2408448)
I0717 11:32:40.277614 14746 net.cpp:137] Memory required for data: 3916136544
I0717 11:32:40.277618 14746 layer_factory.hpp:77] Creating layer res3d_branch2b_relu
I0717 11:32:40.277623 14746 net.cpp:84] Creating Layer res3d_branch2b_relu
I0717 11:32:40.277627 14746 net.cpp:406] res3d_branch2b_relu <- res3d_branch2b
I0717 11:32:40.277631 14746 net.cpp:367] res3d_branch2b_relu -> res3d_branch2b (in-place)
I0717 11:32:40.278029 14746 net.cpp:122] Setting up res3d_branch2b_relu
I0717 11:32:40.278038 14746 net.cpp:129] Top shape: 24 128 28 28 (2408448)
I0717 11:32:40.278040 14746 net.cpp:137] Memory required for data: 3925770336
I0717 11:32:40.278043 14746 layer_factory.hpp:77] Creating layer res3d_branch2c
I0717 11:32:40.278067 14746 net.cpp:84] Creating Layer res3d_branch2c
I0717 11:32:40.278071 14746 net.cpp:406] res3d_branch2c <- res3d_branch2b
I0717 11:32:40.278076 14746 net.cpp:380] res3d_branch2c -> res3d_branch2c
I0717 11:32:40.280645 14746 net.cpp:122] Setting up res3d_branch2c
I0717 11:32:40.280671 14746 net.cpp:129] Top shape: 24 512 28 28 (9633792)
I0717 11:32:40.280676 14746 net.cpp:137] Memory required for data: 3964305504
I0717 11:32:40.280684 14746 layer_factory.hpp:77] Creating layer bn3d_branch2c
I0717 11:32:40.280694 14746 net.cpp:84] Creating Layer bn3d_branch2c
I0717 11:32:40.280699 14746 net.cpp:406] bn3d_branch2c <- res3d_branch2c
I0717 11:32:40.280709 14746 net.cpp:367] bn3d_branch2c -> res3d_branch2c (in-place)
I0717 11:32:40.280941 14746 net.cpp:122] Setting up bn3d_branch2c
I0717 11:32:40.281025 14746 net.cpp:129] Top shape: 24 512 28 28 (9633792)
I0717 11:32:40.281082 14746 net.cpp:137] Memory required for data: 4002840672
I0717 11:32:40.281142 14746 layer_factory.hpp:77] Creating layer scale3d_branch2c
I0717 11:32:40.281203 14746 net.cpp:84] Creating Layer scale3d_branch2c
I0717 11:32:40.281258 14746 net.cpp:406] scale3d_branch2c <- res3d_branch2c
I0717 11:32:40.281278 14746 net.cpp:367] scale3d_branch2c -> res3d_branch2c (in-place)
I0717 11:32:40.281355 14746 layer_factory.hpp:77] Creating layer scale3d_branch2c
I0717 11:32:40.281482 14746 net.cpp:122] Setting up scale3d_branch2c
I0717 11:32:40.281491 14746 net.cpp:129] Top shape: 24 512 28 28 (9633792)
I0717 11:32:40.281494 14746 net.cpp:137] Memory required for data: 4041375840
I0717 11:32:40.281499 14746 layer_factory.hpp:77] Creating layer res3d
I0717 11:32:40.281527 14746 net.cpp:84] Creating Layer res3d
I0717 11:32:40.281533 14746 net.cpp:406] res3d <- res3c_res3c_relu_0_split_1
I0717 11:32:40.281538 14746 net.cpp:406] res3d <- res3d_branch2c
I0717 11:32:40.281544 14746 net.cpp:380] res3d -> res3d
I0717 11:32:40.281570 14746 net.cpp:122] Setting up res3d
I0717 11:32:40.281576 14746 net.cpp:129] Top shape: 24 512 28 28 (9633792)
I0717 11:32:40.281579 14746 net.cpp:137] Memory required for data: 4079911008
I0717 11:32:40.281581 14746 layer_factory.hpp:77] Creating layer res3d_relu
I0717 11:32:40.281586 14746 net.cpp:84] Creating Layer res3d_relu
I0717 11:32:40.281590 14746 net.cpp:406] res3d_relu <- res3d
I0717 11:32:40.281596 14746 net.cpp:367] res3d_relu -> res3d (in-place)
I0717 11:32:40.281983 14746 net.cpp:122] Setting up res3d_relu
I0717 11:32:40.281991 14746 net.cpp:129] Top shape: 24 512 28 28 (9633792)
I0717 11:32:40.281994 14746 net.cpp:137] Memory required for data: 4118446176
I0717 11:32:40.281996 14746 layer_factory.hpp:77] Creating layer res3d_res3d_relu_0_split
I0717 11:32:40.282003 14746 net.cpp:84] Creating Layer res3d_res3d_relu_0_split
I0717 11:32:40.282007 14746 net.cpp:406] res3d_res3d_relu_0_split <- res3d
I0717 11:32:40.282012 14746 net.cpp:380] res3d_res3d_relu_0_split -> res3d_res3d_relu_0_split_0
I0717 11:32:40.282021 14746 net.cpp:380] res3d_res3d_relu_0_split -> res3d_res3d_relu_0_split_1
I0717 11:32:40.282064 14746 net.cpp:122] Setting up res3d_res3d_relu_0_split
I0717 11:32:40.282070 14746 net.cpp:129] Top shape: 24 512 28 28 (9633792)
I0717 11:32:40.282073 14746 net.cpp:129] Top shape: 24 512 28 28 (9633792)
I0717 11:32:40.282078 14746 net.cpp:137] Memory required for data: 4195516512
I0717 11:32:40.282080 14746 layer_factory.hpp:77] Creating layer res4a_branch1
I0717 11:32:40.282089 14746 net.cpp:84] Creating Layer res4a_branch1
I0717 11:32:40.282094 14746 net.cpp:406] res4a_branch1 <- res3d_res3d_relu_0_split_0
I0717 11:32:40.282102 14746 net.cpp:380] res4a_branch1 -> res4a_branch1
I0717 11:32:40.288319 14746 net.cpp:122] Setting up res4a_branch1
I0717 11:32:40.288337 14746 net.cpp:129] Top shape: 24 1024 14 14 (4816896)
I0717 11:32:40.288341 14746 net.cpp:137] Memory required for data: 4214784096
I0717 11:32:40.288347 14746 layer_factory.hpp:77] Creating layer bn4a_branch1
I0717 11:32:40.288357 14746 net.cpp:84] Creating Layer bn4a_branch1
I0717 11:32:40.288362 14746 net.cpp:406] bn4a_branch1 <- res4a_branch1
I0717 11:32:40.288380 14746 net.cpp:367] bn4a_branch1 -> res4a_branch1 (in-place)
I0717 11:32:40.288600 14746 net.cpp:122] Setting up bn4a_branch1
I0717 11:32:40.288606 14746 net.cpp:129] Top shape: 24 1024 14 14 (4816896)
I0717 11:32:40.288609 14746 net.cpp:137] Memory required for data: 4234051680
I0717 11:32:40.288614 14746 layer_factory.hpp:77] Creating layer scale4a_branch1
I0717 11:32:40.288620 14746 net.cpp:84] Creating Layer scale4a_branch1
I0717 11:32:40.288624 14746 net.cpp:406] scale4a_branch1 <- res4a_branch1
I0717 11:32:40.288626 14746 net.cpp:367] scale4a_branch1 -> res4a_branch1 (in-place)
I0717 11:32:40.288662 14746 layer_factory.hpp:77] Creating layer scale4a_branch1
I0717 11:32:40.288764 14746 net.cpp:122] Setting up scale4a_branch1
I0717 11:32:40.288772 14746 net.cpp:129] Top shape: 24 1024 14 14 (4816896)
I0717 11:32:40.288775 14746 net.cpp:137] Memory required for data: 4253319264
I0717 11:32:40.288779 14746 layer_factory.hpp:77] Creating layer res4a_branch2a
I0717 11:32:40.288789 14746 net.cpp:84] Creating Layer res4a_branch2a
I0717 11:32:40.288791 14746 net.cpp:406] res4a_branch2a <- res3d_res3d_relu_0_split_1
I0717 11:32:40.288795 14746 net.cpp:380] res4a_branch2a -> res4a_branch2a
I0717 11:32:40.291633 14746 net.cpp:122] Setting up res4a_branch2a
I0717 11:32:40.291647 14746 net.cpp:129] Top shape: 24 256 14 14 (1204224)
I0717 11:32:40.291649 14746 net.cpp:137] Memory required for data: 4258136160
I0717 11:32:40.291654 14746 layer_factory.hpp:77] Creating layer bn4a_branch2a
I0717 11:32:40.291661 14746 net.cpp:84] Creating Layer bn4a_branch2a
I0717 11:32:40.291666 14746 net.cpp:406] bn4a_branch2a <- res4a_branch2a
I0717 11:32:40.291671 14746 net.cpp:367] bn4a_branch2a -> res4a_branch2a (in-place)
I0717 11:32:40.291837 14746 net.cpp:122] Setting up bn4a_branch2a
I0717 11:32:40.291843 14746 net.cpp:129] Top shape: 24 256 14 14 (1204224)
I0717 11:32:40.291846 14746 net.cpp:137] Memory required for data: 4262953056
I0717 11:32:40.291852 14746 layer_factory.hpp:77] Creating layer scale4a_branch2a
I0717 11:32:40.291877 14746 net.cpp:84] Creating Layer scale4a_branch2a
I0717 11:32:40.291882 14746 net.cpp:406] scale4a_branch2a <- res4a_branch2a
I0717 11:32:40.291887 14746 net.cpp:367] scale4a_branch2a -> res4a_branch2a (in-place)
I0717 11:32:40.291934 14746 layer_factory.hpp:77] Creating layer scale4a_branch2a
I0717 11:32:40.292032 14746 net.cpp:122] Setting up scale4a_branch2a
I0717 11:32:40.292037 14746 net.cpp:129] Top shape: 24 256 14 14 (1204224)
I0717 11:32:40.292039 14746 net.cpp:137] Memory required for data: 4267769952
I0717 11:32:40.292044 14746 layer_factory.hpp:77] Creating layer res4a_branch2a_relu
I0717 11:32:40.292052 14746 net.cpp:84] Creating Layer res4a_branch2a_relu
I0717 11:32:40.292057 14746 net.cpp:406] res4a_branch2a_relu <- res4a_branch2a
I0717 11:32:40.292063 14746 net.cpp:367] res4a_branch2a_relu -> res4a_branch2a (in-place)
I0717 11:32:40.292888 14746 net.cpp:122] Setting up res4a_branch2a_relu
I0717 11:32:40.292903 14746 net.cpp:129] Top shape: 24 256 14 14 (1204224)
I0717 11:32:40.292906 14746 net.cpp:137] Memory required for data: 4272586848
I0717 11:32:40.292909 14746 layer_factory.hpp:77] Creating layer res4a_branch2b
I0717 11:32:40.292934 14746 net.cpp:84] Creating Layer res4a_branch2b
I0717 11:32:40.292938 14746 net.cpp:406] res4a_branch2b <- res4a_branch2a
I0717 11:32:40.292946 14746 net.cpp:380] res4a_branch2b -> res4a_branch2b
I0717 11:32:40.301362 14746 net.cpp:122] Setting up res4a_branch2b
I0717 11:32:40.301379 14746 net.cpp:129] Top shape: 24 256 14 14 (1204224)
I0717 11:32:40.301383 14746 net.cpp:137] Memory required for data: 4277403744
I0717 11:32:40.301389 14746 layer_factory.hpp:77] Creating layer bn4a_branch2b
I0717 11:32:40.301396 14746 net.cpp:84] Creating Layer bn4a_branch2b
I0717 11:32:40.301400 14746 net.cpp:406] bn4a_branch2b <- res4a_branch2b
I0717 11:32:40.301405 14746 net.cpp:367] bn4a_branch2b -> res4a_branch2b (in-place)
I0717 11:32:40.301571 14746 net.cpp:122] Setting up bn4a_branch2b
I0717 11:32:40.301612 14746 net.cpp:129] Top shape: 24 256 14 14 (1204224)
I0717 11:32:40.301615 14746 net.cpp:137] Memory required for data: 4282220640
I0717 11:32:40.301620 14746 layer_factory.hpp:77] Creating layer scale4a_branch2b
I0717 11:32:40.301625 14746 net.cpp:84] Creating Layer scale4a_branch2b
I0717 11:32:40.301628 14746 net.cpp:406] scale4a_branch2b <- res4a_branch2b
I0717 11:32:40.301632 14746 net.cpp:367] scale4a_branch2b -> res4a_branch2b (in-place)
I0717 11:32:40.301667 14746 layer_factory.hpp:77] Creating layer scale4a_branch2b
I0717 11:32:40.301754 14746 net.cpp:122] Setting up scale4a_branch2b
I0717 11:32:40.301759 14746 net.cpp:129] Top shape: 24 256 14 14 (1204224)
I0717 11:32:40.301761 14746 net.cpp:137] Memory required for data: 4287037536
I0717 11:32:40.301765 14746 layer_factory.hpp:77] Creating layer res4a_branch2b_relu
I0717 11:32:40.301769 14746 net.cpp:84] Creating Layer res4a_branch2b_relu
I0717 11:32:40.301774 14746 net.cpp:406] res4a_branch2b_relu <- res4a_branch2b
I0717 11:32:40.301776 14746 net.cpp:367] res4a_branch2b_relu -> res4a_branch2b (in-place)
I0717 11:32:40.302124 14746 net.cpp:122] Setting up res4a_branch2b_relu
I0717 11:32:40.302132 14746 net.cpp:129] Top shape: 24 256 14 14 (1204224)
I0717 11:32:40.302135 14746 net.cpp:137] Memory required for data: 4291854432
I0717 11:32:40.302139 14746 layer_factory.hpp:77] Creating layer res4a_branch2c
I0717 11:32:40.302143 14746 net.cpp:84] Creating Layer res4a_branch2c
I0717 11:32:40.302146 14746 net.cpp:406] res4a_branch2c <- res4a_branch2b
I0717 11:32:40.302151 14746 net.cpp:380] res4a_branch2c -> res4a_branch2c
I0717 11:32:40.305402 14746 net.cpp:122] Setting up res4a_branch2c
I0717 11:32:40.305411 14746 net.cpp:129] Top shape: 24 1024 14 14 (4816896)
I0717 11:32:40.305413 14746 net.cpp:137] Memory required for data: 4311122016
I0717 11:32:40.305418 14746 layer_factory.hpp:77] Creating layer bn4a_branch2c
I0717 11:32:40.305423 14746 net.cpp:84] Creating Layer bn4a_branch2c
I0717 11:32:40.305428 14746 net.cpp:406] bn4a_branch2c <- res4a_branch2c
I0717 11:32:40.305430 14746 net.cpp:367] bn4a_branch2c -> res4a_branch2c (in-place)
I0717 11:32:40.305588 14746 net.cpp:122] Setting up bn4a_branch2c
I0717 11:32:40.305593 14746 net.cpp:129] Top shape: 24 1024 14 14 (4816896)
I0717 11:32:40.305596 14746 net.cpp:137] Memory required for data: 4330389600
I0717 11:32:40.305600 14746 layer_factory.hpp:77] Creating layer scale4a_branch2c
I0717 11:32:40.305605 14746 net.cpp:84] Creating Layer scale4a_branch2c
I0717 11:32:40.305608 14746 net.cpp:406] scale4a_branch2c <- res4a_branch2c
I0717 11:32:40.305611 14746 net.cpp:367] scale4a_branch2c -> res4a_branch2c (in-place)
I0717 11:32:40.305639 14746 layer_factory.hpp:77] Creating layer scale4a_branch2c
I0717 11:32:40.305727 14746 net.cpp:122] Setting up scale4a_branch2c
I0717 11:32:40.305732 14746 net.cpp:129] Top shape: 24 1024 14 14 (4816896)
I0717 11:32:40.305734 14746 net.cpp:137] Memory required for data: 4349657184
I0717 11:32:40.305737 14746 layer_factory.hpp:77] Creating layer res4a
I0717 11:32:40.305742 14746 net.cpp:84] Creating Layer res4a
I0717 11:32:40.305745 14746 net.cpp:406] res4a <- res4a_branch1
I0717 11:32:40.305747 14746 net.cpp:406] res4a <- res4a_branch2c
I0717 11:32:40.305752 14746 net.cpp:380] res4a -> res4a
I0717 11:32:40.305769 14746 net.cpp:122] Setting up res4a
I0717 11:32:40.305774 14746 net.cpp:129] Top shape: 24 1024 14 14 (4816896)
I0717 11:32:40.305778 14746 net.cpp:137] Memory required for data: 4368924768
I0717 11:32:40.305779 14746 layer_factory.hpp:77] Creating layer res4a_relu
I0717 11:32:40.305783 14746 net.cpp:84] Creating Layer res4a_relu
I0717 11:32:40.305785 14746 net.cpp:406] res4a_relu <- res4a
I0717 11:32:40.305788 14746 net.cpp:367] res4a_relu -> res4a (in-place)
I0717 11:32:40.306124 14746 net.cpp:122] Setting up res4a_relu
I0717 11:32:40.306147 14746 net.cpp:129] Top shape: 24 1024 14 14 (4816896)
I0717 11:32:40.306150 14746 net.cpp:137] Memory required for data: 4388192352
I0717 11:32:40.306152 14746 layer_factory.hpp:77] Creating layer res4a_res4a_relu_0_split
I0717 11:32:40.306164 14746 net.cpp:84] Creating Layer res4a_res4a_relu_0_split
I0717 11:32:40.306166 14746 net.cpp:406] res4a_res4a_relu_0_split <- res4a
I0717 11:32:40.306170 14746 net.cpp:380] res4a_res4a_relu_0_split -> res4a_res4a_relu_0_split_0
I0717 11:32:40.306176 14746 net.cpp:380] res4a_res4a_relu_0_split -> res4a_res4a_relu_0_split_1
I0717 11:32:40.306221 14746 net.cpp:122] Setting up res4a_res4a_relu_0_split
I0717 11:32:40.306226 14746 net.cpp:129] Top shape: 24 1024 14 14 (4816896)
I0717 11:32:40.306228 14746 net.cpp:129] Top shape: 24 1024 14 14 (4816896)
I0717 11:32:40.306231 14746 net.cpp:137] Memory required for data: 4426727520
I0717 11:32:40.306247 14746 layer_factory.hpp:77] Creating layer res4b_branch2a
I0717 11:32:40.306268 14746 net.cpp:84] Creating Layer res4b_branch2a
I0717 11:32:40.306272 14746 net.cpp:406] res4b_branch2a <- res4a_res4a_relu_0_split_0
I0717 11:32:40.306275 14746 net.cpp:380] res4b_branch2a -> res4b_branch2a
I0717 11:32:40.310526 14746 net.cpp:122] Setting up res4b_branch2a
I0717 11:32:40.310547 14746 net.cpp:129] Top shape: 24 256 14 14 (1204224)
I0717 11:32:40.310549 14746 net.cpp:137] Memory required for data: 4431544416
I0717 11:32:40.310557 14746 layer_factory.hpp:77] Creating layer bn4b_branch2a
I0717 11:32:40.310582 14746 net.cpp:84] Creating Layer bn4b_branch2a
I0717 11:32:40.310586 14746 net.cpp:406] bn4b_branch2a <- res4b_branch2a
I0717 11:32:40.310592 14746 net.cpp:367] bn4b_branch2a -> res4b_branch2a (in-place)
I0717 11:32:40.310847 14746 net.cpp:122] Setting up bn4b_branch2a
I0717 11:32:40.310856 14746 net.cpp:129] Top shape: 24 256 14 14 (1204224)
I0717 11:32:40.310860 14746 net.cpp:137] Memory required for data: 4436361312
I0717 11:32:40.310868 14746 layer_factory.hpp:77] Creating layer scale4b_branch2a
I0717 11:32:40.310875 14746 net.cpp:84] Creating Layer scale4b_branch2a
I0717 11:32:40.310902 14746 net.cpp:406] scale4b_branch2a <- res4b_branch2a
I0717 11:32:40.310916 14746 net.cpp:367] scale4b_branch2a -> res4b_branch2a (in-place)
I0717 11:32:40.310992 14746 layer_factory.hpp:77] Creating layer scale4b_branch2a
I0717 11:32:40.311122 14746 net.cpp:122] Setting up scale4b_branch2a
I0717 11:32:40.311131 14746 net.cpp:129] Top shape: 24 256 14 14 (1204224)
I0717 11:32:40.311134 14746 net.cpp:137] Memory required for data: 4441178208
I0717 11:32:40.311141 14746 layer_factory.hpp:77] Creating layer res4b_branch2a_relu
I0717 11:32:40.311163 14746 net.cpp:84] Creating Layer res4b_branch2a_relu
I0717 11:32:40.311169 14746 net.cpp:406] res4b_branch2a_relu <- res4b_branch2a
I0717 11:32:40.311177 14746 net.cpp:367] res4b_branch2a_relu -> res4b_branch2a (in-place)
I0717 11:32:40.311938 14746 net.cpp:122] Setting up res4b_branch2a_relu
I0717 11:32:40.311946 14746 net.cpp:129] Top shape: 24 256 14 14 (1204224)
I0717 11:32:40.311964 14746 net.cpp:137] Memory required for data: 4445995104
I0717 11:32:40.311967 14746 layer_factory.hpp:77] Creating layer res4b_branch2b
I0717 11:32:40.311976 14746 net.cpp:84] Creating Layer res4b_branch2b
I0717 11:32:40.311981 14746 net.cpp:406] res4b_branch2b <- res4b_branch2a
I0717 11:32:40.311988 14746 net.cpp:380] res4b_branch2b -> res4b_branch2b
I0717 11:32:40.319098 14746 net.cpp:122] Setting up res4b_branch2b
I0717 11:32:40.319121 14746 net.cpp:129] Top shape: 24 256 14 14 (1204224)
I0717 11:32:40.319125 14746 net.cpp:137] Memory required for data: 4450812000
I0717 11:32:40.319139 14746 layer_factory.hpp:77] Creating layer bn4b_branch2b
I0717 11:32:40.319147 14746 net.cpp:84] Creating Layer bn4b_branch2b
I0717 11:32:40.319152 14746 net.cpp:406] bn4b_branch2b <- res4b_branch2b
I0717 11:32:40.319159 14746 net.cpp:367] bn4b_branch2b -> res4b_branch2b (in-place)
I0717 11:32:40.319332 14746 net.cpp:122] Setting up bn4b_branch2b
I0717 11:32:40.319337 14746 net.cpp:129] Top shape: 24 256 14 14 (1204224)
I0717 11:32:40.319340 14746 net.cpp:137] Memory required for data: 4455628896
I0717 11:32:40.319347 14746 layer_factory.hpp:77] Creating layer scale4b_branch2b
I0717 11:32:40.319355 14746 net.cpp:84] Creating Layer scale4b_branch2b
I0717 11:32:40.319360 14746 net.cpp:406] scale4b_branch2b <- res4b_branch2b
I0717 11:32:40.319375 14746 net.cpp:367] scale4b_branch2b -> res4b_branch2b (in-place)
I0717 11:32:40.319428 14746 layer_factory.hpp:77] Creating layer scale4b_branch2b
I0717 11:32:40.319545 14746 net.cpp:122] Setting up scale4b_branch2b
I0717 11:32:40.319550 14746 net.cpp:129] Top shape: 24 256 14 14 (1204224)
I0717 11:32:40.319564 14746 net.cpp:137] Memory required for data: 4460445792
I0717 11:32:40.319568 14746 layer_factory.hpp:77] Creating layer res4b_branch2b_relu
I0717 11:32:40.319576 14746 net.cpp:84] Creating Layer res4b_branch2b_relu
I0717 11:32:40.319581 14746 net.cpp:406] res4b_branch2b_relu <- res4b_branch2b
I0717 11:32:40.319583 14746 net.cpp:367] res4b_branch2b_relu -> res4b_branch2b (in-place)
I0717 11:32:40.319911 14746 net.cpp:122] Setting up res4b_branch2b_relu
I0717 11:32:40.319918 14746 net.cpp:129] Top shape: 24 256 14 14 (1204224)
I0717 11:32:40.319922 14746 net.cpp:137] Memory required for data: 4465262688
I0717 11:32:40.319926 14746 layer_factory.hpp:77] Creating layer res4b_branch2c
I0717 11:32:40.319936 14746 net.cpp:84] Creating Layer res4b_branch2c
I0717 11:32:40.319938 14746 net.cpp:406] res4b_branch2c <- res4b_branch2b
I0717 11:32:40.319944 14746 net.cpp:380] res4b_branch2c -> res4b_branch2c
I0717 11:32:40.323856 14746 net.cpp:122] Setting up res4b_branch2c
I0717 11:32:40.323901 14746 net.cpp:129] Top shape: 24 1024 14 14 (4816896)
I0717 11:32:40.323904 14746 net.cpp:137] Memory required for data: 4484530272
I0717 11:32:40.323912 14746 layer_factory.hpp:77] Creating layer bn4b_branch2c
I0717 11:32:40.323925 14746 net.cpp:84] Creating Layer bn4b_branch2c
I0717 11:32:40.323931 14746 net.cpp:406] bn4b_branch2c <- res4b_branch2c
I0717 11:32:40.323938 14746 net.cpp:367] bn4b_branch2c -> res4b_branch2c (in-place)
I0717 11:32:40.324132 14746 net.cpp:122] Setting up bn4b_branch2c
I0717 11:32:40.324139 14746 net.cpp:129] Top shape: 24 1024 14 14 (4816896)
I0717 11:32:40.324142 14746 net.cpp:137] Memory required for data: 4503797856
I0717 11:32:40.324151 14746 layer_factory.hpp:77] Creating layer scale4b_branch2c
I0717 11:32:40.324157 14746 net.cpp:84] Creating Layer scale4b_branch2c
I0717 11:32:40.324162 14746 net.cpp:406] scale4b_branch2c <- res4b_branch2c
I0717 11:32:40.324165 14746 net.cpp:367] scale4b_branch2c -> res4b_branch2c (in-place)
I0717 11:32:40.324219 14746 layer_factory.hpp:77] Creating layer scale4b_branch2c
I0717 11:32:40.324362 14746 net.cpp:122] Setting up scale4b_branch2c
I0717 11:32:40.324368 14746 net.cpp:129] Top shape: 24 1024 14 14 (4816896)
I0717 11:32:40.324388 14746 net.cpp:137] Memory required for data: 4523065440
I0717 11:32:40.324391 14746 layer_factory.hpp:77] Creating layer res4b
I0717 11:32:40.324409 14746 net.cpp:84] Creating Layer res4b
I0717 11:32:40.324412 14746 net.cpp:406] res4b <- res4a_res4a_relu_0_split_1
I0717 11:32:40.324416 14746 net.cpp:406] res4b <- res4b_branch2c
I0717 11:32:40.324434 14746 net.cpp:380] res4b -> res4b
I0717 11:32:40.324455 14746 net.cpp:122] Setting up res4b
I0717 11:32:40.324460 14746 net.cpp:129] Top shape: 24 1024 14 14 (4816896)
I0717 11:32:40.324462 14746 net.cpp:137] Memory required for data: 4542333024
I0717 11:32:40.324465 14746 layer_factory.hpp:77] Creating layer res4b_relu
I0717 11:32:40.324483 14746 net.cpp:84] Creating Layer res4b_relu
I0717 11:32:40.324486 14746 net.cpp:406] res4b_relu <- res4b
I0717 11:32:40.324491 14746 net.cpp:367] res4b_relu -> res4b (in-place)
I0717 11:32:40.324949 14746 net.cpp:122] Setting up res4b_relu
I0717 11:32:40.324959 14746 net.cpp:129] Top shape: 24 1024 14 14 (4816896)
I0717 11:32:40.324961 14746 net.cpp:137] Memory required for data: 4561600608
I0717 11:32:40.324965 14746 layer_factory.hpp:77] Creating layer res4b_res4b_relu_0_split
I0717 11:32:40.324973 14746 net.cpp:84] Creating Layer res4b_res4b_relu_0_split
I0717 11:32:40.324977 14746 net.cpp:406] res4b_res4b_relu_0_split <- res4b
I0717 11:32:40.324983 14746 net.cpp:380] res4b_res4b_relu_0_split -> res4b_res4b_relu_0_split_0
I0717 11:32:40.324990 14746 net.cpp:380] res4b_res4b_relu_0_split -> res4b_res4b_relu_0_split_1
I0717 11:32:40.325038 14746 net.cpp:122] Setting up res4b_res4b_relu_0_split
I0717 11:32:40.325043 14746 net.cpp:129] Top shape: 24 1024 14 14 (4816896)
I0717 11:32:40.325048 14746 net.cpp:129] Top shape: 24 1024 14 14 (4816896)
I0717 11:32:40.325052 14746 net.cpp:137] Memory required for data: 4600135776
I0717 11:32:40.325055 14746 layer_factory.hpp:77] Creating layer res4c_branch2a
I0717 11:32:40.325062 14746 net.cpp:84] Creating Layer res4c_branch2a
I0717 11:32:40.325067 14746 net.cpp:406] res4c_branch2a <- res4b_res4b_relu_0_split_0
I0717 11:32:40.325073 14746 net.cpp:380] res4c_branch2a -> res4c_branch2a
I0717 11:32:40.330380 14746 net.cpp:122] Setting up res4c_branch2a
I0717 11:32:40.330404 14746 net.cpp:129] Top shape: 24 256 14 14 (1204224)
I0717 11:32:40.330408 14746 net.cpp:137] Memory required for data: 4604952672
I0717 11:32:40.330430 14746 layer_factory.hpp:77] Creating layer bn4c_branch2a
I0717 11:32:40.330441 14746 net.cpp:84] Creating Layer bn4c_branch2a
I0717 11:32:40.330447 14746 net.cpp:406] bn4c_branch2a <- res4c_branch2a
I0717 11:32:40.330453 14746 net.cpp:367] bn4c_branch2a -> res4c_branch2a (in-place)
I0717 11:32:40.330677 14746 net.cpp:122] Setting up bn4c_branch2a
I0717 11:32:40.330684 14746 net.cpp:129] Top shape: 24 256 14 14 (1204224)
I0717 11:32:40.330687 14746 net.cpp:137] Memory required for data: 4609769568
I0717 11:32:40.330708 14746 layer_factory.hpp:77] Creating layer scale4c_branch2a
I0717 11:32:40.330714 14746 net.cpp:84] Creating Layer scale4c_branch2a
I0717 11:32:40.330718 14746 net.cpp:406] scale4c_branch2a <- res4c_branch2a
I0717 11:32:40.330721 14746 net.cpp:367] scale4c_branch2a -> res4c_branch2a (in-place)
I0717 11:32:40.330795 14746 layer_factory.hpp:77] Creating layer scale4c_branch2a
I0717 11:32:40.330914 14746 net.cpp:122] Setting up scale4c_branch2a
I0717 11:32:40.330919 14746 net.cpp:129] Top shape: 24 256 14 14 (1204224)
I0717 11:32:40.330920 14746 net.cpp:137] Memory required for data: 4614586464
I0717 11:32:40.330937 14746 layer_factory.hpp:77] Creating layer res4c_branch2a_relu
I0717 11:32:40.330942 14746 net.cpp:84] Creating Layer res4c_branch2a_relu
I0717 11:32:40.330945 14746 net.cpp:406] res4c_branch2a_relu <- res4c_branch2a
I0717 11:32:40.330948 14746 net.cpp:367] res4c_branch2a_relu -> res4c_branch2a (in-place)
I0717 11:32:40.331269 14746 net.cpp:122] Setting up res4c_branch2a_relu
I0717 11:32:40.331277 14746 net.cpp:129] Top shape: 24 256 14 14 (1204224)
I0717 11:32:40.331279 14746 net.cpp:137] Memory required for data: 4619403360
I0717 11:32:40.331281 14746 layer_factory.hpp:77] Creating layer res4c_branch2b
I0717 11:32:40.331290 14746 net.cpp:84] Creating Layer res4c_branch2b
I0717 11:32:40.331292 14746 net.cpp:406] res4c_branch2b <- res4c_branch2a
I0717 11:32:40.331296 14746 net.cpp:380] res4c_branch2b -> res4c_branch2b
I0717 11:32:40.338349 14746 net.cpp:122] Setting up res4c_branch2b
I0717 11:32:40.338377 14746 net.cpp:129] Top shape: 24 256 14 14 (1204224)
I0717 11:32:40.338380 14746 net.cpp:137] Memory required for data: 4624220256
I0717 11:32:40.338407 14746 layer_factory.hpp:77] Creating layer bn4c_branch2b
I0717 11:32:40.338418 14746 net.cpp:84] Creating Layer bn4c_branch2b
I0717 11:32:40.338423 14746 net.cpp:406] bn4c_branch2b <- res4c_branch2b
I0717 11:32:40.338429 14746 net.cpp:367] bn4c_branch2b -> res4c_branch2b (in-place)
I0717 11:32:40.338667 14746 net.cpp:122] Setting up bn4c_branch2b
I0717 11:32:40.338673 14746 net.cpp:129] Top shape: 24 256 14 14 (1204224)
I0717 11:32:40.338676 14746 net.cpp:137] Memory required for data: 4629037152
I0717 11:32:40.338682 14746 layer_factory.hpp:77] Creating layer scale4c_branch2b
I0717 11:32:40.338687 14746 net.cpp:84] Creating Layer scale4c_branch2b
I0717 11:32:40.338690 14746 net.cpp:406] scale4c_branch2b <- res4c_branch2b
I0717 11:32:40.338695 14746 net.cpp:367] scale4c_branch2b -> res4c_branch2b (in-place)
I0717 11:32:40.338762 14746 layer_factory.hpp:77] Creating layer scale4c_branch2b
I0717 11:32:40.338912 14746 net.cpp:122] Setting up scale4c_branch2b
I0717 11:32:40.338933 14746 net.cpp:129] Top shape: 24 256 14 14 (1204224)
I0717 11:32:40.338951 14746 net.cpp:137] Memory required for data: 4633854048
I0717 11:32:40.338956 14746 layer_factory.hpp:77] Creating layer res4c_branch2b_relu
I0717 11:32:40.338963 14746 net.cpp:84] Creating Layer res4c_branch2b_relu
I0717 11:32:40.338965 14746 net.cpp:406] res4c_branch2b_relu <- res4c_branch2b
I0717 11:32:40.338970 14746 net.cpp:367] res4c_branch2b_relu -> res4c_branch2b (in-place)
I0717 11:32:40.339895 14746 net.cpp:122] Setting up res4c_branch2b_relu
I0717 11:32:40.339918 14746 net.cpp:129] Top shape: 24 256 14 14 (1204224)
I0717 11:32:40.339920 14746 net.cpp:137] Memory required for data: 4638670944
I0717 11:32:40.339926 14746 layer_factory.hpp:77] Creating layer res4c_branch2c
I0717 11:32:40.339937 14746 net.cpp:84] Creating Layer res4c_branch2c
I0717 11:32:40.339941 14746 net.cpp:406] res4c_branch2c <- res4c_branch2b
I0717 11:32:40.339948 14746 net.cpp:380] res4c_branch2c -> res4c_branch2c
I0717 11:32:40.343403 14746 net.cpp:122] Setting up res4c_branch2c
I0717 11:32:40.343415 14746 net.cpp:129] Top shape: 24 1024 14 14 (4816896)
I0717 11:32:40.343417 14746 net.cpp:137] Memory required for data: 4657938528
I0717 11:32:40.343421 14746 layer_factory.hpp:77] Creating layer bn4c_branch2c
I0717 11:32:40.343430 14746 net.cpp:84] Creating Layer bn4c_branch2c
I0717 11:32:40.343432 14746 net.cpp:406] bn4c_branch2c <- res4c_branch2c
I0717 11:32:40.343436 14746 net.cpp:367] bn4c_branch2c -> res4c_branch2c (in-place)
I0717 11:32:40.343627 14746 net.cpp:122] Setting up bn4c_branch2c
I0717 11:32:40.343633 14746 net.cpp:129] Top shape: 24 1024 14 14 (4816896)
I0717 11:32:40.343636 14746 net.cpp:137] Memory required for data: 4677206112
I0717 11:32:40.343641 14746 layer_factory.hpp:77] Creating layer scale4c_branch2c
I0717 11:32:40.343646 14746 net.cpp:84] Creating Layer scale4c_branch2c
I0717 11:32:40.343648 14746 net.cpp:406] scale4c_branch2c <- res4c_branch2c
I0717 11:32:40.343652 14746 net.cpp:367] scale4c_branch2c -> res4c_branch2c (in-place)
I0717 11:32:40.343699 14746 layer_factory.hpp:77] Creating layer scale4c_branch2c
I0717 11:32:40.343861 14746 net.cpp:122] Setting up scale4c_branch2c
I0717 11:32:40.343866 14746 net.cpp:129] Top shape: 24 1024 14 14 (4816896)
I0717 11:32:40.343868 14746 net.cpp:137] Memory required for data: 4696473696
I0717 11:32:40.343873 14746 layer_factory.hpp:77] Creating layer res4c
I0717 11:32:40.343876 14746 net.cpp:84] Creating Layer res4c
I0717 11:32:40.343879 14746 net.cpp:406] res4c <- res4b_res4b_relu_0_split_1
I0717 11:32:40.343883 14746 net.cpp:406] res4c <- res4c_branch2c
I0717 11:32:40.343885 14746 net.cpp:380] res4c -> res4c
I0717 11:32:40.343919 14746 net.cpp:122] Setting up res4c
I0717 11:32:40.343924 14746 net.cpp:129] Top shape: 24 1024 14 14 (4816896)
I0717 11:32:40.343926 14746 net.cpp:137] Memory required for data: 4715741280
I0717 11:32:40.343928 14746 layer_factory.hpp:77] Creating layer res4c_relu
I0717 11:32:40.343931 14746 net.cpp:84] Creating Layer res4c_relu
I0717 11:32:40.343935 14746 net.cpp:406] res4c_relu <- res4c
I0717 11:32:40.343938 14746 net.cpp:367] res4c_relu -> res4c (in-place)
I0717 11:32:40.344259 14746 net.cpp:122] Setting up res4c_relu
I0717 11:32:40.344265 14746 net.cpp:129] Top shape: 24 1024 14 14 (4816896)
I0717 11:32:40.344267 14746 net.cpp:137] Memory required for data: 4735008864
I0717 11:32:40.344269 14746 layer_factory.hpp:77] Creating layer res4c_res4c_relu_0_split
I0717 11:32:40.344274 14746 net.cpp:84] Creating Layer res4c_res4c_relu_0_split
I0717 11:32:40.344275 14746 net.cpp:406] res4c_res4c_relu_0_split <- res4c
I0717 11:32:40.344280 14746 net.cpp:380] res4c_res4c_relu_0_split -> res4c_res4c_relu_0_split_0
I0717 11:32:40.344285 14746 net.cpp:380] res4c_res4c_relu_0_split -> res4c_res4c_relu_0_split_1
I0717 11:32:40.344331 14746 net.cpp:122] Setting up res4c_res4c_relu_0_split
I0717 11:32:40.344336 14746 net.cpp:129] Top shape: 24 1024 14 14 (4816896)
I0717 11:32:40.344352 14746 net.cpp:129] Top shape: 24 1024 14 14 (4816896)
I0717 11:32:40.344353 14746 net.cpp:137] Memory required for data: 4773544032
I0717 11:32:40.344379 14746 layer_factory.hpp:77] Creating layer res4d_branch2a
I0717 11:32:40.344385 14746 net.cpp:84] Creating Layer res4d_branch2a
I0717 11:32:40.344389 14746 net.cpp:406] res4d_branch2a <- res4c_res4c_relu_0_split_0
I0717 11:32:40.344393 14746 net.cpp:380] res4d_branch2a -> res4d_branch2a
I0717 11:32:40.348184 14746 net.cpp:122] Setting up res4d_branch2a
I0717 11:32:40.348197 14746 net.cpp:129] Top shape: 24 256 14 14 (1204224)
I0717 11:32:40.348201 14746 net.cpp:137] Memory required for data: 4778360928
I0717 11:32:40.348206 14746 layer_factory.hpp:77] Creating layer bn4d_branch2a
I0717 11:32:40.348210 14746 net.cpp:84] Creating Layer bn4d_branch2a
I0717 11:32:40.348213 14746 net.cpp:406] bn4d_branch2a <- res4d_branch2a
I0717 11:32:40.348218 14746 net.cpp:367] bn4d_branch2a -> res4d_branch2a (in-place)
I0717 11:32:40.348400 14746 net.cpp:122] Setting up bn4d_branch2a
I0717 11:32:40.348407 14746 net.cpp:129] Top shape: 24 256 14 14 (1204224)
I0717 11:32:40.348423 14746 net.cpp:137] Memory required for data: 4783177824
I0717 11:32:40.348428 14746 layer_factory.hpp:77] Creating layer scale4d_branch2a
I0717 11:32:40.348433 14746 net.cpp:84] Creating Layer scale4d_branch2a
I0717 11:32:40.348435 14746 net.cpp:406] scale4d_branch2a <- res4d_branch2a
I0717 11:32:40.348438 14746 net.cpp:367] scale4d_branch2a -> res4d_branch2a (in-place)
I0717 11:32:40.348474 14746 layer_factory.hpp:77] Creating layer scale4d_branch2a
I0717 11:32:40.348603 14746 net.cpp:122] Setting up scale4d_branch2a
I0717 11:32:40.348608 14746 net.cpp:129] Top shape: 24 256 14 14 (1204224)
I0717 11:32:40.348625 14746 net.cpp:137] Memory required for data: 4787994720
I0717 11:32:40.348629 14746 layer_factory.hpp:77] Creating layer res4d_branch2a_relu
I0717 11:32:40.348634 14746 net.cpp:84] Creating Layer res4d_branch2a_relu
I0717 11:32:40.348637 14746 net.cpp:406] res4d_branch2a_relu <- res4d_branch2a
I0717 11:32:40.348639 14746 net.cpp:367] res4d_branch2a_relu -> res4d_branch2a (in-place)
I0717 11:32:40.348961 14746 net.cpp:122] Setting up res4d_branch2a_relu
I0717 11:32:40.348968 14746 net.cpp:129] Top shape: 24 256 14 14 (1204224)
I0717 11:32:40.348985 14746 net.cpp:137] Memory required for data: 4792811616
I0717 11:32:40.348987 14746 layer_factory.hpp:77] Creating layer res4d_branch2b
I0717 11:32:40.348999 14746 net.cpp:84] Creating Layer res4d_branch2b
I0717 11:32:40.349001 14746 net.cpp:406] res4d_branch2b <- res4d_branch2a
I0717 11:32:40.349005 14746 net.cpp:380] res4d_branch2b -> res4d_branch2b
I0717 11:32:40.356863 14746 net.cpp:122] Setting up res4d_branch2b
I0717 11:32:40.356880 14746 net.cpp:129] Top shape: 24 256 14 14 (1204224)
I0717 11:32:40.356884 14746 net.cpp:137] Memory required for data: 4797628512
I0717 11:32:40.356889 14746 layer_factory.hpp:77] Creating layer bn4d_branch2b
I0717 11:32:40.356896 14746 net.cpp:84] Creating Layer bn4d_branch2b
I0717 11:32:40.356900 14746 net.cpp:406] bn4d_branch2b <- res4d_branch2b
I0717 11:32:40.356905 14746 net.cpp:367] bn4d_branch2b -> res4d_branch2b (in-place)
I0717 11:32:40.357075 14746 net.cpp:122] Setting up bn4d_branch2b
I0717 11:32:40.357080 14746 net.cpp:129] Top shape: 24 256 14 14 (1204224)
I0717 11:32:40.357084 14746 net.cpp:137] Memory required for data: 4802445408
I0717 11:32:40.357087 14746 layer_factory.hpp:77] Creating layer scale4d_branch2b
I0717 11:32:40.357092 14746 net.cpp:84] Creating Layer scale4d_branch2b
I0717 11:32:40.357095 14746 net.cpp:406] scale4d_branch2b <- res4d_branch2b
I0717 11:32:40.357097 14746 net.cpp:367] scale4d_branch2b -> res4d_branch2b (in-place)
I0717 11:32:40.357147 14746 layer_factory.hpp:77] Creating layer scale4d_branch2b
I0717 11:32:40.357303 14746 net.cpp:122] Setting up scale4d_branch2b
I0717 11:32:40.357308 14746 net.cpp:129] Top shape: 24 256 14 14 (1204224)
I0717 11:32:40.357311 14746 net.cpp:137] Memory required for data: 4807262304
I0717 11:32:40.357313 14746 layer_factory.hpp:77] Creating layer res4d_branch2b_relu
I0717 11:32:40.357318 14746 net.cpp:84] Creating Layer res4d_branch2b_relu
I0717 11:32:40.357331 14746 net.cpp:406] res4d_branch2b_relu <- res4d_branch2b
I0717 11:32:40.357336 14746 net.cpp:367] res4d_branch2b_relu -> res4d_branch2b (in-place)
I0717 11:32:40.358023 14746 net.cpp:122] Setting up res4d_branch2b_relu
I0717 11:32:40.358032 14746 net.cpp:129] Top shape: 24 256 14 14 (1204224)
I0717 11:32:40.358049 14746 net.cpp:137] Memory required for data: 4812079200
I0717 11:32:40.358052 14746 layer_factory.hpp:77] Creating layer res4d_branch2c
I0717 11:32:40.358059 14746 net.cpp:84] Creating Layer res4d_branch2c
I0717 11:32:40.358062 14746 net.cpp:406] res4d_branch2c <- res4d_branch2b
I0717 11:32:40.358067 14746 net.cpp:380] res4d_branch2c -> res4d_branch2c
I0717 11:32:40.361423 14746 net.cpp:122] Setting up res4d_branch2c
I0717 11:32:40.361438 14746 net.cpp:129] Top shape: 24 1024 14 14 (4816896)
I0717 11:32:40.361440 14746 net.cpp:137] Memory required for data: 4831346784
I0717 11:32:40.361444 14746 layer_factory.hpp:77] Creating layer bn4d_branch2c
I0717 11:32:40.361450 14746 net.cpp:84] Creating Layer bn4d_branch2c
I0717 11:32:40.361454 14746 net.cpp:406] bn4d_branch2c <- res4d_branch2c
I0717 11:32:40.361459 14746 net.cpp:367] bn4d_branch2c -> res4d_branch2c (in-place)
I0717 11:32:40.361634 14746 net.cpp:122] Setting up bn4d_branch2c
I0717 11:32:40.361641 14746 net.cpp:129] Top shape: 24 1024 14 14 (4816896)
I0717 11:32:40.361644 14746 net.cpp:137] Memory required for data: 4850614368
I0717 11:32:40.361651 14746 layer_factory.hpp:77] Creating layer scale4d_branch2c
I0717 11:32:40.361657 14746 net.cpp:84] Creating Layer scale4d_branch2c
I0717 11:32:40.361662 14746 net.cpp:406] scale4d_branch2c <- res4d_branch2c
I0717 11:32:40.361666 14746 net.cpp:367] scale4d_branch2c -> res4d_branch2c (in-place)
I0717 11:32:40.361709 14746 layer_factory.hpp:77] Creating layer scale4d_branch2c
I0717 11:32:40.361814 14746 net.cpp:122] Setting up scale4d_branch2c
I0717 11:32:40.361821 14746 net.cpp:129] Top shape: 24 1024 14 14 (4816896)
I0717 11:32:40.361826 14746 net.cpp:137] Memory required for data: 4869881952
I0717 11:32:40.361831 14746 layer_factory.hpp:77] Creating layer res4d
I0717 11:32:40.361840 14746 net.cpp:84] Creating Layer res4d
I0717 11:32:40.361855 14746 net.cpp:406] res4d <- res4c_res4c_relu_0_split_1
I0717 11:32:40.361857 14746 net.cpp:406] res4d <- res4d_branch2c
I0717 11:32:40.361862 14746 net.cpp:380] res4d -> res4d
I0717 11:32:40.361886 14746 net.cpp:122] Setting up res4d
I0717 11:32:40.361891 14746 net.cpp:129] Top shape: 24 1024 14 14 (4816896)
I0717 11:32:40.361894 14746 net.cpp:137] Memory required for data: 4889149536
I0717 11:32:40.361897 14746 layer_factory.hpp:77] Creating layer res4d_relu
I0717 11:32:40.361902 14746 net.cpp:84] Creating Layer res4d_relu
I0717 11:32:40.361907 14746 net.cpp:406] res4d_relu <- res4d
I0717 11:32:40.361913 14746 net.cpp:367] res4d_relu -> res4d (in-place)
I0717 11:32:40.362252 14746 net.cpp:122] Setting up res4d_relu
I0717 11:32:40.362259 14746 net.cpp:129] Top shape: 24 1024 14 14 (4816896)
I0717 11:32:40.362263 14746 net.cpp:137] Memory required for data: 4908417120
I0717 11:32:40.362268 14746 layer_factory.hpp:77] Creating layer res4d_res4d_relu_0_split
I0717 11:32:40.362273 14746 net.cpp:84] Creating Layer res4d_res4d_relu_0_split
I0717 11:32:40.362277 14746 net.cpp:406] res4d_res4d_relu_0_split <- res4d
I0717 11:32:40.362283 14746 net.cpp:380] res4d_res4d_relu_0_split -> res4d_res4d_relu_0_split_0
I0717 11:32:40.362290 14746 net.cpp:380] res4d_res4d_relu_0_split -> res4d_res4d_relu_0_split_1
I0717 11:32:40.362330 14746 net.cpp:122] Setting up res4d_res4d_relu_0_split
I0717 11:32:40.362335 14746 net.cpp:129] Top shape: 24 1024 14 14 (4816896)
I0717 11:32:40.362339 14746 net.cpp:129] Top shape: 24 1024 14 14 (4816896)
I0717 11:32:40.362344 14746 net.cpp:137] Memory required for data: 4946952288
I0717 11:32:40.362345 14746 layer_factory.hpp:77] Creating layer res4e_branch2a
I0717 11:32:40.362352 14746 net.cpp:84] Creating Layer res4e_branch2a
I0717 11:32:40.362356 14746 net.cpp:406] res4e_branch2a <- res4d_res4d_relu_0_split_0
I0717 11:32:40.362375 14746 net.cpp:380] res4e_branch2a -> res4e_branch2a
I0717 11:32:40.367925 14746 net.cpp:122] Setting up res4e_branch2a
I0717 11:32:40.367964 14746 net.cpp:129] Top shape: 24 256 14 14 (1204224)
I0717 11:32:40.367969 14746 net.cpp:137] Memory required for data: 4951769184
I0717 11:32:40.368000 14746 layer_factory.hpp:77] Creating layer bn4e_branch2a
I0717 11:32:40.368017 14746 net.cpp:84] Creating Layer bn4e_branch2a
I0717 11:32:40.368026 14746 net.cpp:406] bn4e_branch2a <- res4e_branch2a
I0717 11:32:40.368042 14746 net.cpp:367] bn4e_branch2a -> res4e_branch2a (in-place)
I0717 11:32:40.368357 14746 net.cpp:122] Setting up bn4e_branch2a
I0717 11:32:40.368366 14746 net.cpp:129] Top shape: 24 256 14 14 (1204224)
I0717 11:32:40.368367 14746 net.cpp:137] Memory required for data: 4956586080
I0717 11:32:40.368388 14746 layer_factory.hpp:77] Creating layer scale4e_branch2a
I0717 11:32:40.368396 14746 net.cpp:84] Creating Layer scale4e_branch2a
I0717 11:32:40.368399 14746 net.cpp:406] scale4e_branch2a <- res4e_branch2a
I0717 11:32:40.368403 14746 net.cpp:367] scale4e_branch2a -> res4e_branch2a (in-place)
I0717 11:32:40.368500 14746 layer_factory.hpp:77] Creating layer scale4e_branch2a
I0717 11:32:40.368645 14746 net.cpp:122] Setting up scale4e_branch2a
I0717 11:32:40.368651 14746 net.cpp:129] Top shape: 24 256 14 14 (1204224)
I0717 11:32:40.368669 14746 net.cpp:137] Memory required for data: 4961402976
I0717 11:32:40.368671 14746 layer_factory.hpp:77] Creating layer res4e_branch2a_relu
I0717 11:32:40.368677 14746 net.cpp:84] Creating Layer res4e_branch2a_relu
I0717 11:32:40.368680 14746 net.cpp:406] res4e_branch2a_relu <- res4e_branch2a
I0717 11:32:40.368683 14746 net.cpp:367] res4e_branch2a_relu -> res4e_branch2a (in-place)
I0717 11:32:40.369094 14746 net.cpp:122] Setting up res4e_branch2a_relu
I0717 11:32:40.369122 14746 net.cpp:129] Top shape: 24 256 14 14 (1204224)
I0717 11:32:40.369124 14746 net.cpp:137] Memory required for data: 4966219872
I0717 11:32:40.369132 14746 layer_factory.hpp:77] Creating layer res4e_branch2b
I0717 11:32:40.369148 14746 net.cpp:84] Creating Layer res4e_branch2b
I0717 11:32:40.369153 14746 net.cpp:406] res4e_branch2b <- res4e_branch2a
I0717 11:32:40.369158 14746 net.cpp:380] res4e_branch2b -> res4e_branch2b
I0717 11:32:40.375630 14746 net.cpp:122] Setting up res4e_branch2b
I0717 11:32:40.375648 14746 net.cpp:129] Top shape: 24 256 14 14 (1204224)
I0717 11:32:40.375650 14746 net.cpp:137] Memory required for data: 4971036768
I0717 11:32:40.375656 14746 layer_factory.hpp:77] Creating layer bn4e_branch2b
I0717 11:32:40.375664 14746 net.cpp:84] Creating Layer bn4e_branch2b
I0717 11:32:40.375669 14746 net.cpp:406] bn4e_branch2b <- res4e_branch2b
I0717 11:32:40.375674 14746 net.cpp:367] bn4e_branch2b -> res4e_branch2b (in-place)
I0717 11:32:40.375872 14746 net.cpp:122] Setting up bn4e_branch2b
I0717 11:32:40.375877 14746 net.cpp:129] Top shape: 24 256 14 14 (1204224)
I0717 11:32:40.375880 14746 net.cpp:137] Memory required for data: 4975853664
I0717 11:32:40.375885 14746 layer_factory.hpp:77] Creating layer scale4e_branch2b
I0717 11:32:40.375890 14746 net.cpp:84] Creating Layer scale4e_branch2b
I0717 11:32:40.375891 14746 net.cpp:406] scale4e_branch2b <- res4e_branch2b
I0717 11:32:40.375895 14746 net.cpp:367] scale4e_branch2b -> res4e_branch2b (in-place)
I0717 11:32:40.375948 14746 layer_factory.hpp:77] Creating layer scale4e_branch2b
I0717 11:32:40.376080 14746 net.cpp:122] Setting up scale4e_branch2b
I0717 11:32:40.376085 14746 net.cpp:129] Top shape: 24 256 14 14 (1204224)
I0717 11:32:40.376087 14746 net.cpp:137] Memory required for data: 4980670560
I0717 11:32:40.376091 14746 layer_factory.hpp:77] Creating layer res4e_branch2b_relu
I0717 11:32:40.376096 14746 net.cpp:84] Creating Layer res4e_branch2b_relu
I0717 11:32:40.376097 14746 net.cpp:406] res4e_branch2b_relu <- res4e_branch2b
I0717 11:32:40.376102 14746 net.cpp:367] res4e_branch2b_relu -> res4e_branch2b (in-place)
I0717 11:32:40.376725 14746 net.cpp:122] Setting up res4e_branch2b_relu
I0717 11:32:40.376734 14746 net.cpp:129] Top shape: 24 256 14 14 (1204224)
I0717 11:32:40.376762 14746 net.cpp:137] Memory required for data: 4985487456
I0717 11:32:40.376767 14746 layer_factory.hpp:77] Creating layer res4e_branch2c
I0717 11:32:40.376776 14746 net.cpp:84] Creating Layer res4e_branch2c
I0717 11:32:40.376780 14746 net.cpp:406] res4e_branch2c <- res4e_branch2b
I0717 11:32:40.376785 14746 net.cpp:380] res4e_branch2c -> res4e_branch2c
I0717 11:32:40.379895 14746 net.cpp:122] Setting up res4e_branch2c
I0717 11:32:40.379905 14746 net.cpp:129] Top shape: 24 1024 14 14 (4816896)
I0717 11:32:40.379909 14746 net.cpp:137] Memory required for data: 5004755040
I0717 11:32:40.379912 14746 layer_factory.hpp:77] Creating layer bn4e_branch2c
I0717 11:32:40.379918 14746 net.cpp:84] Creating Layer bn4e_branch2c
I0717 11:32:40.379921 14746 net.cpp:406] bn4e_branch2c <- res4e_branch2c
I0717 11:32:40.379925 14746 net.cpp:367] bn4e_branch2c -> res4e_branch2c (in-place)
I0717 11:32:40.380123 14746 net.cpp:122] Setting up bn4e_branch2c
I0717 11:32:40.380129 14746 net.cpp:129] Top shape: 24 1024 14 14 (4816896)
I0717 11:32:40.380131 14746 net.cpp:137] Memory required for data: 5024022624
I0717 11:32:40.380136 14746 layer_factory.hpp:77] Creating layer scale4e_branch2c
I0717 11:32:40.380141 14746 net.cpp:84] Creating Layer scale4e_branch2c
I0717 11:32:40.380142 14746 net.cpp:406] scale4e_branch2c <- res4e_branch2c
I0717 11:32:40.380146 14746 net.cpp:367] scale4e_branch2c -> res4e_branch2c (in-place)
I0717 11:32:40.380206 14746 layer_factory.hpp:77] Creating layer scale4e_branch2c
I0717 11:32:40.380333 14746 net.cpp:122] Setting up scale4e_branch2c
I0717 11:32:40.380338 14746 net.cpp:129] Top shape: 24 1024 14 14 (4816896)
I0717 11:32:40.380340 14746 net.cpp:137] Memory required for data: 5043290208
I0717 11:32:40.380344 14746 layer_factory.hpp:77] Creating layer res4e
I0717 11:32:40.380348 14746 net.cpp:84] Creating Layer res4e
I0717 11:32:40.380350 14746 net.cpp:406] res4e <- res4d_res4d_relu_0_split_1
I0717 11:32:40.380353 14746 net.cpp:406] res4e <- res4e_branch2c
I0717 11:32:40.380357 14746 net.cpp:380] res4e -> res4e
I0717 11:32:40.380375 14746 net.cpp:122] Setting up res4e
I0717 11:32:40.380381 14746 net.cpp:129] Top shape: 24 1024 14 14 (4816896)
I0717 11:32:40.380399 14746 net.cpp:137] Memory required for data: 5062557792
I0717 11:32:40.380403 14746 layer_factory.hpp:77] Creating layer res4e_relu
I0717 11:32:40.380409 14746 net.cpp:84] Creating Layer res4e_relu
I0717 11:32:40.380414 14746 net.cpp:406] res4e_relu <- res4e
I0717 11:32:40.380419 14746 net.cpp:367] res4e_relu -> res4e (in-place)
I0717 11:32:40.380753 14746 net.cpp:122] Setting up res4e_relu
I0717 11:32:40.380761 14746 net.cpp:129] Top shape: 24 1024 14 14 (4816896)
I0717 11:32:40.380764 14746 net.cpp:137] Memory required for data: 5081825376
I0717 11:32:40.380765 14746 layer_factory.hpp:77] Creating layer res4e_res4e_relu_0_split
I0717 11:32:40.380769 14746 net.cpp:84] Creating Layer res4e_res4e_relu_0_split
I0717 11:32:40.380771 14746 net.cpp:406] res4e_res4e_relu_0_split <- res4e
I0717 11:32:40.380774 14746 net.cpp:380] res4e_res4e_relu_0_split -> res4e_res4e_relu_0_split_0
I0717 11:32:40.380779 14746 net.cpp:380] res4e_res4e_relu_0_split -> res4e_res4e_relu_0_split_1
I0717 11:32:40.380841 14746 net.cpp:122] Setting up res4e_res4e_relu_0_split
I0717 11:32:40.380846 14746 net.cpp:129] Top shape: 24 1024 14 14 (4816896)
I0717 11:32:40.380847 14746 net.cpp:129] Top shape: 24 1024 14 14 (4816896)
I0717 11:32:40.380849 14746 net.cpp:137] Memory required for data: 5120360544
I0717 11:32:40.380852 14746 layer_factory.hpp:77] Creating layer res4f_branch2a
I0717 11:32:40.380858 14746 net.cpp:84] Creating Layer res4f_branch2a
I0717 11:32:40.380861 14746 net.cpp:406] res4f_branch2a <- res4e_res4e_relu_0_split_0
I0717 11:32:40.380864 14746 net.cpp:380] res4f_branch2a -> res4f_branch2a
I0717 11:32:40.385774 14746 net.cpp:122] Setting up res4f_branch2a
I0717 11:32:40.385808 14746 net.cpp:129] Top shape: 24 256 14 14 (1204224)
I0717 11:32:40.385813 14746 net.cpp:137] Memory required for data: 5125177440
I0717 11:32:40.385818 14746 layer_factory.hpp:77] Creating layer bn4f_branch2a
I0717 11:32:40.385838 14746 net.cpp:84] Creating Layer bn4f_branch2a
I0717 11:32:40.385860 14746 net.cpp:406] bn4f_branch2a <- res4f_branch2a
I0717 11:32:40.385865 14746 net.cpp:367] bn4f_branch2a -> res4f_branch2a (in-place)
I0717 11:32:40.386049 14746 net.cpp:122] Setting up bn4f_branch2a
I0717 11:32:40.386055 14746 net.cpp:129] Top shape: 24 256 14 14 (1204224)
I0717 11:32:40.386057 14746 net.cpp:137] Memory required for data: 5129994336
I0717 11:32:40.386061 14746 layer_factory.hpp:77] Creating layer scale4f_branch2a
I0717 11:32:40.386066 14746 net.cpp:84] Creating Layer scale4f_branch2a
I0717 11:32:40.386070 14746 net.cpp:406] scale4f_branch2a <- res4f_branch2a
I0717 11:32:40.386071 14746 net.cpp:367] scale4f_branch2a -> res4f_branch2a (in-place)
I0717 11:32:40.386134 14746 layer_factory.hpp:77] Creating layer scale4f_branch2a
I0717 11:32:40.386279 14746 net.cpp:122] Setting up scale4f_branch2a
I0717 11:32:40.386286 14746 net.cpp:129] Top shape: 24 256 14 14 (1204224)
I0717 11:32:40.386301 14746 net.cpp:137] Memory required for data: 5134811232
I0717 11:32:40.386306 14746 layer_factory.hpp:77] Creating layer res4f_branch2a_relu
I0717 11:32:40.386308 14746 net.cpp:84] Creating Layer res4f_branch2a_relu
I0717 11:32:40.386312 14746 net.cpp:406] res4f_branch2a_relu <- res4f_branch2a
I0717 11:32:40.386315 14746 net.cpp:367] res4f_branch2a_relu -> res4f_branch2a (in-place)
I0717 11:32:40.386639 14746 net.cpp:122] Setting up res4f_branch2a_relu
I0717 11:32:40.386646 14746 net.cpp:129] Top shape: 24 256 14 14 (1204224)
I0717 11:32:40.386662 14746 net.cpp:137] Memory required for data: 5139628128
I0717 11:32:40.386665 14746 layer_factory.hpp:77] Creating layer res4f_branch2b
I0717 11:32:40.386674 14746 net.cpp:84] Creating Layer res4f_branch2b
I0717 11:32:40.386677 14746 net.cpp:406] res4f_branch2b <- res4f_branch2a
I0717 11:32:40.386683 14746 net.cpp:380] res4f_branch2b -> res4f_branch2b
I0717 11:32:40.392658 14746 net.cpp:122] Setting up res4f_branch2b
I0717 11:32:40.392670 14746 net.cpp:129] Top shape: 24 256 14 14 (1204224)
I0717 11:32:40.392673 14746 net.cpp:137] Memory required for data: 5144445024
I0717 11:32:40.392678 14746 layer_factory.hpp:77] Creating layer bn4f_branch2b
I0717 11:32:40.392683 14746 net.cpp:84] Creating Layer bn4f_branch2b
I0717 11:32:40.392685 14746 net.cpp:406] bn4f_branch2b <- res4f_branch2b
I0717 11:32:40.392690 14746 net.cpp:367] bn4f_branch2b -> res4f_branch2b (in-place)
I0717 11:32:40.392899 14746 net.cpp:122] Setting up bn4f_branch2b
I0717 11:32:40.392904 14746 net.cpp:129] Top shape: 24 256 14 14 (1204224)
I0717 11:32:40.392907 14746 net.cpp:137] Memory required for data: 5149261920
I0717 11:32:40.392911 14746 layer_factory.hpp:77] Creating layer scale4f_branch2b
I0717 11:32:40.392917 14746 net.cpp:84] Creating Layer scale4f_branch2b
I0717 11:32:40.392920 14746 net.cpp:406] scale4f_branch2b <- res4f_branch2b
I0717 11:32:40.392922 14746 net.cpp:367] scale4f_branch2b -> res4f_branch2b (in-place)
I0717 11:32:40.392987 14746 layer_factory.hpp:77] Creating layer scale4f_branch2b
I0717 11:32:40.393113 14746 net.cpp:122] Setting up scale4f_branch2b
I0717 11:32:40.393118 14746 net.cpp:129] Top shape: 24 256 14 14 (1204224)
I0717 11:32:40.393121 14746 net.cpp:137] Memory required for data: 5154078816
I0717 11:32:40.393123 14746 layer_factory.hpp:77] Creating layer res4f_branch2b_relu
I0717 11:32:40.393128 14746 net.cpp:84] Creating Layer res4f_branch2b_relu
I0717 11:32:40.393131 14746 net.cpp:406] res4f_branch2b_relu <- res4f_branch2b
I0717 11:32:40.393133 14746 net.cpp:367] res4f_branch2b_relu -> res4f_branch2b (in-place)
I0717 11:32:40.393498 14746 net.cpp:122] Setting up res4f_branch2b_relu
I0717 11:32:40.393507 14746 net.cpp:129] Top shape: 24 256 14 14 (1204224)
I0717 11:32:40.393508 14746 net.cpp:137] Memory required for data: 5158895712
I0717 11:32:40.393512 14746 layer_factory.hpp:77] Creating layer res4f_branch2c
I0717 11:32:40.393519 14746 net.cpp:84] Creating Layer res4f_branch2c
I0717 11:32:40.393524 14746 net.cpp:406] res4f_branch2c <- res4f_branch2b
I0717 11:32:40.393543 14746 net.cpp:380] res4f_branch2c -> res4f_branch2c
I0717 11:32:40.396674 14746 net.cpp:122] Setting up res4f_branch2c
I0717 11:32:40.396701 14746 net.cpp:129] Top shape: 24 1024 14 14 (4816896)
I0717 11:32:40.396706 14746 net.cpp:137] Memory required for data: 5178163296
I0717 11:32:40.396713 14746 layer_factory.hpp:77] Creating layer bn4f_branch2c
I0717 11:32:40.396718 14746 net.cpp:84] Creating Layer bn4f_branch2c
I0717 11:32:40.396723 14746 net.cpp:406] bn4f_branch2c <- res4f_branch2c
I0717 11:32:40.396733 14746 net.cpp:367] bn4f_branch2c -> res4f_branch2c (in-place)
I0717 11:32:40.397027 14746 net.cpp:122] Setting up bn4f_branch2c
I0717 11:32:40.397035 14746 net.cpp:129] Top shape: 24 1024 14 14 (4816896)
I0717 11:32:40.397053 14746 net.cpp:137] Memory required for data: 5197430880
I0717 11:32:40.397099 14746 layer_factory.hpp:77] Creating layer scale4f_branch2c
I0717 11:32:40.397121 14746 net.cpp:84] Creating Layer scale4f_branch2c
I0717 11:32:40.397125 14746 net.cpp:406] scale4f_branch2c <- res4f_branch2c
I0717 11:32:40.397128 14746 net.cpp:367] scale4f_branch2c -> res4f_branch2c (in-place)
I0717 11:32:40.397182 14746 layer_factory.hpp:77] Creating layer scale4f_branch2c
I0717 11:32:40.397320 14746 net.cpp:122] Setting up scale4f_branch2c
I0717 11:32:40.397325 14746 net.cpp:129] Top shape: 24 1024 14 14 (4816896)
I0717 11:32:40.397326 14746 net.cpp:137] Memory required for data: 5216698464
I0717 11:32:40.397343 14746 layer_factory.hpp:77] Creating layer res4f
I0717 11:32:40.397349 14746 net.cpp:84] Creating Layer res4f
I0717 11:32:40.397352 14746 net.cpp:406] res4f <- res4e_res4e_relu_0_split_1
I0717 11:32:40.397356 14746 net.cpp:406] res4f <- res4f_branch2c
I0717 11:32:40.397359 14746 net.cpp:380] res4f -> res4f
I0717 11:32:40.397392 14746 net.cpp:122] Setting up res4f
I0717 11:32:40.397397 14746 net.cpp:129] Top shape: 24 1024 14 14 (4816896)
I0717 11:32:40.397411 14746 net.cpp:137] Memory required for data: 5235966048
I0717 11:32:40.397414 14746 layer_factory.hpp:77] Creating layer res4f_relu
I0717 11:32:40.397418 14746 net.cpp:84] Creating Layer res4f_relu
I0717 11:32:40.397421 14746 net.cpp:406] res4f_relu <- res4f
I0717 11:32:40.397424 14746 net.cpp:367] res4f_relu -> res4f (in-place)
I0717 11:32:40.398326 14746 net.cpp:122] Setting up res4f_relu
I0717 11:32:40.398341 14746 net.cpp:129] Top shape: 24 1024 14 14 (4816896)
I0717 11:32:40.398344 14746 net.cpp:137] Memory required for data: 5255233632
I0717 11:32:40.398347 14746 layer_factory.hpp:77] Creating layer res4f_res4f_relu_0_split
I0717 11:32:40.398356 14746 net.cpp:84] Creating Layer res4f_res4f_relu_0_split
I0717 11:32:40.398360 14746 net.cpp:406] res4f_res4f_relu_0_split <- res4f
I0717 11:32:40.398365 14746 net.cpp:380] res4f_res4f_relu_0_split -> res4f_res4f_relu_0_split_0
I0717 11:32:40.398370 14746 net.cpp:380] res4f_res4f_relu_0_split -> res4f_res4f_relu_0_split_1
I0717 11:32:40.398422 14746 net.cpp:122] Setting up res4f_res4f_relu_0_split
I0717 11:32:40.398427 14746 net.cpp:129] Top shape: 24 1024 14 14 (4816896)
I0717 11:32:40.398429 14746 net.cpp:129] Top shape: 24 1024 14 14 (4816896)
I0717 11:32:40.398432 14746 net.cpp:137] Memory required for data: 5293768800
I0717 11:32:40.398434 14746 layer_factory.hpp:77] Creating layer res5a_branch1
I0717 11:32:40.398447 14746 net.cpp:84] Creating Layer res5a_branch1
I0717 11:32:40.398450 14746 net.cpp:406] res5a_branch1 <- res4f_res4f_relu_0_split_0
I0717 11:32:40.398455 14746 net.cpp:380] res5a_branch1 -> res5a_branch1
I0717 11:32:40.417057 14746 net.cpp:122] Setting up res5a_branch1
I0717 11:32:40.417076 14746 net.cpp:129] Top shape: 24 2048 7 7 (2408448)
I0717 11:32:40.417079 14746 net.cpp:137] Memory required for data: 5303402592
I0717 11:32:40.417086 14746 layer_factory.hpp:77] Creating layer bn5a_branch1
I0717 11:32:40.417093 14746 net.cpp:84] Creating Layer bn5a_branch1
I0717 11:32:40.417098 14746 net.cpp:406] bn5a_branch1 <- res5a_branch1
I0717 11:32:40.417104 14746 net.cpp:367] bn5a_branch1 -> res5a_branch1 (in-place)
I0717 11:32:40.417304 14746 net.cpp:122] Setting up bn5a_branch1
I0717 11:32:40.417320 14746 net.cpp:129] Top shape: 24 2048 7 7 (2408448)
I0717 11:32:40.417322 14746 net.cpp:137] Memory required for data: 5313036384
I0717 11:32:40.417327 14746 layer_factory.hpp:77] Creating layer scale5a_branch1
I0717 11:32:40.417332 14746 net.cpp:84] Creating Layer scale5a_branch1
I0717 11:32:40.417335 14746 net.cpp:406] scale5a_branch1 <- res5a_branch1
I0717 11:32:40.417338 14746 net.cpp:367] scale5a_branch1 -> res5a_branch1 (in-place)
I0717 11:32:40.417381 14746 layer_factory.hpp:77] Creating layer scale5a_branch1
I0717 11:32:40.417507 14746 net.cpp:122] Setting up scale5a_branch1
I0717 11:32:40.417515 14746 net.cpp:129] Top shape: 24 2048 7 7 (2408448)
I0717 11:32:40.417516 14746 net.cpp:137] Memory required for data: 5322670176
I0717 11:32:40.417522 14746 layer_factory.hpp:77] Creating layer res5a_branch2a
I0717 11:32:40.417532 14746 net.cpp:84] Creating Layer res5a_branch2a
I0717 11:32:40.417538 14746 net.cpp:406] res5a_branch2a <- res4f_res4f_relu_0_split_1
I0717 11:32:40.417544 14746 net.cpp:380] res5a_branch2a -> res5a_branch2a
I0717 11:32:40.422828 14746 net.cpp:122] Setting up res5a_branch2a
I0717 11:32:40.422839 14746 net.cpp:129] Top shape: 24 512 7 7 (602112)
I0717 11:32:40.422842 14746 net.cpp:137] Memory required for data: 5325078624
I0717 11:32:40.422847 14746 layer_factory.hpp:77] Creating layer bn5a_branch2a
I0717 11:32:40.422852 14746 net.cpp:84] Creating Layer bn5a_branch2a
I0717 11:32:40.422855 14746 net.cpp:406] bn5a_branch2a <- res5a_branch2a
I0717 11:32:40.422859 14746 net.cpp:367] bn5a_branch2a -> res5a_branch2a (in-place)
I0717 11:32:40.423048 14746 net.cpp:122] Setting up bn5a_branch2a
I0717 11:32:40.423055 14746 net.cpp:129] Top shape: 24 512 7 7 (602112)
I0717 11:32:40.423058 14746 net.cpp:137] Memory required for data: 5327487072
I0717 11:32:40.423063 14746 layer_factory.hpp:77] Creating layer scale5a_branch2a
I0717 11:32:40.423068 14746 net.cpp:84] Creating Layer scale5a_branch2a
I0717 11:32:40.423070 14746 net.cpp:406] scale5a_branch2a <- res5a_branch2a
I0717 11:32:40.423074 14746 net.cpp:367] scale5a_branch2a -> res5a_branch2a (in-place)
I0717 11:32:40.423111 14746 layer_factory.hpp:77] Creating layer scale5a_branch2a
I0717 11:32:40.423225 14746 net.cpp:122] Setting up scale5a_branch2a
I0717 11:32:40.423231 14746 net.cpp:129] Top shape: 24 512 7 7 (602112)
I0717 11:32:40.423233 14746 net.cpp:137] Memory required for data: 5329895520
I0717 11:32:40.423238 14746 layer_factory.hpp:77] Creating layer res5a_branch2a_relu
I0717 11:32:40.423243 14746 net.cpp:84] Creating Layer res5a_branch2a_relu
I0717 11:32:40.423245 14746 net.cpp:406] res5a_branch2a_relu <- res5a_branch2a
I0717 11:32:40.423249 14746 net.cpp:367] res5a_branch2a_relu -> res5a_branch2a (in-place)
I0717 11:32:40.423573 14746 net.cpp:122] Setting up res5a_branch2a_relu
I0717 11:32:40.423581 14746 net.cpp:129] Top shape: 24 512 7 7 (602112)
I0717 11:32:40.423583 14746 net.cpp:137] Memory required for data: 5332303968
I0717 11:32:40.423586 14746 layer_factory.hpp:77] Creating layer res5a_branch2b
I0717 11:32:40.423593 14746 net.cpp:84] Creating Layer res5a_branch2b
I0717 11:32:40.423595 14746 net.cpp:406] res5a_branch2b <- res5a_branch2a
I0717 11:32:40.423599 14746 net.cpp:380] res5a_branch2b -> res5a_branch2b
I0717 11:32:40.442402 14746 net.cpp:122] Setting up res5a_branch2b
I0717 11:32:40.442420 14746 net.cpp:129] Top shape: 24 512 7 7 (602112)
I0717 11:32:40.442423 14746 net.cpp:137] Memory required for data: 5334712416
I0717 11:32:40.442428 14746 layer_factory.hpp:77] Creating layer bn5a_branch2b
I0717 11:32:40.442435 14746 net.cpp:84] Creating Layer bn5a_branch2b
I0717 11:32:40.442438 14746 net.cpp:406] bn5a_branch2b <- res5a_branch2b
I0717 11:32:40.442445 14746 net.cpp:367] bn5a_branch2b -> res5a_branch2b (in-place)
I0717 11:32:40.442643 14746 net.cpp:122] Setting up bn5a_branch2b
I0717 11:32:40.442649 14746 net.cpp:129] Top shape: 24 512 7 7 (602112)
I0717 11:32:40.442652 14746 net.cpp:137] Memory required for data: 5337120864
I0717 11:32:40.442657 14746 layer_factory.hpp:77] Creating layer scale5a_branch2b
I0717 11:32:40.442672 14746 net.cpp:84] Creating Layer scale5a_branch2b
I0717 11:32:40.442674 14746 net.cpp:406] scale5a_branch2b <- res5a_branch2b
I0717 11:32:40.442678 14746 net.cpp:367] scale5a_branch2b -> res5a_branch2b (in-place)
I0717 11:32:40.442723 14746 layer_factory.hpp:77] Creating layer scale5a_branch2b
I0717 11:32:40.442839 14746 net.cpp:122] Setting up scale5a_branch2b
I0717 11:32:40.442845 14746 net.cpp:129] Top shape: 24 512 7 7 (602112)
I0717 11:32:40.442862 14746 net.cpp:137] Memory required for data: 5339529312
I0717 11:32:40.442867 14746 layer_factory.hpp:77] Creating layer res5a_branch2b_relu
I0717 11:32:40.442873 14746 net.cpp:84] Creating Layer res5a_branch2b_relu
I0717 11:32:40.442876 14746 net.cpp:406] res5a_branch2b_relu <- res5a_branch2b
I0717 11:32:40.442881 14746 net.cpp:367] res5a_branch2b_relu -> res5a_branch2b (in-place)
I0717 11:32:40.443233 14746 net.cpp:122] Setting up res5a_branch2b_relu
I0717 11:32:40.443239 14746 net.cpp:129] Top shape: 24 512 7 7 (602112)
I0717 11:32:40.443258 14746 net.cpp:137] Memory required for data: 5341937760
I0717 11:32:40.443260 14746 layer_factory.hpp:77] Creating layer res5a_branch2c
I0717 11:32:40.443269 14746 net.cpp:84] Creating Layer res5a_branch2c
I0717 11:32:40.443274 14746 net.cpp:406] res5a_branch2c <- res5a_branch2b
I0717 11:32:40.443281 14746 net.cpp:380] res5a_branch2c -> res5a_branch2c
I0717 11:32:40.452935 14746 net.cpp:122] Setting up res5a_branch2c
I0717 11:32:40.452951 14746 net.cpp:129] Top shape: 24 2048 7 7 (2408448)
I0717 11:32:40.452955 14746 net.cpp:137] Memory required for data: 5351571552
I0717 11:32:40.452960 14746 layer_factory.hpp:77] Creating layer bn5a_branch2c
I0717 11:32:40.452966 14746 net.cpp:84] Creating Layer bn5a_branch2c
I0717 11:32:40.452970 14746 net.cpp:406] bn5a_branch2c <- res5a_branch2c
I0717 11:32:40.452982 14746 net.cpp:367] bn5a_branch2c -> res5a_branch2c (in-place)
I0717 11:32:40.453184 14746 net.cpp:122] Setting up bn5a_branch2c
I0717 11:32:40.453191 14746 net.cpp:129] Top shape: 24 2048 7 7 (2408448)
I0717 11:32:40.453193 14746 net.cpp:137] Memory required for data: 5361205344
I0717 11:32:40.453198 14746 layer_factory.hpp:77] Creating layer scale5a_branch2c
I0717 11:32:40.453203 14746 net.cpp:84] Creating Layer scale5a_branch2c
I0717 11:32:40.453207 14746 net.cpp:406] scale5a_branch2c <- res5a_branch2c
I0717 11:32:40.453209 14746 net.cpp:367] scale5a_branch2c -> res5a_branch2c (in-place)
I0717 11:32:40.453249 14746 layer_factory.hpp:77] Creating layer scale5a_branch2c
I0717 11:32:40.453372 14746 net.cpp:122] Setting up scale5a_branch2c
I0717 11:32:40.453378 14746 net.cpp:129] Top shape: 24 2048 7 7 (2408448)
I0717 11:32:40.453382 14746 net.cpp:137] Memory required for data: 5370839136
I0717 11:32:40.453384 14746 layer_factory.hpp:77] Creating layer res5a
I0717 11:32:40.453388 14746 net.cpp:84] Creating Layer res5a
I0717 11:32:40.453392 14746 net.cpp:406] res5a <- res5a_branch1
I0717 11:32:40.453394 14746 net.cpp:406] res5a <- res5a_branch2c
I0717 11:32:40.453397 14746 net.cpp:380] res5a -> res5a
I0717 11:32:40.453420 14746 net.cpp:122] Setting up res5a
I0717 11:32:40.453428 14746 net.cpp:129] Top shape: 24 2048 7 7 (2408448)
I0717 11:32:40.453431 14746 net.cpp:137] Memory required for data: 5380472928
I0717 11:32:40.453434 14746 layer_factory.hpp:77] Creating layer res5a_relu
I0717 11:32:40.453440 14746 net.cpp:84] Creating Layer res5a_relu
I0717 11:32:40.453444 14746 net.cpp:406] res5a_relu <- res5a
…
I0717 11:32:40.723268 14746 net.cpp:380] res4c_res4c_relu_0_split -> res4c_res4c_relu_0_split_1
I0717 11:32:40.723328 14746 net.cpp:122] Setting up res4c_res4c_relu_0_split
I0717 11:32:40.723333 14746 net.cpp:129] Top shape: 1 1024 14 14 (200704)
I0717 11:32:40.723336 14746 net.cpp:129] Top shape: 1 1024 14 14 (200704)
I0717 11:32:40.723337 14746 net.cpp:137] Memory required for data: 198897676
I0717 11:32:40.723340 14746 layer_factory.hpp:77] Creating layer res4d_branch2a
I0717 11:32:40.723347 14746 net.cpp:84] Creating Layer res4d_branch2a
I0717 11:32:40.723351 14746 net.cpp:406] res4d_branch2a <- res4c_res4c_relu_0_split_0
I0717 11:32:40.723353 14746 net.cpp:380] res4d_branch2a -> res4d_branch2a
I0717 11:32:40.728281 14746 net.cpp:122] Setting up res4d_branch2a
I0717 11:32:40.728299 14746 net.cpp:129] Top shape: 1 256 14 14 (50176)
I0717 11:32:40.728302 14746 net.cpp:137] Memory required for data: 199098380
I0717 11:32:40.728308 14746 layer_factory.hpp:77] Creating layer bn4d_branch2a
I0717 11:32:40.728317 14746 net.cpp:84] Creating Layer bn4d_branch2a
I0717 11:32:40.728322 14746 net.cpp:406] bn4d_branch2a <- res4d_branch2a
I0717 11:32:40.728327 14746 net.cpp:367] bn4d_branch2a -> res4d_branch2a (in-place)
I0717 11:32:40.728555 14746 net.cpp:122] Setting up bn4d_branch2a
I0717 11:32:40.728562 14746 net.cpp:129] Top shape: 1 256 14 14 (50176)
I0717 11:32:40.728564 14746 net.cpp:137] Memory required for data: 199299084
I0717 11:32:40.728569 14746 layer_factory.hpp:77] Creating layer scale4d_branch2a
I0717 11:32:40.728575 14746 net.cpp:84] Creating Layer scale4d_branch2a
I0717 11:32:40.728580 14746 net.cpp:406] scale4d_branch2a <- res4d_branch2a
I0717 11:32:40.728585 14746 net.cpp:367] scale4d_branch2a -> res4d_branch2a (in-place)
I0717 11:32:40.728641 14746 layer_factory.hpp:77] Creating layer scale4d_branch2a
I0717 11:32:40.728777 14746 net.cpp:122] Setting up scale4d_branch2a
I0717 11:32:40.728785 14746 net.cpp:129] Top shape: 1 256 14 14 (50176)
I0717 11:32:40.728787 14746 net.cpp:137] Memory required for data: 199499788
I0717 11:32:40.728791 14746 layer_factory.hpp:77] Creating layer res4d_branch2a_relu
I0717 11:32:40.728797 14746 net.cpp:84] Creating Layer res4d_branch2a_relu
I0717 11:32:40.728802 14746 net.cpp:406] res4d_branch2a_relu <- res4d_branch2a
I0717 11:32:40.728808 14746 net.cpp:367] res4d_branch2a_relu -> res4d_branch2a (in-place)
I0717 11:32:40.729728 14746 net.cpp:122] Setting up res4d_branch2a_relu
I0717 11:32:40.729740 14746 net.cpp:129] Top shape: 1 256 14 14 (50176)
I0717 11:32:40.729743 14746 net.cpp:137] Memory required for data: 199700492
I0717 11:32:40.729746 14746 layer_factory.hpp:77] Creating layer res4d_branch2b
I0717 11:32:40.729755 14746 net.cpp:84] Creating Layer res4d_branch2b
I0717 11:32:40.729759 14746 net.cpp:406] res4d_branch2b <- res4d_branch2a
I0717 11:32:40.729768 14746 net.cpp:380] res4d_branch2b -> res4d_branch2b
I0717 11:32:40.737632 14746 net.cpp:122] Setting up res4d_branch2b
I0717 11:32:40.737645 14746 net.cpp:129] Top shape: 1 256 14 14 (50176)
I0717 11:32:40.737648 14746 net.cpp:137] Memory required for data: 199901196
I0717 11:32:40.737653 14746 layer_factory.hpp:77] Creating layer bn4d_branch2b
I0717 11:32:40.737658 14746 net.cpp:84] Creating Layer bn4d_branch2b
I0717 11:32:40.737661 14746 net.cpp:406] bn4d_branch2b <- res4d_branch2b
I0717 11:32:40.737666 14746 net.cpp:367] bn4d_branch2b -> res4d_branch2b (in-place)
I0717 11:32:40.737943 14746 net.cpp:122] Setting up bn4d_branch2b
I0717 11:32:40.737951 14746 net.cpp:129] Top shape: 1 256 14 14 (50176)
I0717 11:32:40.737952 14746 net.cpp:137] Memory required for data: 200101900
I0717 11:32:40.737957 14746 layer_factory.hpp:77] Creating layer scale4d_branch2b
I0717 11:32:40.737962 14746 net.cpp:84] Creating Layer scale4d_branch2b
I0717 11:32:40.737965 14746 net.cpp:406] scale4d_branch2b <- res4d_branch2b
I0717 11:32:40.737968 14746 net.cpp:367] scale4d_branch2b -> res4d_branch2b (in-place)
I0717 11:32:40.738044 14746 layer_factory.hpp:77] Creating layer scale4d_branch2b
I0717 11:32:40.738204 14746 net.cpp:122] Setting up scale4d_branch2b
I0717 11:32:40.738209 14746 net.cpp:129] Top shape: 1 256 14 14 (50176)
I0717 11:32:40.738221 14746 net.cpp:137] Memory required for data: 200302604
I0717 11:32:40.738225 14746 layer_factory.hpp:77] Creating layer res4d_branch2b_relu
I0717 11:32:40.738231 14746 net.cpp:84] Creating Layer res4d_branch2b_relu
I0717 11:32:40.738234 14746 net.cpp:406] res4d_branch2b_relu <- res4d_branch2b
I0717 11:32:40.738236 14746 net.cpp:367] res4d_branch2b_relu -> res4d_branch2b (in-place)
I0717 11:32:40.738612 14746 net.cpp:122] Setting up res4d_branch2b_relu
I0717 11:32:40.738620 14746 net.cpp:129] Top shape: 1 256 14 14 (50176)
I0717 11:32:40.738623 14746 net.cpp:137] Memory required for data: 200503308
I0717 11:32:40.738626 14746 layer_factory.hpp:77] Creating layer res4d_branch2c
I0717 11:32:40.738631 14746 net.cpp:84] Creating Layer res4d_branch2c
I0717 11:32:40.738633 14746 net.cpp:406] res4d_branch2c <- res4d_branch2b
I0717 11:32:40.738637 14746 net.cpp:380] res4d_branch2c -> res4d_branch2c
I0717 11:32:40.743228 14746 net.cpp:122] Setting up res4d_branch2c
I0717 11:32:40.743238 14746 net.cpp:129] Top shape: 1 1024 14 14 (200704)
I0717 11:32:40.743242 14746 net.cpp:137] Memory required for data: 201306124
I0717 11:32:40.743247 14746 layer_factory.hpp:77] Creating layer bn4d_branch2c
I0717 11:32:40.743252 14746 net.cpp:84] Creating Layer bn4d_branch2c
I0717 11:32:40.743255 14746 net.cpp:406] bn4d_branch2c <- res4d_branch2c
I0717 11:32:40.743258 14746 net.cpp:367] bn4d_branch2c -> res4d_branch2c (in-place)
I0717 11:32:40.743520 14746 net.cpp:122] Setting up bn4d_branch2c
I0717 11:32:40.743525 14746 net.cpp:129] Top shape: 1 1024 14 14 (200704)
I0717 11:32:40.743528 14746 net.cpp:137] Memory required for data: 202108940
I0717 11:32:40.743533 14746 layer_factory.hpp:77] Creating layer scale4d_branch2c
I0717 11:32:40.743537 14746 net.cpp:84] Creating Layer scale4d_branch2c
I0717 11:32:40.743541 14746 net.cpp:406] scale4d_branch2c <- res4d_branch2c
I0717 11:32:40.743543 14746 net.cpp:367] scale4d_branch2c -> res4d_branch2c (in-place)
I0717 11:32:40.743613 14746 layer_factory.hpp:77] Creating layer scale4d_branch2c
I0717 11:32:40.743809 14746 net.cpp:122] Setting up scale4d_branch2c
I0717 11:32:40.743819 14746 net.cpp:129] Top shape: 1 1024 14 14 (200704)
I0717 11:32:40.743822 14746 net.cpp:137] Memory required for data: 202911756
I0717 11:32:40.743829 14746 layer_factory.hpp:77] Creating layer res4d
I0717 11:32:40.743837 14746 net.cpp:84] Creating Layer res4d
I0717 11:32:40.743842 14746 net.cpp:406] res4d <- res4c_res4c_relu_0_split_1
I0717 11:32:40.743847 14746 net.cpp:406] res4d <- res4d_branch2c
I0717 11:32:40.743870 14746 net.cpp:380] res4d -> res4d
I0717 11:32:40.743953 14746 net.cpp:122] Setting up res4d
I0717 11:32:40.743991 14746 net.cpp:129] Top shape: 1 1024 14 14 (200704)
I0717 11:32:40.743995 14746 net.cpp:137] Memory required for data: 203714572
I0717 11:32:40.744000 14746 layer_factory.hpp:77] Creating layer res4d_relu
I0717 11:32:40.744022 14746 net.cpp:84] Creating Layer res4d_relu
I0717 11:32:40.744026 14746 net.cpp:406] res4d_relu <- res4d
I0717 11:32:40.744032 14746 net.cpp:367] res4d_relu -> res4d (in-place)
I0717 11:32:40.744614 14746 net.cpp:122] Setting up res4d_relu
I0717 11:32:40.744626 14746 net.cpp:129] Top shape: 1 1024 14 14 (200704)
I0717 11:32:40.744649 14746 net.cpp:137] Memory required for data: 204517388
I0717 11:32:40.744659 14746 layer_factory.hpp:77] Creating layer res4d_res4d_relu_0_split
I0717 11:32:40.744673 14746 net.cpp:84] Creating Layer res4d_res4d_relu_0_split
I0717 11:32:40.744678 14746 net.cpp:406] res4d_res4d_relu_0_split <- res4d
I0717 11:32:40.744686 14746 net.cpp:380] res4d_res4d_relu_0_split -> res4d_res4d_relu_0_split_0
I0717 11:32:40.744694 14746 net.cpp:380] res4d_res4d_relu_0_split -> res4d_res4d_relu_0_split_1
I0717 11:32:40.744776 14746 net.cpp:122] Setting up res4d_res4d_relu_0_split
I0717 11:32:40.744782 14746 net.cpp:129] Top shape: 1 1024 14 14 (200704)
I0717 11:32:40.744788 14746 net.cpp:129] Top shape: 1 1024 14 14 (200704)
I0717 11:32:40.744794 14746 net.cpp:137] Memory required for data: 206123020
I0717 11:32:40.744798 14746 layer_factory.hpp:77] Creating layer res4e_branch2a
I0717 11:32:40.744830 14746 net.cpp:84] Creating Layer res4e_branch2a
I0717 11:32:40.744837 14746 net.cpp:406] res4e_branch2a <- res4d_res4d_relu_0_split_0
I0717 11:32:40.744843 14746 net.cpp:380] res4e_branch2a -> res4e_branch2a
I0717 11:32:40.749414 14746 net.cpp:122] Setting up res4e_branch2a
I0717 11:32:40.749433 14746 net.cpp:129] Top shape: 1 256 14 14 (50176)
I0717 11:32:40.749436 14746 net.cpp:137] Memory required for data: 206323724
I0717 11:32:40.749444 14746 layer_factory.hpp:77] Creating layer bn4e_branch2a
I0717 11:32:40.749451 14746 net.cpp:84] Creating Layer bn4e_branch2a
I0717 11:32:40.749455 14746 net.cpp:406] bn4e_branch2a <- res4e_branch2a
I0717 11:32:40.749464 14746 net.cpp:367] bn4e_branch2a -> res4e_branch2a (in-place)
I0717 11:32:40.749691 14746 net.cpp:122] Setting up bn4e_branch2a
I0717 11:32:40.749696 14746 net.cpp:129] Top shape: 1 256 14 14 (50176)
I0717 11:32:40.749698 14746 net.cpp:137] Memory required for data: 206524428
I0717 11:32:40.749702 14746 layer_factory.hpp:77] Creating layer scale4e_branch2a
I0717 11:32:40.749707 14746 net.cpp:84] Creating Layer scale4e_branch2a
I0717 11:32:40.749711 14746 net.cpp:406] scale4e_branch2a <- res4e_branch2a
I0717 11:32:40.749714 14746 net.cpp:367] scale4e_branch2a -> res4e_branch2a (in-place)
I0717 11:32:40.749753 14746 layer_factory.hpp:77] Creating layer scale4e_branch2a
I0717 11:32:40.749886 14746 net.cpp:122] Setting up scale4e_branch2a
I0717 11:32:40.749891 14746 net.cpp:129] Top shape: 1 256 14 14 (50176)
I0717 11:32:40.749894 14746 net.cpp:137] Memory required for data: 206725132
I0717 11:32:40.749910 14746 layer_factory.hpp:77] Creating layer res4e_branch2a_relu
I0717 11:32:40.749914 14746 net.cpp:84] Creating Layer res4e_branch2a_relu
I0717 11:32:40.749917 14746 net.cpp:406] res4e_branch2a_relu <- res4e_branch2a
I0717 11:32:40.749934 14746 net.cpp:367] res4e_branch2a_relu -> res4e_branch2a (in-place)
I0717 11:32:40.750653 14746 net.cpp:122] Setting up res4e_branch2a_relu
I0717 11:32:40.750676 14746 net.cpp:129] Top shape: 1 256 14 14 (50176)
I0717 11:32:40.750679 14746 net.cpp:137] Memory required for data: 206925836
I0717 11:32:40.750682 14746 layer_factory.hpp:77] Creating layer res4e_branch2b
I0717 11:32:40.750689 14746 net.cpp:84] Creating Layer res4e_branch2b
I0717 11:32:40.750691 14746 net.cpp:406] res4e_branch2b <- res4e_branch2a
I0717 11:32:40.750695 14746 net.cpp:380] res4e_branch2b -> res4e_branch2b
I0717 11:32:40.760617 14746 net.cpp:122] Setting up res4e_branch2b
I0717 11:32:40.760663 14746 net.cpp:129] Top shape: 1 256 14 14 (50176)
I0717 11:32:40.760666 14746 net.cpp:137] Memory required for data: 207126540
I0717 11:32:40.760681 14746 layer_factory.hpp:77] Creating layer bn4e_branch2b
I0717 11:32:40.760700 14746 net.cpp:84] Creating Layer bn4e_branch2b
I0717 11:32:40.760709 14746 net.cpp:406] bn4e_branch2b <- res4e_branch2b
I0717 11:32:40.760716 14746 net.cpp:367] bn4e_branch2b -> res4e_branch2b (in-place)
I0717 11:32:40.761091 14746 net.cpp:122] Setting up bn4e_branch2b
I0717 11:32:40.761101 14746 net.cpp:129] Top shape: 1 256 14 14 (50176)
I0717 11:32:40.761116 14746 net.cpp:137] Memory required for data: 207327244
I0717 11:32:40.761123 14746 layer_factory.hpp:77] Creating layer scale4e_branch2b
I0717 11:32:40.761134 14746 net.cpp:84] Creating Layer scale4e_branch2b
I0717 11:32:40.761139 14746 net.cpp:406] scale4e_branch2b <- res4e_branch2b
I0717 11:32:40.761144 14746 net.cpp:367] scale4e_branch2b -> res4e_branch2b (in-place)
I0717 11:32:40.761211 14746 layer_factory.hpp:77] Creating layer scale4e_branch2b
I0717 11:32:40.761433 14746 net.cpp:122] Setting up scale4e_branch2b
I0717 11:32:40.761442 14746 net.cpp:129] Top shape: 1 256 14 14 (50176)
I0717 11:32:40.761445 14746 net.cpp:137] Memory required for data: 207527948
I0717 11:32:40.761452 14746 layer_factory.hpp:77] Creating layer res4e_branch2b_relu
I0717 11:32:40.761459 14746 net.cpp:84] Creating Layer res4e_branch2b_relu
I0717 11:32:40.761463 14746 net.cpp:406] res4e_branch2b_relu <- res4e_branch2b
I0717 11:32:40.761485 14746 net.cpp:367] res4e_branch2b_relu -> res4e_branch2b (in-place)
I0717 11:32:40.761951 14746 net.cpp:122] Setting up res4e_branch2b_relu
I0717 11:32:40.761966 14746 net.cpp:129] Top shape: 1 256 14 14 (50176)
I0717 11:32:40.761968 14746 net.cpp:137] Memory required for data: 207728652
I0717 11:32:40.761971 14746 layer_factory.hpp:77] Creating layer res4e_branch2c
I0717 11:32:40.761982 14746 net.cpp:84] Creating Layer res4e_branch2c
I0717 11:32:40.761987 14746 net.cpp:406] res4e_branch2c <- res4e_branch2b
I0717 11:32:40.761993 14746 net.cpp:380] res4e_branch2c -> res4e_branch2c
I0717 11:32:40.766886 14746 net.cpp:122] Setting up res4e_branch2c
I0717 11:32:40.766902 14746 net.cpp:129] Top shape: 1 1024 14 14 (200704)
I0717 11:32:40.766906 14746 net.cpp:137] Memory required for data: 208531468
I0717 11:32:40.766911 14746 layer_factory.hpp:77] Creating layer bn4e_branch2c
I0717 11:32:40.766916 14746 net.cpp:84] Creating Layer bn4e_branch2c
I0717 11:32:40.766921 14746 net.cpp:406] bn4e_branch2c <- res4e_branch2c
I0717 11:32:40.766927 14746 net.cpp:367] bn4e_branch2c -> res4e_branch2c (in-place)
I0717 11:32:40.767180 14746 net.cpp:122] Setting up bn4e_branch2c
I0717 11:32:40.767185 14746 net.cpp:129] Top shape: 1 1024 14 14 (200704)
I0717 11:32:40.767189 14746 net.cpp:137] Memory required for data: 209334284
I0717 11:32:40.767192 14746 layer_factory.hpp:77] Creating layer scale4e_branch2c
I0717 11:32:40.767199 14746 net.cpp:84] Creating Layer scale4e_branch2c
I0717 11:32:40.767200 14746 net.cpp:406] scale4e_branch2c <- res4e_branch2c
I0717 11:32:40.767204 14746 net.cpp:367] scale4e_branch2c -> res4e_branch2c (in-place)
I0717 11:32:40.767268 14746 layer_factory.hpp:77] Creating layer scale4e_branch2c
I0717 11:32:40.767417 14746 net.cpp:122] Setting up scale4e_branch2c
I0717 11:32:40.767422 14746 net.cpp:129] Top shape: 1 1024 14 14 (200704)
I0717 11:32:40.767424 14746 net.cpp:137] Memory required for data: 210137100
I0717 11:32:40.767444 14746 layer_factory.hpp:77] Creating layer res4e
I0717 11:32:40.767451 14746 net.cpp:84] Creating Layer res4e
I0717 11:32:40.767453 14746 net.cpp:406] res4e <- res4d_res4d_relu_0_split_1
I0717 11:32:40.767457 14746 net.cpp:406] res4e <- res4e_branch2c
I0717 11:32:40.767472 14746 net.cpp:380] res4e -> res4e
I0717 11:32:40.767534 14746 net.cpp:122] Setting up res4e
I0717 11:32:40.767540 14746 net.cpp:129] Top shape: 1 1024 14 14 (200704)
I0717 11:32:40.767542 14746 net.cpp:137] Memory required for data: 210939916
I0717 11:32:40.767544 14746 layer_factory.hpp:77] Creating layer res4e_relu
I0717 11:32:40.767549 14746 net.cpp:84] Creating Layer res4e_relu
I0717 11:32:40.767550 14746 net.cpp:406] res4e_relu <- res4e
I0717 11:32:40.767554 14746 net.cpp:367] res4e_relu -> res4e (in-place)
I0717 11:32:40.767907 14746 net.cpp:122] Setting up res4e_relu
I0717 11:32:40.767913 14746 net.cpp:129] Top shape: 1 1024 14 14 (200704)
I0717 11:32:40.767915 14746 net.cpp:137] Memory required for data: 211742732
I0717 11:32:40.767918 14746 layer_factory.hpp:77] Creating layer res4e_res4e_relu_0_split
I0717 11:32:40.767923 14746 net.cpp:84] Creating Layer res4e_res4e_relu_0_split
I0717 11:32:40.767925 14746 net.cpp:406] res4e_res4e_relu_0_split <- res4e
I0717 11:32:40.767928 14746 net.cpp:380] res4e_res4e_relu_0_split -> res4e_res4e_relu_0_split_0
I0717 11:32:40.767932 14746 net.cpp:380] res4e_res4e_relu_0_split -> res4e_res4e_relu_0_split_1
I0717 11:32:40.768004 14746 net.cpp:122] Setting up res4e_res4e_relu_0_split
I0717 11:32:40.768008 14746 net.cpp:129] Top shape: 1 1024 14 14 (200704)
I0717 11:32:40.768012 14746 net.cpp:129] Top shape: 1 1024 14 14 (200704)
I0717 11:32:40.768013 14746 net.cpp:137] Memory required for data: 213348364
I0717 11:32:40.768015 14746 layer_factory.hpp:77] Creating layer res4f_branch2a
I0717 11:32:40.768021 14746 net.cpp:84] Creating Layer res4f_branch2a
I0717 11:32:40.768023 14746 net.cpp:406] res4f_branch2a <- res4e_res4e_relu_0_split_0
I0717 11:32:40.768028 14746 net.cpp:380] res4f_branch2a -> res4f_branch2a
I0717 11:32:40.771885 14746 net.cpp:122] Setting up res4f_branch2a
I0717 11:32:40.771903 14746 net.cpp:129] Top shape: 1 256 14 14 (50176)
I0717 11:32:40.771905 14746 net.cpp:137] Memory required for data: 213549068
I0717 11:32:40.771909 14746 layer_factory.hpp:77] Creating layer bn4f_branch2a
I0717 11:32:40.771915 14746 net.cpp:84] Creating Layer bn4f_branch2a
I0717 11:32:40.771919 14746 net.cpp:406] bn4f_branch2a <- res4f_branch2a
I0717 11:32:40.771922 14746 net.cpp:367] bn4f_branch2a -> res4f_branch2a (in-place)
I0717 11:32:40.772166 14746 net.cpp:122] Setting up bn4f_branch2a
I0717 11:32:40.772172 14746 net.cpp:129] Top shape: 1 256 14 14 (50176)
I0717 11:32:40.772174 14746 net.cpp:137] Memory required for data: 213749772
I0717 11:32:40.772178 14746 layer_factory.hpp:77] Creating layer scale4f_branch2a
I0717 11:32:40.772183 14746 net.cpp:84] Creating Layer scale4f_branch2a
I0717 11:32:40.772186 14746 net.cpp:406] scale4f_branch2a <- res4f_branch2a
I0717 11:32:40.772188 14746 net.cpp:367] scale4f_branch2a -> res4f_branch2a (in-place)
I0717 11:32:40.772240 14746 layer_factory.hpp:77] Creating layer scale4f_branch2a
I0717 11:32:40.772402 14746 net.cpp:122] Setting up scale4f_branch2a
I0717 11:32:40.772406 14746 net.cpp:129] Top shape: 1 256 14 14 (50176)
I0717 11:32:40.772408 14746 net.cpp:137] Memory required for data: 213950476
I0717 11:32:40.772411 14746 layer_factory.hpp:77] Creating layer res4f_branch2a_relu
I0717 11:32:40.772415 14746 net.cpp:84] Creating Layer res4f_branch2a_relu
I0717 11:32:40.772418 14746 net.cpp:406] res4f_branch2a_relu <- res4f_branch2a
I0717 11:32:40.772423 14746 net.cpp:367] res4f_branch2a_relu -> res4f_branch2a (in-place)
I0717 11:32:40.772783 14746 net.cpp:122] Setting up res4f_branch2a_relu
I0717 11:32:40.772789 14746 net.cpp:129] Top shape: 1 256 14 14 (50176)
I0717 11:32:40.772792 14746 net.cpp:137] Memory required for data: 214151180
I0717 11:32:40.772794 14746 layer_factory.hpp:77] Creating layer res4f_branch2b
I0717 11:32:40.772799 14746 net.cpp:84] Creating Layer res4f_branch2b
I0717 11:32:40.772802 14746 net.cpp:406] res4f_branch2b <- res4f_branch2a
I0717 11:32:40.772807 14746 net.cpp:380] res4f_branch2b -> res4f_branch2b
I0717 11:32:40.781679 14746 net.cpp:122] Setting up res4f_branch2b
I0717 11:32:40.781697 14746 net.cpp:129] Top shape: 1 256 14 14 (50176)
I0717 11:32:40.781698 14746 net.cpp:137] Memory required for data: 214351884
I0717 11:32:40.781704 14746 layer_factory.hpp:77] Creating layer bn4f_branch2b
I0717 11:32:40.781711 14746 net.cpp:84] Creating Layer bn4f_branch2b
I0717 11:32:40.781714 14746 net.cpp:406] bn4f_branch2b <- res4f_branch2b
I0717 11:32:40.781719 14746 net.cpp:367] bn4f_branch2b -> res4f_branch2b (in-place)
I0717 11:32:40.781988 14746 net.cpp:122] Setting up bn4f_branch2b
I0717 11:32:40.781993 14746 net.cpp:129] Top shape: 1 256 14 14 (50176)
I0717 11:32:40.781996 14746 net.cpp:137] Memory required for data: 214552588
I0717 11:32:40.782001 14746 layer_factory.hpp:77] Creating layer scale4f_branch2b
I0717 11:32:40.782006 14746 net.cpp:84] Creating Layer scale4f_branch2b
I0717 11:32:40.782007 14746 net.cpp:406] scale4f_branch2b <- res4f_branch2b
I0717 11:32:40.782011 14746 net.cpp:367] scale4f_branch2b -> res4f_branch2b (in-place)
I0717 11:32:40.782078 14746 layer_factory.hpp:77] Creating layer scale4f_branch2b
I0717 11:32:40.782236 14746 net.cpp:122] Setting up scale4f_branch2b
I0717 11:32:40.782243 14746 net.cpp:129] Top shape: 1 256 14 14 (50176)
I0717 11:32:40.782245 14746 net.cpp:137] Memory required for data: 214753292
I0717 11:32:40.782248 14746 layer_factory.hpp:77] Creating layer res4f_branch2b_relu
I0717 11:32:40.782253 14746 net.cpp:84] Creating Layer res4f_branch2b_relu
I0717 11:32:40.782255 14746 net.cpp:406] res4f_branch2b_relu <- res4f_branch2b
I0717 11:32:40.782258 14746 net.cpp:367] res4f_branch2b_relu -> res4f_branch2b (in-place)
I0717 11:32:40.782955 14746 net.cpp:122] Setting up res4f_branch2b_relu
I0717 11:32:40.782964 14746 net.cpp:129] Top shape: 1 256 14 14 (50176)
I0717 11:32:40.782966 14746 net.cpp:137] Memory required for data: 214953996
I0717 11:32:40.782968 14746 layer_factory.hpp:77] Creating layer res4f_branch2c
I0717 11:32:40.782987 14746 net.cpp:84] Creating Layer res4f_branch2c
I0717 11:32:40.782991 14746 net.cpp:406] res4f_branch2c <- res4f_branch2b
I0717 11:32:40.782995 14746 net.cpp:380] res4f_branch2c -> res4f_branch2c
I0717 11:32:40.789463 14746 net.cpp:122] Setting up res4f_branch2c
I0717 11:32:40.789490 14746 net.cpp:129] Top shape: 1 1024 14 14 (200704)
I0717 11:32:40.789496 14746 net.cpp:137] Memory required for data: 215756812
I0717 11:32:40.789505 14746 layer_factory.hpp:77] Creating layer bn4f_branch2c
I0717 11:32:40.789520 14746 net.cpp:84] Creating Layer bn4f_branch2c
I0717 11:32:40.789526 14746 net.cpp:406] bn4f_branch2c <- res4f_branch2c
I0717 11:32:40.789551 14746 net.cpp:367] bn4f_branch2c -> res4f_branch2c (in-place)
I0717 11:32:40.789870 14746 net.cpp:122] Setting up bn4f_branch2c
I0717 11:32:40.789881 14746 net.cpp:129] Top shape: 1 1024 14 14 (200704)
I0717 11:32:40.789885 14746 net.cpp:137] Memory required for data: 216559628
I0717 11:32:40.789973 14746 layer_factory.hpp:77] Creating layer scale4f_branch2c
I0717 11:32:40.789984 14746 net.cpp:84] Creating Layer scale4f_branch2c
I0717 11:32:40.789989 14746 net.cpp:406] scale4f_branch2c <- res4f_branch2c
I0717 11:32:40.789996 14746 net.cpp:367] scale4f_branch2c -> res4f_branch2c (in-place)
I0717 11:32:40.790083 14746 layer_factory.hpp:77] Creating layer scale4f_branch2c
I0717 11:32:40.790269 14746 net.cpp:122] Setting up scale4f_branch2c
I0717 11:32:40.790278 14746 net.cpp:129] Top shape: 1 1024 14 14 (200704)
I0717 11:32:40.790282 14746 net.cpp:137] Memory required for data: 217362444
I0717 11:32:40.790287 14746 layer_factory.hpp:77] Creating layer res4f
I0717 11:32:40.790292 14746 net.cpp:84] Creating Layer res4f
I0717 11:32:40.790297 14746 net.cpp:406] res4f <- res4e_res4e_relu_0_split_1
I0717 11:32:40.790300 14746 net.cpp:406] res4f <- res4f_branch2c
I0717 11:32:40.790328 14746 net.cpp:380] res4f -> res4f
I0717 11:32:40.790350 14746 net.cpp:122] Setting up res4f
I0717 11:32:40.790369 14746 net.cpp:129] Top shape: 1 1024 14 14 (200704)
I0717 11:32:40.790370 14746 net.cpp:137] Memory required for data: 218165260
I0717 11:32:40.790372 14746 layer_factory.hpp:77] Creating layer res4f_relu
I0717 11:32:40.790392 14746 net.cpp:84] Creating Layer res4f_relu
I0717 11:32:40.790395 14746 net.cpp:406] res4f_relu <- res4f
I0717 11:32:40.790397 14746 net.cpp:367] res4f_relu -> res4f (in-place)
I0717 11:32:40.790843 14746 net.cpp:122] Setting up res4f_relu
I0717 11:32:40.790853 14746 net.cpp:129] Top shape: 1 1024 14 14 (200704)
I0717 11:32:40.790870 14746 net.cpp:137] Memory required for data: 218968076
I0717 11:32:40.790872 14746 layer_factory.hpp:77] Creating layer res4f_res4f_relu_0_split
I0717 11:32:40.790877 14746 net.cpp:84] Creating Layer res4f_res4f_relu_0_split
I0717 11:32:40.790881 14746 net.cpp:406] res4f_res4f_relu_0_split <- res4f
I0717 11:32:40.790889 14746 net.cpp:380] res4f_res4f_relu_0_split -> res4f_res4f_relu_0_split_0
I0717 11:32:40.790896 14746 net.cpp:380] res4f_res4f_relu_0_split -> res4f_res4f_relu_0_split_1
I0717 11:32:40.790935 14746 net.cpp:122] Setting up res4f_res4f_relu_0_split
I0717 11:32:40.790940 14746 net.cpp:129] Top shape: 1 1024 14 14 (200704)
I0717 11:32:40.790943 14746 net.cpp:129] Top shape: 1 1024 14 14 (200704)
I0717 11:32:40.790947 14746 net.cpp:137] Memory required for data: 220573708
I0717 11:32:40.790951 14746 layer_factory.hpp:77] Creating layer res5a_branch1
I0717 11:32:40.790959 14746 net.cpp:84] Creating Layer res5a_branch1
I0717 11:32:40.790962 14746 net.cpp:406] res5a_branch1 <- res4f_res4f_relu_0_split_0
I0717 11:32:40.790966 14746 net.cpp:380] res5a_branch1 -> res5a_branch1
I0717 11:32:40.813501 14746 net.cpp:122] Setting up res5a_branch1
I0717 11:32:40.813534 14746 net.cpp:129] Top shape: 1 2048 7 7 (100352)
I0717 11:32:40.813537 14746 net.cpp:137] Memory required for data: 220975116
I0717 11:32:40.813557 14746 layer_factory.hpp:77] Creating layer bn5a_branch1
I0717 11:32:40.813580 14746 net.cpp:84] Creating Layer bn5a_branch1
I0717 11:32:40.813585 14746 net.cpp:406] bn5a_branch1 <- res5a_branch1
I0717 11:32:40.813607 14746 net.cpp:367] bn5a_branch1 -> res5a_branch1 (in-place)
I0717 11:32:40.813778 14746 net.cpp:122] Setting up bn5a_branch1
I0717 11:32:40.813786 14746 net.cpp:129] Top shape: 1 2048 7 7 (100352)
I0717 11:32:40.813787 14746 net.cpp:137] Memory required for data: 221376524
I0717 11:32:40.813794 14746 layer_factory.hpp:77] Creating layer scale5a_branch1
I0717 11:32:40.813802 14746 net.cpp:84] Creating Layer scale5a_branch1
I0717 11:32:40.813805 14746 net.cpp:406] scale5a_branch1 <- res5a_branch1
I0717 11:32:40.813809 14746 net.cpp:367] scale5a_branch1 -> res5a_branch1 (in-place)
I0717 11:32:40.813848 14746 layer_factory.hpp:77] Creating layer scale5a_branch1
I0717 11:32:40.813980 14746 net.cpp:122] Setting up scale5a_branch1
I0717 11:32:40.813985 14746 net.cpp:129] Top shape: 1 2048 7 7 (100352)
I0717 11:32:40.814002 14746 net.cpp:137] Memory required for data: 221777932
I0717 11:32:40.814005 14746 layer_factory.hpp:77] Creating layer res5a_branch2a
I0717 11:32:40.814013 14746 net.cpp:84] Creating Layer res5a_branch2a
I0717 11:32:40.814016 14746 net.cpp:406] res5a_branch2a <- res4f_res4f_relu_0_split_1
I0717 11:32:40.814025 14746 net.cpp:380] res5a_branch2a -> res5a_branch2a
I0717 11:32:40.821478 14746 net.cpp:122] Setting up res5a_branch2a
I0717 11:32:40.821516 14746 net.cpp:129] Top shape: 1 512 7 7 (25088)
I0717 11:32:40.821519 14746 net.cpp:137] Memory required for data: 221878284
I0717 11:32:40.821532 14746 layer_factory.hpp:77] Creating layer bn5a_branch2a
I0717 11:32:40.821543 14746 net.cpp:84] Creating Layer bn5a_branch2a
I0717 11:32:40.821549 14746 net.cpp:406] bn5a_branch2a <- res5a_branch2a
I0717 11:32:40.821558 14746 net.cpp:367] bn5a_branch2a -> res5a_branch2a (in-place)
I0717 11:32:40.821805 14746 net.cpp:122] Setting up bn5a_branch2a
I0717 11:32:40.821815 14746 net.cpp:129] Top shape: 1 512 7 7 (25088)
I0717 11:32:40.821817 14746 net.cpp:137] Memory required for data: 221978636
I0717 11:32:40.821826 14746 layer_factory.hpp:77] Creating layer scale5a_branch2a
I0717 11:32:40.821836 14746 net.cpp:84] Creating Layer scale5a_branch2a
I0717 11:32:40.821848 14746 net.cpp:406] scale5a_branch2a <- res5a_branch2a
I0717 11:32:40.821856 14746 net.cpp:367] scale5a_branch2a -> res5a_branch2a (in-place)
I0717 11:32:40.821907 14746 layer_factory.hpp:77] Creating layer scale5a_branch2a
I0717 11:32:40.822006 14746 net.cpp:122] Setting up scale5a_branch2a
I0717 11:32:40.822012 14746 net.cpp:129] Top shape: 1 512 7 7 (25088)
I0717 11:32:40.822016 14746 net.cpp:137] Memory required for data: 222078988
I0717 11:32:40.822021 14746 layer_factory.hpp:77] Creating layer res5a_branch2a_relu
I0717 11:32:40.822031 14746 net.cpp:84] Creating Layer res5a_branch2a_relu
I0717 11:32:40.822034 14746 net.cpp:406] res5a_branch2a_relu <- res5a_branch2a
I0717 11:32:40.822039 14746 net.cpp:367] res5a_branch2a_relu -> res5a_branch2a (in-place)
I0717 11:32:40.822510 14746 net.cpp:122] Setting up res5a_branch2a_relu
I0717 11:32:40.822521 14746 net.cpp:129] Top shape: 1 512 7 7 (25088)
I0717 11:32:40.822537 14746 net.cpp:137] Memory required for data: 222179340
I0717 11:32:40.822541 14746 layer_factory.hpp:77] Creating layer res5a_branch2b
I0717 11:32:40.822567 14746 net.cpp:84] Creating Layer res5a_branch2b
I0717 11:32:40.822572 14746 net.cpp:406] res5a_branch2b <- res5a_branch2a
I0717 11:32:40.822580 14746 net.cpp:380] res5a_branch2b -> res5a_branch2b
I0717 11:32:40.847199 14746 net.cpp:122] Setting up res5a_branch2b
I0717 11:32:40.847218 14746 net.cpp:129] Top shape: 1 512 7 7 (25088)
I0717 11:32:40.847221 14746 net.cpp:137] Memory required for data: 222279692
I0717 11:32:40.847229 14746 layer_factory.hpp:77] Creating layer bn5a_branch2b
I0717 11:32:40.847239 14746 net.cpp:84] Creating Layer bn5a_branch2b
I0717 11:32:40.847251 14746 net.cpp:406] bn5a_branch2b <- res5a_branch2b
I0717 11:32:40.847268 14746 net.cpp:367] bn5a_branch2b -> res5a_branch2b (in-place)
I0717 11:32:40.847466 14746 net.cpp:122] Setting up bn5a_branch2b
I0717 11:32:40.847472 14746 net.cpp:129] Top shape: 1 512 7 7 (25088)
I0717 11:32:40.847476 14746 net.cpp:137] Memory required for data: 222380044
I0717 11:32:40.847493 14746 layer_factory.hpp:77] Creating layer scale5a_branch2b
I0717 11:32:40.847501 14746 net.cpp:84] Creating Layer scale5a_branch2b
I0717 11:32:40.847504 14746 net.cpp:406] scale5a_branch2b <- res5a_branch2b
I0717 11:32:40.847525 14746 net.cpp:367] scale5a_branch2b -> res5a_branch2b (in-place)
I0717 11:32:40.847575 14746 layer_factory.hpp:77] Creating layer scale5a_branch2b
I0717 11:32:40.847694 14746 net.cpp:122] Setting up scale5a_branch2b
I0717 11:32:40.847700 14746 net.cpp:129] Top shape: 1 512 7 7 (25088)
I0717 11:32:40.847703 14746 net.cpp:137] Memory required for data: 222480396
I0717 11:32:40.847723 14746 layer_factory.hpp:77] Creating layer res5a_branch2b_relu
I0717 11:32:40.847743 14746 net.cpp:84] Creating Layer res5a_branch2b_relu
I0717 11:32:40.847746 14746 net.cpp:406] res5a_branch2b_relu <- res5a_branch2b
I0717 11:32:40.847769 14746 net.cpp:367] res5a_branch2b_relu -> res5a_branch2b (in-place)
I0717 11:32:40.849364 14746 net.cpp:122] Setting up res5a_branch2b_relu
I0717 11:32:40.849372 14746 net.cpp:129] Top shape: 1 512 7 7 (25088)
I0717 11:32:40.849376 14746 net.cpp:137] Memory required for data: 222580748
I0717 11:32:40.849380 14746 layer_factory.hpp:77] Creating layer res5a_branch2c
I0717 11:32:40.849406 14746 net.cpp:84] Creating Layer res5a_branch2c
I0717 11:32:40.849411 14746 net.cpp:406] res5a_branch2c <- res5a_branch2b
I0717 11:32:40.849418 14746 net.cpp:380] res5a_branch2c -> res5a_branch2c
I0717 11:32:40.862401 14746 net.cpp:122] Setting up res5a_branch2c
I0717 11:32:40.862421 14746 net.cpp:129] Top shape: 1 2048 7 7 (100352)
I0717 11:32:40.862426 14746 net.cpp:137] Memory required for data: 222982156
I0717 11:32:40.862447 14746 layer_factory.hpp:77] Creating layer bn5a_branch2c
I0717 11:32:40.862458 14746 net.cpp:84] Creating Layer bn5a_branch2c
I0717 11:32:40.862464 14746 net.cpp:406] bn5a_branch2c <- res5a_branch2c
I0717 11:32:40.862473 14746 net.cpp:367] bn5a_branch2c -> res5a_branch2c (in-place)
I0717 11:32:40.862677 14746 net.cpp:122] Setting up bn5a_branch2c
I0717 11:32:40.862684 14746 net.cpp:129] Top shape: 1 2048 7 7 (100352)
I0717 11:32:40.862687 14746 net.cpp:137] Memory required for data: 223383564
I0717 11:32:40.862710 14746 layer_factory.hpp:77] Creating layer scale5a_branch2c
I0717 11:32:40.862718 14746 net.cpp:84] Creating Layer scale5a_branch2c
I0717 11:32:40.862735 14746 net.cpp:406] scale5a_branch2c <- res5a_branch2c
I0717 11:32:40.862756 14746 net.cpp:367] scale5a_branch2c -> res5a_branch2c (in-place)
I0717 11:32:40.862823 14746 layer_factory.hpp:77] Creating layer scale5a_branch2c
I0717 11:32:40.862969 14746 net.cpp:122] Setting up scale5a_branch2c
I0717 11:32:40.862975 14746 net.cpp:129] Top shape: 1 2048 7 7 (100352)
I0717 11:32:40.862979 14746 net.cpp:137] Memory required for data: 223784972
I0717 11:32:40.862985 14746 layer_factory.hpp:77] Creating layer res5a
I0717 11:32:40.862990 14746 net.cpp:84] Creating Layer res5a
I0717 11:32:40.862994 14746 net.cpp:406] res5a <- res5a_branch1
I0717 11:32:40.862999 14746 net.cpp:406] res5a <- res5a_branch2c
I0717 11:32:40.863008 14746 net.cpp:380] res5a -> res5a
I0717 11:32:40.863030 14746 net.cpp:122] Setting up res5a
I0717 11:32:40.863035 14746 net.cpp:129] Top shape: 1 2048 7 7 (100352)
I0717 11:32:40.863039 14746 net.cpp:137] Memory required for data: 224186380
I0717 11:32:40.863042 14746 layer_factory.hpp:77] Creating layer res5a_relu
I0717 11:32:40.863057 14746 net.cpp:84] Creating Layer res5a_relu
I0717 11:32:40.863061 14746 net.cpp:406] res5a_relu <- res5a
I0717 11:32:40.863066 14746 net.cpp:367] res5a_relu -> res5a (in-place)
I0717 11:32:40.863431 14746 net.cpp:122] Setting up res5a_relu
I0717 11:32:40.863440 14746 net.cpp:129] Top shape: 1 2048 7 7 (100352)
I0717 11:32:40.863442 14746 net.cpp:137] Memory required for data: 224587788
I0717 11:32:40.863445 14746 layer_factory.hpp:77] Creating layer res5a_res5a_relu_0_split
I0717 11:32:40.863466 14746 net.cpp:84] Creating Layer res5a_res5a_relu_0_split
I0717 11:32:40.863471 14746 net.cpp:406] res5a_res5a_relu_0_split <- res5a
I0717 11:32:40.863487 14746 net.cpp:380] res5a_res5a_relu_0_split -> res5a_res5a_relu_0_split_0
I0717 11:32:40.863494 14746 net.cpp:380] res5a_res5a_relu_0_split -> res5a_res5a_relu_0_split_1
I0717 11:32:40.863528 14746 net.cpp:122] Setting up res5a_res5a_relu_0_split
I0717 11:32:40.863534 14746 net.cpp:129] Top shape: 1 2048 7 7 (100352)
I0717 11:32:40.863538 14746 net.cpp:129] Top shape: 1 2048 7 7 (100352)
I0717 11:32:40.863541 14746 net.cpp:137] Memory required for data: 225390604
I0717 11:32:40.863545 14746 layer_factory.hpp:77] Creating layer res5b_branch2a
I0717 11:32:40.863554 14746 net.cpp:84] Creating Layer res5b_branch2a
I0717 11:32:40.863559 14746 net.cpp:406] res5b_branch2a <- res5a_res5a_relu_0_split_0
I0717 11:32:40.863564 14746 net.cpp:380] res5b_branch2a -> res5b_branch2a
I0717 11:32:40.875401 14746 net.cpp:122] Setting up res5b_branch2a
I0717 11:32:40.875419 14746 net.cpp:129] Top shape: 1 512 7 7 (25088)
I0717 11:32:40.875423 14746 net.cpp:137] Memory required for data: 225490956
I0717 11:32:40.875432 14746 layer_factory.hpp:77] Creating layer bn5b_branch2a
I0717 11:32:40.875442 14746 net.cpp:84] Creating Layer bn5b_branch2a
I0717 11:32:40.875448 14746 net.cpp:406] bn5b_branch2a <- res5b_branch2a
I0717 11:32:40.875457 14746 net.cpp:367] bn5b_branch2a -> res5b_branch2a (in-place)
I0717 11:32:40.875664 14746 net.cpp:122] Setting up bn5b_branch2a
I0717 11:32:40.875671 14746 net.cpp:129] Top shape: 1 512 7 7 (25088)
I0717 11:32:40.875674 14746 net.cpp:137] Memory required for data: 225591308
I0717 11:32:40.875696 14746 layer_factory.hpp:77] Creating layer scale5b_branch2a
I0717 11:32:40.875705 14746 net.cpp:84] Creating Layer scale5b_branch2a
I0717 11:32:40.875710 14746 net.cpp:406] scale5b_branch2a <- res5b_branch2a
I0717 11:32:40.875713 14746 net.cpp:367] scale5b_branch2a -> res5b_branch2a (in-place)
I0717 11:32:40.875779 14746 layer_factory.hpp:77] Creating layer scale5b_branch2a
I0717 11:32:40.875881 14746 net.cpp:122] Setting up scale5b_branch2a
I0717 11:32:40.875887 14746 net.cpp:129] Top shape: 1 512 7 7 (25088)
I0717 11:32:40.875890 14746 net.cpp:137] Memory required for data: 225691660
I0717 11:32:40.875913 14746 layer_factory.hpp:77] Creating layer res5b_branch2a_relu
I0717 11:32:40.875919 14746 net.cpp:84] Creating Layer res5b_branch2a_relu
I0717 11:32:40.875924 14746 net.cpp:406] res5b_branch2a_relu <- res5b_branch2a
I0717 11:32:40.875931 14746 net.cpp:367] res5b_branch2a_relu -> res5b_branch2a (in-place)
I0717 11:32:40.876307 14746 net.cpp:122] Setting up res5b_branch2a_relu
I0717 11:32:40.876314 14746 net.cpp:129] Top shape: 1 512 7 7 (25088)
I0717 11:32:40.876318 14746 net.cpp:137] Memory required for data: 225792012
I0717 11:32:40.876334 14746 layer_factory.hpp:77] Creating layer res5b_branch2b
I0717 11:32:40.876343 14746 net.cpp:84] Creating Layer res5b_branch2b
I0717 11:32:40.876348 14746 net.cpp:406] res5b_branch2b <- res5b_branch2a
I0717 11:32:40.876355 14746 net.cpp:380] res5b_branch2b -> res5b_branch2b
I0717 11:32:40.901834 14746 net.cpp:122] Setting up res5b_branch2b
I0717 11:32:40.901872 14746 net.cpp:129] Top shape: 1 512 7 7 (25088)
I0717 11:32:40.901876 14746 net.cpp:137] Memory required for data: 225892364
I0717 11:32:40.901896 14746 layer_factory.hpp:77] Creating layer bn5b_branch2b
I0717 11:32:40.901906 14746 net.cpp:84] Creating Layer bn5b_branch2b
I0717 11:32:40.901911 14746 net.cpp:406] bn5b_branch2b <- res5b_branch2b
I0717 11:32:40.901918 14746 net.cpp:367] bn5b_branch2b -> res5b_branch2b (in-place)
I0717 11:32:40.902118 14746 net.cpp:122] Setting up bn5b_branch2b
I0717 11:32:40.902124 14746 net.cpp:129] Top shape: 1 512 7 7 (25088)
I0717 11:32:40.902128 14746 net.cpp:137] Memory required for data: 225992716
I0717 11:32:40.902135 14746 layer_factory.hpp:77] Creating layer scale5b_branch2b
I0717 11:32:40.902144 14746 net.cpp:84] Creating Layer scale5b_branch2b
I0717 11:32:40.902149 14746 net.cpp:406] scale5b_branch2b <- res5b_branch2b
I0717 11:32:40.902154 14746 net.cpp:367] scale5b_branch2b -> res5b_branch2b (in-place)
I0717 11:32:40.902220 14746 layer_factory.hpp:77] Creating layer scale5b_branch2b
I0717 11:32:40.902349 14746 net.cpp:122] Setting up scale5b_branch2b
I0717 11:32:40.902355 14746 net.cpp:129] Top shape: 1 512 7 7 (25088)
I0717 11:32:40.902359 14746 net.cpp:137] Memory required for data: 226093068
I0717 11:32:40.902364 14746 layer_factory.hpp:77] Creating layer res5b_branch2b_relu
I0717 11:32:40.902372 14746 net.cpp:84] Creating Layer res5b_branch2b_relu
I0717 11:32:40.902376 14746 net.cpp:406] res5b_branch2b_relu <- res5b_branch2b
I0717 11:32:40.902381 14746 net.cpp:367] res5b_branch2b_relu -> res5b_branch2b (in-place)
I0717 11:32:40.903120 14746 net.cpp:122] Setting up res5b_branch2b_relu
I0717 11:32:40.903128 14746 net.cpp:129] Top shape: 1 512 7 7 (25088)
I0717 11:32:40.903132 14746 net.cpp:137] Memory required for data: 226193420
I0717 11:32:40.903136 14746 layer_factory.hpp:77] Creating layer res5b_branch2c
I0717 11:32:40.903146 14746 net.cpp:84] Creating Layer res5b_branch2c
I0717 11:32:40.903151 14746 net.cpp:406] res5b_branch2c <- res5b_branch2b
I0717 11:32:40.903157 14746 net.cpp:380] res5b_branch2c -> res5b_branch2c
I0717 11:32:40.915406 14746 net.cpp:122] Setting up res5b_branch2c
I0717 11:32:40.915424 14746 net.cpp:129] Top shape: 1 2048 7 7 (100352)
I0717 11:32:40.915428 14746 net.cpp:137] Memory required for data: 226594828
I0717 11:32:40.915437 14746 layer_factory.hpp:77] Creating layer bn5b_branch2c
I0717 11:32:40.915447 14746 net.cpp:84] Creating Layer bn5b_branch2c
I0717 11:32:40.915453 14746 net.cpp:406] bn5b_branch2c <- res5b_branch2c
I0717 11:32:40.915462 14746 net.cpp:367] bn5b_branch2c -> res5b_branch2c (in-place)
I0717 11:32:40.915628 14746 net.cpp:122] Setting up bn5b_branch2c
I0717 11:32:40.915634 14746 net.cpp:129] Top shape: 1 2048 7 7 (100352)
I0717 11:32:40.915638 14746 net.cpp:137] Memory required for data: 226996236
I0717 11:32:40.915645 14746 layer_factory.hpp:77] Creating layer scale5b_branch2c
I0717 11:32:40.915665 14746 net.cpp:84] Creating Layer scale5b_branch2c
I0717 11:32:40.915668 14746 net.cpp:406] scale5b_branch2c <- res5b_branch2c
I0717 11:32:40.915674 14746 net.cpp:367] scale5b_branch2c -> res5b_branch2c (in-place)
I0717 11:32:40.915710 14746 layer_factory.hpp:77] Creating layer scale5b_branch2c
I0717 11:32:40.915804 14746 net.cpp:122] Setting up scale5b_branch2c
I0717 11:32:40.915810 14746 net.cpp:129] Top shape: 1 2048 7 7 (100352)
I0717 11:32:40.915813 14746 net.cpp:137] Memory required for data: 227397644
I0717 11:32:40.915819 14746 layer_factory.hpp:77] Creating layer res5b
I0717 11:32:40.915827 14746 net.cpp:84] Creating Layer res5b
I0717 11:32:40.915829 14746 net.cpp:406] res5b <- res5a_res5a_relu_0_split_1
I0717 11:32:40.915834 14746 net.cpp:406] res5b <- res5b_branch2c
I0717 11:32:40.915841 14746 net.cpp:380] res5b -> res5b
I0717 11:32:40.915863 14746 net.cpp:122] Setting up res5b
I0717 11:32:40.915869 14746 net.cpp:129] Top shape: 1 2048 7 7 (100352)
I0717 11:32:40.915872 14746 net.cpp:137] Memory required for data: 227799052
I0717 11:32:40.915875 14746 layer_factory.hpp:77] Creating layer res5b_relu
I0717 11:32:40.915880 14746 net.cpp:84] Creating Layer res5b_relu
I0717 11:32:40.915885 14746 net.cpp:406] res5b_relu <- res5b
I0717 11:32:40.915889 14746 net.cpp:367] res5b_relu -> res5b (in-place)
I0717 11:32:40.916261 14746 net.cpp:122] Setting up res5b_relu
I0717 11:32:40.916268 14746 net.cpp:129] Top shape: 1 2048 7 7 (100352)
I0717 11:32:40.916272 14746 net.cpp:137] Memory required for data: 228200460
I0717 11:32:40.916290 14746 layer_factory.hpp:77] Creating layer res5b_res5b_relu_0_split
I0717 11:32:40.916296 14746 net.cpp:84] Creating Layer res5b_res5b_relu_0_split
I0717 11:32:40.916299 14746 net.cpp:406] res5b_res5b_relu_0_split <- res5b
I0717 11:32:40.916306 14746 net.cpp:380] res5b_res5b_relu_0_split -> res5b_res5b_relu_0_split_0
I0717 11:32:40.916313 14746 net.cpp:380] res5b_res5b_relu_0_split -> res5b_res5b_relu_0_split_1
I0717 11:32:40.916374 14746 net.cpp:122] Setting up res5b_res5b_relu_0_split
I0717 11:32:40.916379 14746 net.cpp:129] Top shape: 1 2048 7 7 (100352)
I0717 11:32:40.916398 14746 net.cpp:129] Top shape: 1 2048 7 7 (100352)
I0717 11:32:40.916424 14746 net.cpp:137] Memory required for data: 229003276
I0717 11:32:40.916426 14746 layer_factory.hpp:77] Creating layer res5c_branch2a
I0717 11:32:40.916437 14746 net.cpp:84] Creating Layer res5c_branch2a
I0717 11:32:40.916441 14746 net.cpp:406] res5c_branch2a <- res5b_res5b_relu_0_split_0
I0717 11:32:40.916460 14746 net.cpp:380] res5c_branch2a -> res5c_branch2a
I0717 11:32:40.930887 14746 net.cpp:122] Setting up res5c_branch2a
I0717 11:32:40.930905 14746 net.cpp:129] Top shape: 1 512 7 7 (25088)
I0717 11:32:40.930909 14746 net.cpp:137] Memory required for data: 229103628
I0717 11:32:40.930917 14746 layer_factory.hpp:77] Creating layer bn5c_branch2a
I0717 11:32:40.930927 14746 net.cpp:84] Creating Layer bn5c_branch2a
I0717 11:32:40.930932 14746 net.cpp:406] bn5c_branch2a <- res5c_branch2a
I0717 11:32:40.930940 14746 net.cpp:367] bn5c_branch2a -> res5c_branch2a (in-place)
I0717 11:32:40.931136 14746 net.cpp:122] Setting up bn5c_branch2a
I0717 11:32:40.931143 14746 net.cpp:129] Top shape: 1 512 7 7 (25088)
I0717 11:32:40.931145 14746 net.cpp:137] Memory required for data: 229203980
I0717 11:32:40.931154 14746 layer_factory.hpp:77] Creating layer scale5c_branch2a
I0717 11:32:40.931161 14746 net.cpp:84] Creating Layer scale5c_branch2a
I0717 11:32:40.931166 14746 net.cpp:406] scale5c_branch2a <- res5c_branch2a
I0717 11:32:40.931174 14746 net.cpp:367] scale5c_branch2a -> res5c_branch2a (in-place)
I0717 11:32:40.931264 14746 layer_factory.hpp:77] Creating layer scale5c_branch2a
I0717 11:32:40.931414 14746 net.cpp:122] Setting up scale5c_branch2a
I0717 11:32:40.931421 14746 net.cpp:129] Top shape: 1 512 7 7 (25088)
I0717 11:32:40.931423 14746 net.cpp:137] Memory required for data: 229304332
I0717 11:32:40.931444 14746 layer_factory.hpp:77] Creating layer res5c_branch2a_relu
I0717 11:32:40.931460 14746 net.cpp:84] Creating Layer res5c_branch2a_relu
I0717 11:32:40.931464 14746 net.cpp:406] res5c_branch2a_relu <- res5c_branch2a
I0717 11:32:40.931470 14746 net.cpp:367] res5c_branch2a_relu -> res5c_branch2a (in-place)
I0717 11:32:40.931831 14746 net.cpp:122] Setting up res5c_branch2a_relu
I0717 11:32:40.931839 14746 net.cpp:129] Top shape: 1 512 7 7 (25088)
I0717 11:32:40.931843 14746 net.cpp:137] Memory required for data: 229404684
I0717 11:32:40.931846 14746 layer_factory.hpp:77] Creating layer res5c_branch2b
I0717 11:32:40.931869 14746 net.cpp:84] Creating Layer res5c_branch2b
I0717 11:32:40.931874 14746 net.cpp:406] res5c_branch2b <- res5c_branch2a
I0717 11:32:40.931882 14746 net.cpp:380] res5c_branch2b -> res5c_branch2b
I0717 11:32:40.957129 14746 net.cpp:122] Setting up res5c_branch2b
I0717 11:32:40.957154 14746 net.cpp:129] Top shape: 1 512 7 7 (25088)
I0717 11:32:40.957157 14746 net.cpp:137] Memory required for data: 229505036
I0717 11:32:40.957180 14746 layer_factory.hpp:77] Creating layer bn5c_branch2b
I0717 11:32:40.957191 14746 net.cpp:84] Creating Layer bn5c_branch2b
I0717 11:32:40.957199 14746 net.cpp:406] bn5c_branch2b <- res5c_branch2b
I0717 11:32:40.957208 14746 net.cpp:367] bn5c_branch2b -> res5c_branch2b (in-place)
I0717 11:32:40.957475 14746 net.cpp:122] Setting up bn5c_branch2b
I0717 11:32:40.957484 14746 net.cpp:129] Top shape: 1 512 7 7 (25088)
I0717 11:32:40.957489 14746 net.cpp:137] Memory required for data: 229605388
I0717 11:32:40.957499 14746 layer_factory.hpp:77] Creating layer scale5c_branch2b
I0717 11:32:40.957509 14746 net.cpp:84] Creating Layer scale5c_branch2b
I0717 11:32:40.957512 14746 net.cpp:406] scale5c_branch2b <- res5c_branch2b
I0717 11:32:40.957518 14746 net.cpp:367] scale5c_branch2b -> res5c_branch2b (in-place)
I0717 11:32:40.957576 14746 layer_factory.hpp:77] Creating layer scale5c_branch2b
I0717 11:32:40.957697 14746 net.cpp:122] Setting up scale5c_branch2b
I0717 11:32:40.957703 14746 net.cpp:129] Top shape: 1 512 7 7 (25088)
I0717 11:32:40.957707 14746 net.cpp:137] Memory required for data: 229705740
I0717 11:32:40.957713 14746 layer_factory.hpp:77] Creating layer res5c_branch2b_relu
I0717 11:32:40.957721 14746 net.cpp:84] Creating Layer res5c_branch2b_relu
I0717 11:32:40.957739 14746 net.cpp:406] res5c_branch2b_relu <- res5c_branch2b
I0717 11:32:40.957746 14746 net.cpp:367] res5c_branch2b_relu -> res5c_branch2b (in-place)
I0717 11:32:40.958269 14746 net.cpp:122] Setting up res5c_branch2b_relu
I0717 11:32:40.958281 14746 net.cpp:129] Top shape: 1 512 7 7 (25088)
I0717 11:32:40.958284 14746 net.cpp:137] Memory required for data: 229806092
I0717 11:32:40.958288 14746 layer_factory.hpp:77] Creating layer res5c_branch2c
I0717 11:32:40.958297 14746 net.cpp:84] Creating Layer res5c_branch2c
I0717 11:32:40.958302 14746 net.cpp:406] res5c_branch2c <- res5c_branch2b
I0717 11:32:40.958308 14746 net.cpp:380] res5c_branch2c -> res5c_branch2c
I0717 11:32:40.970458 14746 net.cpp:122] Setting up res5c_branch2c
I0717 11:32:40.970491 14746 net.cpp:129] Top shape: 1 2048 7 7 (100352)
I0717 11:32:40.970494 14746 net.cpp:137] Memory required for data: 230207500
I0717 11:32:40.970520 14746 layer_factory.hpp:77] Creating layer bn5c_branch2c
I0717 11:32:40.970538 14746 net.cpp:84] Creating Layer bn5c_branch2c
I0717 11:32:40.970546 14746 net.cpp:406] bn5c_branch2c <- res5c_branch2c
I0717 11:32:40.970556 14746 net.cpp:367] bn5c_branch2c -> res5c_branch2c (in-place)
I0717 11:32:40.970782 14746 net.cpp:122] Setting up bn5c_branch2c
I0717 11:32:40.970788 14746 net.cpp:129] Top shape: 1 2048 7 7 (100352)
I0717 11:32:40.970791 14746 net.cpp:137] Memory required for data: 230608908
I0717 11:32:40.970814 14746 layer_factory.hpp:77] Creating layer scale5c_branch2c
I0717 11:32:40.970824 14746 net.cpp:84] Creating Layer scale5c_branch2c
I0717 11:32:40.970829 14746 net.cpp:406] scale5c_branch2c <- res5c_branch2c
I0717 11:32:40.970837 14746 net.cpp:367] scale5c_branch2c -> res5c_branch2c (in-place)
I0717 11:32:40.970902 14746 layer_factory.hpp:77] Creating layer scale5c_branch2c
I0717 11:32:40.971006 14746 net.cpp:122] Setting up scale5c_branch2c
I0717 11:32:40.971014 14746 net.cpp:129] Top shape: 1 2048 7 7 (100352)
I0717 11:32:40.971016 14746 net.cpp:137] Memory required for data: 231010316
I0717 11:32:40.971022 14746 layer_factory.hpp:77] Creating layer res5c
I0717 11:32:40.971029 14746 net.cpp:84] Creating Layer res5c
I0717 11:32:40.971035 14746 net.cpp:406] res5c <- res5b_res5b_relu_0_split_1
I0717 11:32:40.971040 14746 net.cpp:406] res5c <- res5c_branch2c
I0717 11:32:40.971048 14746 net.cpp:380] res5c -> res5c
I0717 11:32:40.971071 14746 net.cpp:122] Setting up res5c
I0717 11:32:40.971077 14746 net.cpp:129] Top shape: 1 2048 7 7 (100352)
I0717 11:32:40.971082 14746 net.cpp:137] Memory required for data: 231411724
I0717 11:32:40.971086 14746 layer_factory.hpp:77] Creating layer res5c_relu
I0717 11:32:40.971091 14746 net.cpp:84] Creating Layer res5c_relu
I0717 11:32:40.971096 14746 net.cpp:406] res5c_relu <- res5c
I0717 11:32:40.971101 14746 net.cpp:367] res5c_relu -> res5c (in-place)
I0717 11:32:40.972249 14746 net.cpp:122] Setting up res5c_relu
I0717 11:32:40.972273 14746 net.cpp:129] Top shape: 1 2048 7 7 (100352)
I0717 11:32:40.972277 14746 net.cpp:137] Memory required for data: 231813132
I0717 11:32:40.972283 14746 layer_factory.hpp:77] Creating layer pool5
I0717 11:32:40.972299 14746 net.cpp:84] Creating Layer pool5
I0717 11:32:40.972306 14746 net.cpp:406] pool5 <- res5c
I0717 11:32:40.972316 14746 net.cpp:380] pool5 -> pool5
I0717 11:32:40.972858 14746 net.cpp:122] Setting up pool5
I0717 11:32:40.972868 14746 net.cpp:129] Top shape: 1 2048 1 1 (2048)
I0717 11:32:40.972872 14746 net.cpp:137] Memory required for data: 231821324
I0717 11:32:40.972877 14746 layer_factory.hpp:77] Creating layer fc2
I0717 11:32:40.972885 14746 net.cpp:84] Creating Layer fc2
I0717 11:32:40.972889 14746 net.cpp:406] fc2 <- pool5
I0717 11:32:40.972898 14746 net.cpp:380] fc2 -> fc2
I0717 11:32:40.973027 14746 net.cpp:122] Setting up fc2
I0717 11:32:40.973032 14746 net.cpp:129] Top shape: 1 2 (2)
I0717 11:32:40.973037 14746 net.cpp:137] Memory required for data: 231821332
I0717 11:32:40.973043 14746 layer_factory.hpp:77] Creating layer fc2_fc2_0_split
I0717 11:32:40.973050 14746 net.cpp:84] Creating Layer fc2_fc2_0_split
I0717 11:32:40.973063 14746 net.cpp:406] fc2_fc2_0_split <- fc2
I0717 11:32:40.973070 14746 net.cpp:380] fc2_fc2_0_split -> fc2_fc2_0_split_0
I0717 11:32:40.973078 14746 net.cpp:380] fc2_fc2_0_split -> fc2_fc2_0_split_1
I0717 11:32:40.973111 14746 net.cpp:122] Setting up fc2_fc2_0_split
I0717 11:32:40.973116 14746 net.cpp:129] Top shape: 1 2 (2)
I0717 11:32:40.973132 14746 net.cpp:129] Top shape: 1 2 (2)
I0717 11:32:40.973136 14746 net.cpp:137] Memory required for data: 231821348
I0717 11:32:40.973151 14746 layer_factory.hpp:77] Creating layer loss
I0717 11:32:40.973156 14746 net.cpp:84] Creating Layer loss
I0717 11:32:40.973160 14746 net.cpp:406] loss <- fc2_fc2_0_split_0
I0717 11:32:40.973165 14746 net.cpp:406] loss <- label_data_1_split_0
I0717 11:32:40.973172 14746 net.cpp:380] loss -> loss
…
