…
I0710 11:13:25.442214 10362 net.cpp:294] The NetState phase (0) differed from the phase (1) specified by a rule in layer accuracy
I0710 11:13:25.442322 10362 net.cpp:51] Initializing net from parameters: 
name: "AlexNet"
state {
  phase: TRAIN
  level: 0
  stage: ""
}
layer {
  name: "data"
  type: "Data"
  top: "data"
  top: "label"
  include {
    phase: TRAIN
  }
  transform_param {
    mirror: true
    crop_size: 227
    mean_file: "modeldef/mean.binaryproto"
  }
  data_param {
    source: "lmdb/train_lmdb"
    batch_size: 64
    backend: LMDB
  }
}
layer {
  name: "conv1"
  type: "Convolution"
  bottom: "data"
  top: "conv1"
  param {
    lr_mult: 1
    decay_mult: 1
  }
  param {
    lr_mult: 2
    decay_mult: 0
  }
  convolution_param {
    num_output: 96
    kernel_size: 11
    stride: 4
    weight_filler {
      type: "gaussian"
      std: 0.01
    }
    bias_filler {
      type: "constant"
      value: 0
    }
  }
}
layer {
  name: "relu1"
  type: "ReLU"
  bottom: "conv1"
  top: "conv1"
}
layer {
  name: "norm1"
  type: "LRN"
  bottom: "conv1"
  top: "norm1"
  lrn_param {
    local_size: 5
    alpha: 0.0001
    beta: 0.75
  }
}
layer {
  name: "pool1"
  type: "Pooling"
  bottom: "norm1"
  top: "pool1"
  pooling_param {
    pool: MAX
    kernel_size: 3
    stride: 2
  }
}
layer {
  name: "conv2"
  type: "Convolution"
  bottom: "pool1"
  top: "conv2"
  param {
    lr_mult: 1
    decay_mult: 1
  }
  param {
    lr_mult: 2
    decay_mult: 0
  }
  convolution_param {
    num_output: 256
    pad: 2
    kernel_size: 5
    group: 2
    weight_filler {
      type: "gaussian"
      std: 0.01
    }
    bias_filler {
      type: "constant"
      value: 0.1
    }
  }
}
layer {
  name: "relu2"
  type: "ReLU"
  bottom: "conv2"
  top: "conv2"
}
layer {
  name: "norm2"
  type: "LRN"
  bottom: "conv2"
  top: "norm2"
  lrn_param {
    local_size: 5
    alpha: 0.0001
    beta: 0.75
  }
}
layer {
  name: "pool2"
  type: "Pooling"
  bottom: "norm2"
  top: "pool2"
  pooling_param {
    pool: MAX
    kernel_size: 3
    stride: 2
  }
}
layer {
  name: "conv3"
  type: "Convolution"
  bottom: "pool2"
  top: "conv3"
  param {
    lr_mult: 1
    decay_mult: 1
  }
  param {
    lr_mult: 2
    decay_mult: 0
  }
  convolution_param {
    num_output: 384
    pad: 1
    kernel_size: 3
    weight_filler {
      type: "gaussian"
      std: 0.01
    }
    bias_filler {
      type: "constant"
      value: 0
    }
  }
}
layer {
  name: "relu3"
  type: "ReLU"
  bottom: "conv3"
  top: "conv3"
}
layer {
  name: "conv4"
  type: "Convolution"
  bottom: "conv3"
  top: "conv4"
  param {
    lr_mult: 1
    decay_mult: 1
  }
  param {
    lr_mult: 2
    decay_mult: 0
  }
  convolution_param {
    num_output: 384
    pad: 1
    kernel_size: 3
    group: 2
    weight_filler {
      type: "gaussian"
      std: 0.01
    }
    bias_filler {
      type: "constant"
      value: 0.1
    }
  }
}
layer {
  name: "relu4"
  type: "ReLU"
  bottom: "conv4"
  top: "conv4"
}
layer {
  name: "conv5"
  type: "Convolution"
  bottom: "conv4"
  top: "conv5"
  param {
    lr_mult: 1
    decay_mult: 1
  }
  param {
    lr_mult: 2
    decay_mult: 0
  }
  convolution_param {
    num_output: 256
    pad: 1
    kernel_size: 3
    group: 2
    weight_filler {
      type: "gaussian"
      std: 0.01
    }
    bias_filler {
      type: "constant"
      value: 0.1
    }
  }
}
layer {
  name: "relu5"
  type: "ReLU"
  bottom: "conv5"
  top: "conv5"
}
layer {
  name: "pool5"
  type: "Pooling"
  bottom: "conv5"
  top: "pool5"
  pooling_param {
    pool: MAX
    kernel_size: 3
    stride: 2
  }
}
layer {
  name: "fc6"
  type: "InnerProduct"
  bottom: "pool5"
  top: "fc6"
  param {
    lr_mult: 1
    decay_mult: 1
  }
  param {
    lr_mult: 2
    decay_mult: 0
  }
  inner_product_param {
    num_output: 4096
    weight_filler {
      type: "gaussian"
      std: 0.005
    }
    bias_filler {
      type: "constant"
      value: 0.1
    }
  }
}
layer {
  name: "relu6"
  type: "ReLU"
  bottom: "fc6"
  top: "fc6"
}
layer {
  name: "drop6"
  type: "Dropout"
  bottom: "fc6"
  top: "fc6"
  dropout_param {
    dropout_ratio: 0.5
  }
}
layer {
  name: "fc7"
  type: "InnerProduct"
  bottom: "fc6"
  top: "fc7"
  param {
    lr_mult: 1
    decay_mult: 1
  }
  param {
    lr_mult: 2
    decay_mult: 0
  }
  inner_product_param {
    num_output: 4096
    weight_filler {
      type: "gaussian"
      std: 0.005
    }
    bias_filler {
      type: "constant"
      value: 0.1
    }
  }
}
layer {
  name: "relu7"
  type: "ReLU"
  bottom: "fc7"
  top: "fc7"
}
layer {
  name: "drop7"
  type: "Dropout"
  bottom: "fc7"
  top: "fc7"
  dropout_param {
    dropout_ratio: 0.5
  }
}
layer {
  name: "fc8_new"
  type: "InnerProduct"
  bottom: "fc7"
  top: "fc8_new"
  param {
    lr_mult: 1
    decay_mult: 1
  }
  param {
    lr_mult: 2
    decay_mult: 0
  }
  inner_product_param {
    num_output: 2
    weight_filler {
      type: "gaussian"
      std: 0.01
    }
    bias_filler {
      type: "constant"
      value: 0
    }
  }
}
layer {
  name: "loss"
  type: "SoftmaxWithLoss"
  bottom: "fc8_new"
  bottom: "label"
  top: "loss"
}
I0710 11:13:25.442396 10362 layer_factory.cpp:63] Creating layer data
I0710 11:13:25.442620 10362 db_lmdb.cpp:40] Opened lmdb lmdb/train_lmdb
I0710 11:13:25.442639 10362 net.cpp:84] Creating Layer data
I0710 11:13:25.442649 10362 net.cpp:380] data -> data
I0710 11:13:25.442673 10362 net.cpp:380] data -> label
I0710 11:13:25.442687 10362 data_transformer.cpp:25] Loading mean file from: modeldef/mean.binaryproto
I0710 11:13:25.460844 10362 data_layer.cpp:45] output data size: 64,3,227,227
I0710 11:13:25.504499 10362 net.cpp:122] Setting up data
I0710 11:13:25.504516 10362 net.cpp:129] Top shape: 64 3 227 227 (9893568)
I0710 11:13:25.504519 10362 net.cpp:129] Top shape: 64 (64)
I0710 11:13:25.504521 10362 net.cpp:137] Memory required for data: 39574528
I0710 11:13:25.504528 10362 layer_factory.cpp:63] Creating layer conv1
I0710 11:13:25.504541 10362 net.cpp:84] Creating Layer conv1
I0710 11:13:25.504545 10362 net.cpp:406] conv1 <- data
I0710 11:13:25.504554 10362 net.cpp:380] conv1 -> conv1
I0710 11:13:25.896754 10362 net.cpp:122] Setting up conv1
I0710 11:13:25.896771 10362 net.cpp:129] Top shape: 64 96 55 55 (18585600)
I0710 11:13:25.896773 10362 net.cpp:137] Memory required for data: 113916928
I0710 11:13:25.896790 10362 layer_factory.cpp:63] Creating layer relu1
I0710 11:13:25.896797 10362 net.cpp:84] Creating Layer relu1
I0710 11:13:25.896800 10362 net.cpp:406] relu1 <- conv1
I0710 11:13:25.896803 10362 net.cpp:367] relu1 -> conv1 (in-place)
I0710 11:13:25.897117 10362 net.cpp:122] Setting up relu1
I0710 11:13:25.897126 10362 net.cpp:129] Top shape: 64 96 55 55 (18585600)
I0710 11:13:25.897128 10362 net.cpp:137] Memory required for data: 188259328
I0710 11:13:25.897130 10362 layer_factory.cpp:63] Creating layer norm1
I0710 11:13:25.897136 10362 net.cpp:84] Creating Layer norm1
I0710 11:13:25.897140 10362 net.cpp:406] norm1 <- conv1
I0710 11:13:25.897142 10362 net.cpp:380] norm1 -> norm1
I0710 11:13:25.897459 10362 net.cpp:122] Setting up norm1
I0710 11:13:25.897467 10362 net.cpp:129] Top shape: 64 96 55 55 (18585600)
I0710 11:13:25.897469 10362 net.cpp:137] Memory required for data: 262601728
I0710 11:13:25.897471 10362 layer_factory.cpp:63] Creating layer pool1
I0710 11:13:25.897476 10362 net.cpp:84] Creating Layer pool1
I0710 11:13:25.897478 10362 net.cpp:406] pool1 <- norm1
I0710 11:13:25.897481 10362 net.cpp:380] pool1 -> pool1
I0710 11:13:25.897522 10362 net.cpp:122] Setting up pool1
I0710 11:13:25.897527 10362 net.cpp:129] Top shape: 64 96 27 27 (4478976)
I0710 11:13:25.897529 10362 net.cpp:137] Memory required for data: 280517632
I0710 11:13:25.897531 10362 layer_factory.cpp:63] Creating layer conv2
I0710 11:13:25.897537 10362 net.cpp:84] Creating Layer conv2
I0710 11:13:25.897539 10362 net.cpp:406] conv2 <- pool1
I0710 11:13:25.897542 10362 net.cpp:380] conv2 -> conv2
I0710 11:13:25.902115 10362 net.cpp:122] Setting up conv2
I0710 11:13:25.902127 10362 net.cpp:129] Top shape: 64 256 27 27 (11943936)
I0710 11:13:25.902128 10362 net.cpp:137] Memory required for data: 328293376
I0710 11:13:25.902134 10362 layer_factory.cpp:63] Creating layer relu2
I0710 11:13:25.902138 10362 net.cpp:84] Creating Layer relu2
I0710 11:13:25.902141 10362 net.cpp:406] relu2 <- conv2
I0710 11:13:25.902144 10362 net.cpp:367] relu2 -> conv2 (in-place)
I0710 11:13:25.902441 10362 net.cpp:122] Setting up relu2
I0710 11:13:25.902448 10362 net.cpp:129] Top shape: 64 256 27 27 (11943936)
I0710 11:13:25.902451 10362 net.cpp:137] Memory required for data: 376069120
I0710 11:13:25.902453 10362 layer_factory.cpp:63] Creating layer norm2
I0710 11:13:25.902457 10362 net.cpp:84] Creating Layer norm2
I0710 11:13:25.902459 10362 net.cpp:406] norm2 <- conv2
I0710 11:13:25.902463 10362 net.cpp:380] norm2 -> norm2
I0710 11:13:25.902681 10362 net.cpp:122] Setting up norm2
I0710 11:13:25.902688 10362 net.cpp:129] Top shape: 64 256 27 27 (11943936)
I0710 11:13:25.902690 10362 net.cpp:137] Memory required for data: 423844864
I0710 11:13:25.902693 10362 layer_factory.cpp:63] Creating layer pool2
I0710 11:13:25.902696 10362 net.cpp:84] Creating Layer pool2
I0710 11:13:25.902698 10362 net.cpp:406] pool2 <- norm2
I0710 11:13:25.902701 10362 net.cpp:380] pool2 -> pool2
I0710 11:13:25.902720 10362 net.cpp:122] Setting up pool2
I0710 11:13:25.902724 10362 net.cpp:129] Top shape: 64 256 13 13 (2768896)
I0710 11:13:25.902725 10362 net.cpp:137] Memory required for data: 434920448
I0710 11:13:25.902729 10362 layer_factory.cpp:63] Creating layer conv3
I0710 11:13:25.902734 10362 net.cpp:84] Creating Layer conv3
I0710 11:13:25.902735 10362 net.cpp:406] conv3 <- pool2
I0710 11:13:25.902738 10362 net.cpp:380] conv3 -> conv3
I0710 11:13:25.909687 10362 net.cpp:122] Setting up conv3
I0710 11:13:25.909699 10362 net.cpp:129] Top shape: 64 384 13 13 (4153344)
I0710 11:13:25.909701 10362 net.cpp:137] Memory required for data: 451533824
I0710 11:13:25.909708 10362 layer_factory.cpp:63] Creating layer relu3
I0710 11:13:25.909714 10362 net.cpp:84] Creating Layer relu3
I0710 11:13:25.909716 10362 net.cpp:406] relu3 <- conv3
I0710 11:13:25.909719 10362 net.cpp:367] relu3 -> conv3 (in-place)
I0710 11:13:25.909930 10362 net.cpp:122] Setting up relu3
I0710 11:13:25.909937 10362 net.cpp:129] Top shape: 64 384 13 13 (4153344)
I0710 11:13:25.909940 10362 net.cpp:137] Memory required for data: 468147200
I0710 11:13:25.909941 10362 layer_factory.cpp:63] Creating layer conv4
I0710 11:13:25.909947 10362 net.cpp:84] Creating Layer conv4
I0710 11:13:25.909950 10362 net.cpp:406] conv4 <- conv3
I0710 11:13:25.909953 10362 net.cpp:380] conv4 -> conv4
I0710 11:13:25.917112 10362 net.cpp:122] Setting up conv4
I0710 11:13:25.917125 10362 net.cpp:129] Top shape: 64 384 13 13 (4153344)
I0710 11:13:25.917129 10362 net.cpp:137] Memory required for data: 484760576
I0710 11:13:25.917134 10362 layer_factory.cpp:63] Creating layer relu4
I0710 11:13:25.917140 10362 net.cpp:84] Creating Layer relu4
I0710 11:13:25.917141 10362 net.cpp:406] relu4 <- conv4
I0710 11:13:25.917146 10362 net.cpp:367] relu4 -> conv4 (in-place)
I0710 11:13:25.917500 10362 net.cpp:122] Setting up relu4
I0710 11:13:25.917508 10362 net.cpp:129] Top shape: 64 384 13 13 (4153344)
I0710 11:13:25.917510 10362 net.cpp:137] Memory required for data: 501373952
I0710 11:13:25.917512 10362 layer_factory.cpp:63] Creating layer conv5
I0710 11:13:25.917520 10362 net.cpp:84] Creating Layer conv5
I0710 11:13:25.917522 10362 net.cpp:406] conv5 <- conv4
I0710 11:13:25.917526 10362 net.cpp:380] conv5 -> conv5
I0710 11:13:25.923466 10362 net.cpp:122] Setting up conv5
I0710 11:13:25.923480 10362 net.cpp:129] Top shape: 64 256 13 13 (2768896)
I0710 11:13:25.923481 10362 net.cpp:137] Memory required for data: 512449536
I0710 11:13:25.923489 10362 layer_factory.cpp:63] Creating layer relu5
I0710 11:13:25.923496 10362 net.cpp:84] Creating Layer relu5
I0710 11:13:25.923498 10362 net.cpp:406] relu5 <- conv5
I0710 11:13:25.923502 10362 net.cpp:367] relu5 -> conv5 (in-place)
I0710 11:13:25.923851 10362 net.cpp:122] Setting up relu5
I0710 11:13:25.923859 10362 net.cpp:129] Top shape: 64 256 13 13 (2768896)
I0710 11:13:25.923861 10362 net.cpp:137] Memory required for data: 523525120
I0710 11:13:25.923863 10362 layer_factory.cpp:63] Creating layer pool5
I0710 11:13:25.923867 10362 net.cpp:84] Creating Layer pool5
I0710 11:13:25.923871 10362 net.cpp:406] pool5 <- conv5
I0710 11:13:25.923874 10362 net.cpp:380] pool5 -> pool5
I0710 11:13:25.923899 10362 net.cpp:122] Setting up pool5
I0710 11:13:25.923903 10362 net.cpp:129] Top shape: 64 256 6 6 (589824)
I0710 11:13:25.923905 10362 net.cpp:137] Memory required for data: 525884416
I0710 11:13:25.923907 10362 layer_factory.cpp:63] Creating layer fc6
I0710 11:13:25.923914 10362 net.cpp:84] Creating Layer fc6
I0710 11:13:25.923918 10362 net.cpp:406] fc6 <- pool5
I0710 11:13:25.923921 10362 net.cpp:380] fc6 -> fc6
I0710 11:13:26.174516 10362 net.cpp:122] Setting up fc6
I0710 11:13:26.174532 10362 net.cpp:129] Top shape: 64 4096 (262144)
I0710 11:13:26.174535 10362 net.cpp:137] Memory required for data: 526932992
I0710 11:13:26.174541 10362 layer_factory.cpp:63] Creating layer relu6
I0710 11:13:26.174547 10362 net.cpp:84] Creating Layer relu6
I0710 11:13:26.174551 10362 net.cpp:406] relu6 <- fc6
I0710 11:13:26.174556 10362 net.cpp:367] relu6 -> fc6 (in-place)
I0710 11:13:26.174865 10362 net.cpp:122] Setting up relu6
I0710 11:13:26.174871 10362 net.cpp:129] Top shape: 64 4096 (262144)
I0710 11:13:26.174873 10362 net.cpp:137] Memory required for data: 527981568
I0710 11:13:26.174875 10362 layer_factory.cpp:63] Creating layer drop6
I0710 11:13:26.174883 10362 net.cpp:84] Creating Layer drop6
I0710 11:13:26.174885 10362 net.cpp:406] drop6 <- fc6
I0710 11:13:26.174890 10362 net.cpp:367] drop6 -> fc6 (in-place)
I0710 11:13:26.174908 10362 net.cpp:122] Setting up drop6
I0710 11:13:26.174912 10362 net.cpp:129] Top shape: 64 4096 (262144)
I0710 11:13:26.174914 10362 net.cpp:137] Memory required for data: 529030144
I0710 11:13:26.174916 10362 layer_factory.cpp:63] Creating layer fc7
I0710 11:13:26.174921 10362 net.cpp:84] Creating Layer fc7
I0710 11:13:26.174923 10362 net.cpp:406] fc7 <- fc6
I0710 11:13:26.174927 10362 net.cpp:380] fc7 -> fc7
I0710 11:13:26.286675 10362 net.cpp:122] Setting up fc7
I0710 11:13:26.286690 10362 net.cpp:129] Top shape: 64 4096 (262144)
I0710 11:13:26.286693 10362 net.cpp:137] Memory required for data: 530078720
I0710 11:13:26.286700 10362 layer_factory.cpp:63] Creating layer relu7
I0710 11:13:26.286707 10362 net.cpp:84] Creating Layer relu7
I0710 11:13:26.286710 10362 net.cpp:406] relu7 <- fc7
I0710 11:13:26.286715 10362 net.cpp:367] relu7 -> fc7 (in-place)
I0710 11:13:26.287163 10362 net.cpp:122] Setting up relu7
I0710 11:13:26.287171 10362 net.cpp:129] Top shape: 64 4096 (262144)
I0710 11:13:26.287173 10362 net.cpp:137] Memory required for data: 531127296
I0710 11:13:26.287175 10362 layer_factory.cpp:63] Creating layer drop7
I0710 11:13:26.287180 10362 net.cpp:84] Creating Layer drop7
I0710 11:13:26.287183 10362 net.cpp:406] drop7 <- fc7
I0710 11:13:26.287186 10362 net.cpp:367] drop7 -> fc7 (in-place)
I0710 11:13:26.287205 10362 net.cpp:122] Setting up drop7
I0710 11:13:26.287209 10362 net.cpp:129] Top shape: 64 4096 (262144)
I0710 11:13:26.287209 10362 net.cpp:137] Memory required for data: 532175872
I0710 11:13:26.287211 10362 layer_factory.cpp:63] Creating layer fc8_new
I0710 11:13:26.287217 10362 net.cpp:84] Creating Layer fc8_new
I0710 11:13:26.287220 10362 net.cpp:406] fc8_new <- fc7
I0710 11:13:26.287222 10362 net.cpp:380] fc8_new -> fc8_new
I0710 11:13:26.287345 10362 net.cpp:122] Setting up fc8_new
I0710 11:13:26.287351 10362 net.cpp:129] Top shape: 64 2 (128)
I0710 11:13:26.287353 10362 net.cpp:137] Memory required for data: 532176384
I0710 11:13:26.287356 10362 layer_factory.cpp:63] Creating layer loss
I0710 11:13:26.287364 10362 net.cpp:84] Creating Layer loss
I0710 11:13:26.287366 10362 net.cpp:406] loss <- fc8_new
I0710 11:13:26.287369 10362 net.cpp:406] loss <- label
I0710 11:13:26.287374 10362 net.cpp:380] loss -> loss
I0710 11:13:26.287384 10362 layer_factory.cpp:63] Creating layer loss
…
I0710 11:13:26.288126 10362 solver.cpp:172] Creating test net (#0) specified by net file: modeldef/AlexNet/train_val.prototxt
I0710 11:13:26.288146 10362 net.cpp:294] The NetState phase (1) differed from the phase (0) specified by a rule in layer data
I0710 11:13:26.288245 10362 net.cpp:51] Initializing net from parameters: 
name: "AlexNet"
state {
  phase: TEST
}
layer {
  name: "data"
  type: "Data"
  top: "data"
  top: "label"
  include {
    phase: TEST
  }
  transform_param {
    mirror: false
    crop_size: 227
    mean_file: "modeldef/mean.binaryproto"
  }
  data_param {
    source: "lmdb/val_lmdb"
    batch_size: 64
    backend: LMDB
  }
}
layer {
  name: "conv1"
  type: "Convolution"
  bottom: "data"
  top: "conv1"
  param {
    lr_mult: 1
    decay_mult: 1
  }
  param {
    lr_mult: 2
    decay_mult: 0
  }
  convolution_param {
    num_output: 96
    kernel_size: 11
    stride: 4
    weight_filler {
      type: "gaussian"
      std: 0.01
    }
    bias_filler {
      type: "constant"
      value: 0
    }
  }
}
layer {
  name: "relu1"
  type: "ReLU"
  bottom: "conv1"
  top: "conv1"
}
layer {
  name: "norm1"
  type: "LRN"
  bottom: "conv1"
  top: "norm1"
  lrn_param {
    local_size: 5
    alpha: 0.0001
    beta: 0.75
  }
}
layer {
  name: "pool1"
  type: "Pooling"
  bottom: "norm1"
  top: "pool1"
  pooling_param {
    pool: MAX
    kernel_size: 3
    stride: 2
  }
}
layer {
  name: "conv2"
  type: "Convolution"
  bottom: "pool1"
  top: "conv2"
  param {
    lr_mult: 1
    decay_mult: 1
  }
  param {
    lr_mult: 2
    decay_mult: 0
  }
  convolution_param {
    num_output: 256
    pad: 2
    kernel_size: 5
    group: 2
    weight_filler {
      type: "gaussian"
      std: 0.01
    }
    bias_filler {
      type: "constant"
      value: 0.1
    }
  }
}
layer {
  name: "relu2"
  type: "ReLU"
  bottom: "conv2"
  top: "conv2"
}
layer {
  name: "norm2"
  type: "LRN"
  bottom: "conv2"
  top: "norm2"
  lrn_param {
    local_size: 5
    alpha: 0.0001
    beta: 0.75
  }
}
layer {
  name: "pool2"
  type: "Pooling"
  bottom: "norm2"
  top: "pool2"
  pooling_param {
    pool: MAX
    kernel_size: 3
    stride: 2
  }
}
layer {
  name: "conv3"
  type: "Convolution"
  bottom: "pool2"
  top: "conv3"
  param {
    lr_mult: 1
    decay_mult: 1
  }
  param {
    lr_mult: 2
    decay_mult: 0
  }
  convolution_param {
    num_output: 384
    pad: 1
    kernel_size: 3
    weight_filler {
      type: "gaussian"
      std: 0.01
    }
    bias_filler {
      type: "constant"
      value: 0
    }
  }
}
layer {
  name: "relu3"
  type: "ReLU"
  bottom: "conv3"
  top: "conv3"
}
layer {
  name: "conv4"
  type: "Convolution"
  bottom: "conv3"
  top: "conv4"
  param {
    lr_mult: 1
    decay_mult: 1
  }
  param {
    lr_mult: 2
    decay_mult: 0
  }
  convolution_param {
    num_output: 384
    pad: 1
    kernel_size: 3
    group: 2
    weight_filler {
      type: "gaussian"
      std: 0.01
    }
    bias_filler {
      type: "constant"
      value: 0.1
    }
  }
}
layer {
  name: "relu4"
  type: "ReLU"
  bottom: "conv4"
  top: "conv4"
}
layer {
  name: "conv5"
  type: "Convolution"
  bottom: "conv4"
  top: "conv5"
  param {
    lr_mult: 1
    decay_mult: 1
  }
  param {
    lr_mult: 2
    decay_mult: 0
  }
  convolution_param {
    num_output: 256
    pad: 1
    kernel_size: 3
    group: 2
    weight_filler {
      type: "gaussian"
      std: 0.01
    }
    bias_filler {
      type: "constant"
      value: 0.1
    }
  }
}
layer {
  name: "relu5"
  type: "ReLU"
  bottom: "conv5"
  top: "conv5"
}
layer {
  name: "pool5"
  type: "Pooling"
  bottom: "conv5"
  top: "pool5"
  pooling_param {
    pool: MAX
    kernel_size: 3
    stride: 2
  }
}
layer {
  name: "fc6"
  type: "InnerProduct"
  bottom: "pool5"
  top: "fc6"
  param {
    lr_mult: 1
    decay_mult: 1
  }
  param {
    lr_mult: 2
    decay_mult: 0
  }
  inner_product_param {
    num_output: 4096
    weight_filler {
      type: "gaussian"
      std: 0.005
    }
    bias_filler {
      type: "constant"
      value: 0.1
    }
  }
}
layer {
  name: "relu6"
  type: "ReLU"
  bottom: "fc6"
  top: "fc6"
}
layer {
  name: "drop6"
  type: "Dropout"
  bottom: "fc6"
  top: "fc6"
  dropout_param {
    dropout_ratio: 0.5
  }
}
layer {
  name: "fc7"
  type: "InnerProduct"
  bottom: "fc6"
  top: "fc7"
  param {
    lr_mult: 1
    decay_mult: 1
  }
  param {
    lr_mult: 2
    decay_mult: 0
  }
  inner_product_param {
    num_output: 4096
    weight_filler {
      type: "gaussian"
      std: 0.005
    }
    bias_filler {
      type: "constant"
      value: 0.1
    }
  }
}
layer {
  name: "relu7"
  type: "ReLU"
  bottom: "fc7"
  top: "fc7"
}
layer {
  name: "drop7"
  type: "Dropout"
  bottom: "fc7"
  top: "fc7"
  dropout_param {
    dropout_ratio: 0.5
  }
}
layer {
  name: "fc8_new"
  type: "InnerProduct"
  bottom: "fc7"
  top: "fc8_new"
  param {
    lr_mult: 1
    decay_mult: 1
  }
  param {
    lr_mult: 2
    decay_mult: 0
  }
  inner_product_param {
    num_output: 2
    weight_filler {
      type: "gaussian"
      std: 0.01
    }
    bias_filler {
      type: "constant"
      value: 0
    }
  }
}
layer {
  name: "accuracy"
  type: "Accuracy"
  bottom: "fc8_new"
  bottom: "label"
  top: "accuracy"
  include {
    phase: TEST
  }
}
layer {
  name: "loss"
  type: "SoftmaxWithLoss"
  bottom: "fc8_new"
  bottom: "label"
  top: "loss"
}
I0710 11:13:26.288309 10362 layer_factory.cpp:63] Creating layer data
I0710 11:13:26.288483 10362 db_lmdb.cpp:40] Opened lmdb lmdb/val_lmdb
I0710 11:13:26.288493 10362 net.cpp:84] Creating Layer data
I0710 11:13:26.288498 10362 net.cpp:380] data -> data
I0710 11:13:26.288503 10362 net.cpp:380] data -> label
I0710 11:13:26.288507 10362 data_transformer.cpp:25] Loading mean file from: modeldef/mean.binaryproto
I0710 11:13:26.289599 10362 data_layer.cpp:45] output data size: 64,3,227,227
I0710 11:13:26.333245 10362 net.cpp:122] Setting up data
I0710 11:13:26.333262 10362 net.cpp:129] Top shape: 64 3 227 227 (9893568)
I0710 11:13:26.333264 10362 net.cpp:129] Top shape: 64 (64)
I0710 11:13:26.333266 10362 net.cpp:137] Memory required for data: 39574528
I0710 11:13:26.333271 10362 layer_factory.cpp:63] Creating layer label_data_1_split
I0710 11:13:26.333278 10362 net.cpp:84] Creating Layer label_data_1_split
I0710 11:13:26.333281 10362 net.cpp:406] label_data_1_split <- label
I0710 11:13:26.333287 10362 net.cpp:380] label_data_1_split -> label_data_1_split_0
I0710 11:13:26.333292 10362 net.cpp:380] label_data_1_split -> label_data_1_split_1
I0710 11:13:26.333329 10362 net.cpp:122] Setting up label_data_1_split
I0710 11:13:26.333333 10362 net.cpp:129] Top shape: 64 (64)
I0710 11:13:26.333335 10362 net.cpp:129] Top shape: 64 (64)
I0710 11:13:26.333338 10362 net.cpp:137] Memory required for data: 39575040
I0710 11:13:26.333339 10362 layer_factory.cpp:63] Creating layer conv1
I0710 11:13:26.333346 10362 net.cpp:84] Creating Layer conv1
I0710 11:13:26.333348 10362 net.cpp:406] conv1 <- data
I0710 11:13:26.333353 10362 net.cpp:380] conv1 -> conv1
I0710 11:13:26.337581 10362 net.cpp:122] Setting up conv1
I0710 11:13:26.337590 10362 net.cpp:129] Top shape: 64 96 55 55 (18585600)
I0710 11:13:26.337594 10362 net.cpp:137] Memory required for data: 113917440
I0710 11:13:26.337600 10362 layer_factory.cpp:63] Creating layer relu1
I0710 11:13:26.337604 10362 net.cpp:84] Creating Layer relu1
I0710 11:13:26.337606 10362 net.cpp:406] relu1 <- conv1
I0710 11:13:26.337610 10362 net.cpp:367] relu1 -> conv1 (in-place)
I0710 11:13:26.337919 10362 net.cpp:122] Setting up relu1
I0710 11:13:26.337926 10362 net.cpp:129] Top shape: 64 96 55 55 (18585600)
I0710 11:13:26.337929 10362 net.cpp:137] Memory required for data: 188259840
I0710 11:13:26.337930 10362 layer_factory.cpp:63] Creating layer norm1
I0710 11:13:26.337936 10362 net.cpp:84] Creating Layer norm1
I0710 11:13:26.337939 10362 net.cpp:406] norm1 <- conv1
I0710 11:13:26.337942 10362 net.cpp:380] norm1 -> norm1
I0710 11:13:26.338264 10362 net.cpp:122] Setting up norm1
I0710 11:13:26.338272 10362 net.cpp:129] Top shape: 64 96 55 55 (18585600)
I0710 11:13:26.338274 10362 net.cpp:137] Memory required for data: 262602240
I0710 11:13:26.338276 10362 layer_factory.cpp:63] Creating layer pool1
I0710 11:13:26.338280 10362 net.cpp:84] Creating Layer pool1
I0710 11:13:26.338282 10362 net.cpp:406] pool1 <- norm1
I0710 11:13:26.338285 10362 net.cpp:380] pool1 -> pool1
I0710 11:13:26.338306 10362 net.cpp:122] Setting up pool1
I0710 11:13:26.338311 10362 net.cpp:129] Top shape: 64 96 27 27 (4478976)
I0710 11:13:26.338313 10362 net.cpp:137] Memory required for data: 280518144
I0710 11:13:26.338315 10362 layer_factory.cpp:63] Creating layer conv2
I0710 11:13:26.338320 10362 net.cpp:84] Creating Layer conv2
I0710 11:13:26.338322 10362 net.cpp:406] conv2 <- pool1
I0710 11:13:26.338325 10362 net.cpp:380] conv2 -> conv2
I0710 11:13:26.343466 10362 net.cpp:122] Setting up conv2
I0710 11:13:26.343477 10362 net.cpp:129] Top shape: 64 256 27 27 (11943936)
I0710 11:13:26.343480 10362 net.cpp:137] Memory required for data: 328293888
I0710 11:13:26.343487 10362 layer_factory.cpp:63] Creating layer relu2
I0710 11:13:26.343492 10362 net.cpp:84] Creating Layer relu2
I0710 11:13:26.343495 10362 net.cpp:406] relu2 <- conv2
I0710 11:13:26.343502 10362 net.cpp:367] relu2 -> conv2 (in-place)
I0710 11:13:26.343866 10362 net.cpp:122] Setting up relu2
I0710 11:13:26.343874 10362 net.cpp:129] Top shape: 64 256 27 27 (11943936)
I0710 11:13:26.343876 10362 net.cpp:137] Memory required for data: 376069632
I0710 11:13:26.343892 10362 layer_factory.cpp:63] Creating layer norm2
I0710 11:13:26.343901 10362 net.cpp:84] Creating Layer norm2
I0710 11:13:26.343904 10362 net.cpp:406] norm2 <- conv2
I0710 11:13:26.343907 10362 net.cpp:380] norm2 -> norm2
I0710 11:13:26.344185 10362 net.cpp:122] Setting up norm2
I0710 11:13:26.344192 10362 net.cpp:129] Top shape: 64 256 27 27 (11943936)
I0710 11:13:26.344194 10362 net.cpp:137] Memory required for data: 423845376
I0710 11:13:26.344197 10362 layer_factory.cpp:63] Creating layer pool2
I0710 11:13:26.344200 10362 net.cpp:84] Creating Layer pool2
I0710 11:13:26.344203 10362 net.cpp:406] pool2 <- norm2
I0710 11:13:26.344206 10362 net.cpp:380] pool2 -> pool2
I0710 11:13:26.344228 10362 net.cpp:122] Setting up pool2
I0710 11:13:26.344231 10362 net.cpp:129] Top shape: 64 256 13 13 (2768896)
I0710 11:13:26.344233 10362 net.cpp:137] Memory required for data: 434920960
I0710 11:13:26.344235 10362 layer_factory.cpp:63] Creating layer conv3
I0710 11:13:26.344241 10362 net.cpp:84] Creating Layer conv3
I0710 11:13:26.344244 10362 net.cpp:406] conv3 <- pool2
I0710 11:13:26.344247 10362 net.cpp:380] conv3 -> conv3
I0710 11:13:26.353076 10362 net.cpp:122] Setting up conv3
I0710 11:13:26.353091 10362 net.cpp:129] Top shape: 64 384 13 13 (4153344)
I0710 11:13:26.353093 10362 net.cpp:137] Memory required for data: 451534336
I0710 11:13:26.353103 10362 layer_factory.cpp:63] Creating layer relu3
I0710 11:13:26.353111 10362 net.cpp:84] Creating Layer relu3
I0710 11:13:26.353113 10362 net.cpp:406] relu3 <- conv3
I0710 11:13:26.353118 10362 net.cpp:367] relu3 -> conv3 (in-place)
I0710 11:13:26.353492 10362 net.cpp:122] Setting up relu3
I0710 11:13:26.353500 10362 net.cpp:129] Top shape: 64 384 13 13 (4153344)
I0710 11:13:26.353503 10362 net.cpp:137] Memory required for data: 468147712
I0710 11:13:26.353505 10362 layer_factory.cpp:63] Creating layer conv4
I0710 11:13:26.353513 10362 net.cpp:84] Creating Layer conv4
I0710 11:13:26.353516 10362 net.cpp:406] conv4 <- conv3
I0710 11:13:26.353519 10362 net.cpp:380] conv4 -> conv4
I0710 11:13:26.365682 10362 net.cpp:122] Setting up conv4
I0710 11:13:26.365695 10362 net.cpp:129] Top shape: 64 384 13 13 (4153344)
I0710 11:13:26.365697 10362 net.cpp:137] Memory required for data: 484761088
I0710 11:13:26.365702 10362 layer_factory.cpp:63] Creating layer relu4
I0710 11:13:26.365708 10362 net.cpp:84] Creating Layer relu4
I0710 11:13:26.365710 10362 net.cpp:406] relu4 <- conv4
I0710 11:13:26.365715 10362 net.cpp:367] relu4 -> conv4 (in-place)
I0710 11:13:26.366072 10362 net.cpp:122] Setting up relu4
I0710 11:13:26.366082 10362 net.cpp:129] Top shape: 64 384 13 13 (4153344)
I0710 11:13:26.366086 10362 net.cpp:137] Memory required for data: 501374464
I0710 11:13:26.366087 10362 layer_factory.cpp:63] Creating layer conv5
I0710 11:13:26.366094 10362 net.cpp:84] Creating Layer conv5
I0710 11:13:26.366096 10362 net.cpp:406] conv5 <- conv4
I0710 11:13:26.366101 10362 net.cpp:380] conv5 -> conv5
I0710 11:13:26.372174 10362 net.cpp:122] Setting up conv5
I0710 11:13:26.372189 10362 net.cpp:129] Top shape: 64 256 13 13 (2768896)
I0710 11:13:26.372190 10362 net.cpp:137] Memory required for data: 512450048
I0710 11:13:26.372200 10362 layer_factory.cpp:63] Creating layer relu5
I0710 11:13:26.372205 10362 net.cpp:84] Creating Layer relu5
I0710 11:13:26.372208 10362 net.cpp:406] relu5 <- conv5
I0710 11:13:26.372212 10362 net.cpp:367] relu5 -> conv5 (in-place)
I0710 11:13:26.374557 10362 net.cpp:122] Setting up relu5
I0710 11:13:26.374567 10362 net.cpp:129] Top shape: 64 256 13 13 (2768896)
I0710 11:13:26.374569 10362 net.cpp:137] Memory required for data: 523525632
I0710 11:13:26.374572 10362 layer_factory.cpp:63] Creating layer pool5
I0710 11:13:26.374577 10362 net.cpp:84] Creating Layer pool5
I0710 11:13:26.374579 10362 net.cpp:406] pool5 <- conv5
I0710 11:13:26.374583 10362 net.cpp:380] pool5 -> pool5
I0710 11:13:26.374609 10362 net.cpp:122] Setting up pool5
I0710 11:13:26.374614 10362 net.cpp:129] Top shape: 64 256 6 6 (589824)
I0710 11:13:26.374615 10362 net.cpp:137] Memory required for data: 525884928
I0710 11:13:26.374630 10362 layer_factory.cpp:63] Creating layer fc6
I0710 11:13:26.374636 10362 net.cpp:84] Creating Layer fc6
I0710 11:13:26.374639 10362 net.cpp:406] fc6 <- pool5
I0710 11:13:26.374644 10362 net.cpp:380] fc6 -> fc6
I0710 11:13:26.626886 10362 net.cpp:122] Setting up fc6
I0710 11:13:26.626901 10362 net.cpp:129] Top shape: 64 4096 (262144)
I0710 11:13:26.626904 10362 net.cpp:137] Memory required for data: 526933504
I0710 11:13:26.626911 10362 layer_factory.cpp:63] Creating layer relu6
I0710 11:13:26.626919 10362 net.cpp:84] Creating Layer relu6
I0710 11:13:26.626921 10362 net.cpp:406] relu6 <- fc6
I0710 11:13:26.626926 10362 net.cpp:367] relu6 -> fc6 (in-place)
I0710 11:13:26.627379 10362 net.cpp:122] Setting up relu6
I0710 11:13:26.627388 10362 net.cpp:129] Top shape: 64 4096 (262144)
I0710 11:13:26.627389 10362 net.cpp:137] Memory required for data: 527982080
I0710 11:13:26.627393 10362 layer_factory.cpp:63] Creating layer drop6
I0710 11:13:26.627396 10362 net.cpp:84] Creating Layer drop6
I0710 11:13:26.627399 10362 net.cpp:406] drop6 <- fc6
I0710 11:13:26.627403 10362 net.cpp:367] drop6 -> fc6 (in-place)
I0710 11:13:26.627421 10362 net.cpp:122] Setting up drop6
I0710 11:13:26.627424 10362 net.cpp:129] Top shape: 64 4096 (262144)
I0710 11:13:26.627426 10362 net.cpp:137] Memory required for data: 529030656
I0710 11:13:26.627427 10362 layer_factory.cpp:63] Creating layer fc7
I0710 11:13:26.627434 10362 net.cpp:84] Creating Layer fc7
I0710 11:13:26.627436 10362 net.cpp:406] fc7 <- fc6
I0710 11:13:26.627439 10362 net.cpp:380] fc7 -> fc7
I0710 11:13:26.739315 10362 net.cpp:122] Setting up fc7
I0710 11:13:26.739331 10362 net.cpp:129] Top shape: 64 4096 (262144)
I0710 11:13:26.739333 10362 net.cpp:137] Memory required for data: 530079232
I0710 11:13:26.739341 10362 layer_factory.cpp:63] Creating layer relu7
I0710 11:13:26.739346 10362 net.cpp:84] Creating Layer relu7
I0710 11:13:26.739351 10362 net.cpp:406] relu7 <- fc7
I0710 11:13:26.739354 10362 net.cpp:367] relu7 -> fc7 (in-place)
I0710 11:13:26.739666 10362 net.cpp:122] Setting up relu7
I0710 11:13:26.739672 10362 net.cpp:129] Top shape: 64 4096 (262144)
I0710 11:13:26.739675 10362 net.cpp:137] Memory required for data: 531127808
I0710 11:13:26.739677 10362 layer_factory.cpp:63] Creating layer drop7
I0710 11:13:26.739682 10362 net.cpp:84] Creating Layer drop7
I0710 11:13:26.739684 10362 net.cpp:406] drop7 <- fc7
I0710 11:13:26.739687 10362 net.cpp:367] drop7 -> fc7 (in-place)
I0710 11:13:26.739706 10362 net.cpp:122] Setting up drop7
I0710 11:13:26.739708 10362 net.cpp:129] Top shape: 64 4096 (262144)
I0710 11:13:26.739711 10362 net.cpp:137] Memory required for data: 532176384
I0710 11:13:26.739712 10362 layer_factory.cpp:63] Creating layer fc8_new
I0710 11:13:26.739717 10362 net.cpp:84] Creating Layer fc8_new
I0710 11:13:26.739718 10362 net.cpp:406] fc8_new <- fc7
I0710 11:13:26.739722 10362 net.cpp:380] fc8_new -> fc8_new
I0710 11:13:26.739840 10362 net.cpp:122] Setting up fc8_new
I0710 11:13:26.739845 10362 net.cpp:129] Top shape: 64 2 (128)
I0710 11:13:26.739846 10362 net.cpp:137] Memory required for data: 532176896
I0710 11:13:26.739850 10362 layer_factory.cpp:63] Creating layer fc8_new_fc8_new_0_split
I0710 11:13:26.739854 10362 net.cpp:84] Creating Layer fc8_new_fc8_new_0_split
I0710 11:13:26.739856 10362 net.cpp:406] fc8_new_fc8_new_0_split <- fc8_new
I0710 11:13:26.739859 10362 net.cpp:380] fc8_new_fc8_new_0_split -> fc8_new_fc8_new_0_split_0
I0710 11:13:26.739863 10362 net.cpp:380] fc8_new_fc8_new_0_split -> fc8_new_fc8_new_0_split_1
I0710 11:13:26.739887 10362 net.cpp:122] Setting up fc8_new_fc8_new_0_split
I0710 11:13:26.739890 10362 net.cpp:129] Top shape: 64 2 (128)
I0710 11:13:26.739892 10362 net.cpp:129] Top shape: 64 2 (128)
I0710 11:13:26.739894 10362 net.cpp:137] Memory required for data: 532177920
I0710 11:13:26.739897 10362 layer_factory.cpp:63] Creating layer accuracy
I0710 11:13:26.739900 10362 net.cpp:84] Creating Layer accuracy
I0710 11:13:26.739902 10362 net.cpp:406] accuracy <- fc8_new_fc8_new_0_split_0
I0710 11:13:26.739905 10362 net.cpp:406] accuracy <- label_data_1_split_0
I0710 11:13:26.739922 10362 net.cpp:380] accuracy -> accuracy
…
