…
I1106 17:29:31.007674  9276 net.cpp:294] The NetState phase (0) differed from the phase (1) specified by a rule in layer data
I1106 17:29:31.007774  9276 net.cpp:51] Initializing net from parameters: 
name: "AlexNet"
state {
  phase: TRAIN
  level: 0
  stage: ""
}
layer {
  name: "data"
  type: "Data"
  top: "data"
  top: "label"
  include {
    phase: TRAIN
  }
  transform_param {
    mirror: true
    crop_size: 227
    mean_file: "modeldef/mean.binaryproto"
  }
  data_param {
    source: "lmdb/train_lmdb"
    batch_size: 64
    backend: LMDB
  }
}
layer {
  name: "conv1"
  type: "Convolution"
  bottom: "data"
  top: "conv1"
  param {
    lr_mult: 1
    decay_mult: 1
  }
  param {
    lr_mult: 2
    decay_mult: 0
  }
  convolution_param {
    num_output: 96
    kernel_size: 11
    stride: 4
    weight_filler {
      type: "gaussian"
      std: 0.01
    }
    bias_filler {
      type: "constant"
      value: 0
    }
  }
}
layer {
  name: "relu1"
  type: "ReLU"
  bottom: "conv1"
  top: "conv1"
}
layer {
  name: "norm1"
  type: "LRN"
  bottom: "conv1"
  top: "norm1"
  lrn_param {
    local_size: 5
    alpha: 0.0001
    beta: 0.75
  }
}
layer {
  name: "pool1"
  type: "Pooling"
  bottom: "norm1"
  top: "pool1"
  pooling_param {
    pool: MAX
    kernel_size: 3
    stride: 2
  }
}
layer {
  name: "conv2"
  type: "Convolution"
  bottom: "pool1"
  top: "conv2"
  param {
    lr_mult: 1
    decay_mult: 1
  }
  param {
    lr_mult: 2
    decay_mult: 0
  }
  convolution_param {
    num_output: 256
    pad: 2
    kernel_size: 5
    group: 2
    weight_filler {
      type: "gaussian"
      std: 0.01
    }
    bias_filler {
      type: "constant"
      value: 0.1
    }
  }
}
layer {
  name: "relu2"
  type: "ReLU"
  bottom: "conv2"
  top: "conv2"
}
layer {
  name: "norm2"
  type: "LRN"
  bottom: "conv2"
  top: "norm2"
  lrn_param {
    local_size: 5
    alpha: 0.0001
    beta: 0.75
  }
}
layer {
  name: "pool2"
  type: "Pooling"
  bottom: "norm2"
  top: "pool2"
  pooling_param {
    pool: MAX
    kernel_size: 3
    stride: 2
  }
}
layer {
  name: "conv3"
  type: "Convolution"
  bottom: "pool2"
  top: "conv3"
  param {
    lr_mult: 1
    decay_mult: 1
  }
  param {
    lr_mult: 2
    decay_mult: 0
  }
  convolution_param {
    num_output: 384
    pad: 1
    kernel_size: 3
    weight_filler {
      type: "gaussian"
      std: 0.01
    }
    bias_filler {
      type: "constant"
      value: 0
    }
  }
}
layer {
  name: "relu3"
  type: "ReLU"
  bottom: "conv3"
  top: "conv3"
}
layer {
  name: "conv4"
  type: "Convolution"
  bottom: "conv3"
  top: "conv4"
  param {
    lr_mult: 1
    decay_mult: 1
  }
  param {
    lr_mult: 2
    decay_mult: 0
  }
  convolution_param {
    num_output: 384
    pad: 1
    kernel_size: 3
    group: 2
    weight_filler {
      type: "gaussian"
      std: 0.01
    }
    bias_filler {
      type: "constant"
      value: 0.1
    }
  }
}
layer {
  name: "relu4"
  type: "ReLU"
  bottom: "conv4"
  top: "conv4"
}
layer {
  name: "conv5"
  type: "Convolution"
  bottom: "conv4"
  top: "conv5"
  param {
    lr_mult: 1
    decay_mult: 1
  }
  param {
    lr_mult: 2
    decay_mult: 0
  }
  convolution_param {
    num_output: 256
    pad: 1
    kernel_size: 3
    group: 2
    weight_filler {
      type: "gaussian"
      std: 0.01
    }
    bias_filler {
      type: "constant"
      value: 0.1
    }
  }
}
layer {
  name: "relu5"
  type: "ReLU"
  bottom: "conv5"
  top: "conv5"
}
layer {
  name: "pool5"
  type: "Pooling"
  bottom: "conv5"
  top: "pool5"
  pooling_param {
    pool: MAX
    kernel_size: 3
    stride: 2
  }
}
layer {
  name: "fc6"
  type: "InnerProduct"
  bottom: "pool5"
  top: "fc6"
  param {
    lr_mult: 1
    decay_mult: 1
  }
  param {
    lr_mult: 2
    decay_mult: 0
  }
  inner_product_param {
    num_output: 4096
    weight_filler {
      type: "gaussian"
      std: 0.005
    }
    bias_filler {
      type: "constant"
      value: 0.1
    }
  }
}
layer {
  name: "relu6"
  type: "ReLU"
  bottom: "fc6"
  top: "fc6"
}
layer {
  name: "drop6"
  type: "Dropout"
  bottom: "fc6"
  top: "fc6"
  dropout_param {
    dropout_ratio: 0.5
  }
}
layer {
  name: "fc7"
  type: "InnerProduct"
  bottom: "fc6"
  top: "fc7"
  param {
    lr_mult: 1
    decay_mult: 1
  }
  param {
    lr_mult: 2
    decay_mult: 0
  }
  inner_product_param {
    num_output: 4096
    weight_filler {
      type: "gaussian"
      std: 0.005
    }
    bias_filler {
      type: "constant"
      value: 0.1
    }
  }
}
layer {
  name: "relu7"
  type: "ReLU"
  bottom: "fc7"
  top: "fc7"
}
layer {
  name: "drop7"
  type: "Dropout"
  bottom: "fc7"
  top: "fc7"
  dropout_param {
    dropout_ratio: 0.5
  }
}
layer {
  name: "fc8_new"
  type: "InnerProduct"
  bottom: "fc7"
  top: "fc8_new"
  param {
    lr_mult: 1
    decay_mult: 1
  }
  param {
    lr_mult: 2
    decay_mult: 0
  }
  inner_product_param {
    num_output: 2
    weight_filler {
      type: "gaussian"
      std: 0.01
    }
    bias_filler {
      type: "constant"
      value: 0
    }
  }
}
layer {
  name: "accuracy"
  type: "Accuracy"
  bottom: "fc8_new"
  bottom: "label"
  top: "accuracy"
}
layer {
  name: "loss"
  type: "SoftmaxWithLoss"
  bottom: "fc8_new"
  bottom: "label"
  top: "loss"
}
I1106 17:29:31.007848  9276 layer_factory.cpp:63] Creating layer data
I1106 17:29:31.008829  9276 db_lmdb.cpp:40] Opened lmdb lmdb/train_lmdb
I1106 17:29:31.008852  9276 net.cpp:84] Creating Layer data
I1106 17:29:31.008857  9276 net.cpp:380] data -> data
I1106 17:29:31.008879  9276 net.cpp:380] data -> label
I1106 17:29:31.008889  9276 data_transformer.cpp:25] Loading mean file from: modeldef/mean.binaryproto
I1106 17:29:31.010713  9276 data_layer.cpp:45] output data size: 64,3,227,227
I1106 17:29:31.056041  9276 net.cpp:122] Setting up data
I1106 17:29:31.056059  9276 net.cpp:129] Top shape: 64 3 227 227 (9893568)
I1106 17:29:31.056062  9276 net.cpp:129] Top shape: 64 (64)
I1106 17:29:31.056064  9276 net.cpp:137] Memory required for data: 39574528
I1106 17:29:31.056072  9276 layer_factory.cpp:63] Creating layer label_data_1_split
I1106 17:29:31.056083  9276 net.cpp:84] Creating Layer label_data_1_split
I1106 17:29:31.056087  9276 net.cpp:406] label_data_1_split <- label
I1106 17:29:31.056095  9276 net.cpp:380] label_data_1_split -> label_data_1_split_0
I1106 17:29:31.056102  9276 net.cpp:380] label_data_1_split -> label_data_1_split_1
I1106 17:29:31.056159  9276 net.cpp:122] Setting up label_data_1_split
I1106 17:29:31.056164  9276 net.cpp:129] Top shape: 64 (64)
I1106 17:29:31.056165  9276 net.cpp:129] Top shape: 64 (64)
I1106 17:29:31.056169  9276 net.cpp:137] Memory required for data: 39575040
I1106 17:29:31.056170  9276 layer_factory.cpp:63] Creating layer conv1
I1106 17:29:31.056181  9276 net.cpp:84] Creating Layer conv1
I1106 17:29:31.056185  9276 net.cpp:406] conv1 <- data
I1106 17:29:31.056188  9276 net.cpp:380] conv1 -> conv1
I1106 17:29:31.468801  9276 net.cpp:122] Setting up conv1
I1106 17:29:31.468822  9276 net.cpp:129] Top shape: 64 96 55 55 (18585600)
I1106 17:29:31.468824  9276 net.cpp:137] Memory required for data: 113917440
I1106 17:29:31.468842  9276 layer_factory.cpp:63] Creating layer relu1
I1106 17:29:31.468849  9276 net.cpp:84] Creating Layer relu1
I1106 17:29:31.468852  9276 net.cpp:406] relu1 <- conv1
I1106 17:29:31.468856  9276 net.cpp:367] relu1 -> conv1 (in-place)
I1106 17:29:31.469175  9276 net.cpp:122] Setting up relu1
I1106 17:29:31.469184  9276 net.cpp:129] Top shape: 64 96 55 55 (18585600)
I1106 17:29:31.469187  9276 net.cpp:137] Memory required for data: 188259840
I1106 17:29:31.469189  9276 layer_factory.cpp:63] Creating layer norm1
I1106 17:29:31.469210  9276 net.cpp:84] Creating Layer norm1
I1106 17:29:31.469213  9276 net.cpp:406] norm1 <- conv1
I1106 17:29:31.469218  9276 net.cpp:380] norm1 -> norm1
I1106 17:29:31.469538  9276 net.cpp:122] Setting up norm1
I1106 17:29:31.469547  9276 net.cpp:129] Top shape: 64 96 55 55 (18585600)
I1106 17:29:31.469549  9276 net.cpp:137] Memory required for data: 262602240
I1106 17:29:31.469552  9276 layer_factory.cpp:63] Creating layer pool1
I1106 17:29:31.469555  9276 net.cpp:84] Creating Layer pool1
I1106 17:29:31.469558  9276 net.cpp:406] pool1 <- norm1
I1106 17:29:31.469561  9276 net.cpp:380] pool1 -> pool1
I1106 17:29:31.469586  9276 net.cpp:122] Setting up pool1
I1106 17:29:31.469589  9276 net.cpp:129] Top shape: 64 96 27 27 (4478976)
I1106 17:29:31.469592  9276 net.cpp:137] Memory required for data: 280518144
I1106 17:29:31.469594  9276 layer_factory.cpp:63] Creating layer conv2
I1106 17:29:31.469600  9276 net.cpp:84] Creating Layer conv2
I1106 17:29:31.469602  9276 net.cpp:406] conv2 <- pool1
I1106 17:29:31.469606  9276 net.cpp:380] conv2 -> conv2
I1106 17:29:31.474393  9276 net.cpp:122] Setting up conv2
I1106 17:29:31.474407  9276 net.cpp:129] Top shape: 64 256 27 27 (11943936)
I1106 17:29:31.474411  9276 net.cpp:137] Memory required for data: 328293888
I1106 17:29:31.474418  9276 layer_factory.cpp:63] Creating layer relu2
I1106 17:29:31.474424  9276 net.cpp:84] Creating Layer relu2
I1106 17:29:31.474426  9276 net.cpp:406] relu2 <- conv2
I1106 17:29:31.474431  9276 net.cpp:367] relu2 -> conv2 (in-place)
I1106 17:29:31.474792  9276 net.cpp:122] Setting up relu2
I1106 17:29:31.474800  9276 net.cpp:129] Top shape: 64 256 27 27 (11943936)
I1106 17:29:31.474803  9276 net.cpp:137] Memory required for data: 376069632
I1106 17:29:31.474805  9276 layer_factory.cpp:63] Creating layer norm2
I1106 17:29:31.474812  9276 net.cpp:84] Creating Layer norm2
I1106 17:29:31.474814  9276 net.cpp:406] norm2 <- conv2
I1106 17:29:31.474818  9276 net.cpp:380] norm2 -> norm2
I1106 17:29:31.475093  9276 net.cpp:122] Setting up norm2
I1106 17:29:31.475101  9276 net.cpp:129] Top shape: 64 256 27 27 (11943936)
I1106 17:29:31.475103  9276 net.cpp:137] Memory required for data: 423845376
I1106 17:29:31.475106  9276 layer_factory.cpp:63] Creating layer pool2
I1106 17:29:31.475109  9276 net.cpp:84] Creating Layer pool2
I1106 17:29:31.475111  9276 net.cpp:406] pool2 <- norm2
I1106 17:29:31.475116  9276 net.cpp:380] pool2 -> pool2
I1106 17:29:31.475136  9276 net.cpp:122] Setting up pool2
I1106 17:29:31.475139  9276 net.cpp:129] Top shape: 64 256 13 13 (2768896)
I1106 17:29:31.475142  9276 net.cpp:137] Memory required for data: 434920960
I1106 17:29:31.475143  9276 layer_factory.cpp:63] Creating layer conv3
I1106 17:29:31.475152  9276 net.cpp:84] Creating Layer conv3
I1106 17:29:31.475153  9276 net.cpp:406] conv3 <- pool2
I1106 17:29:31.475157  9276 net.cpp:380] conv3 -> conv3
I1106 17:29:31.482461  9276 net.cpp:122] Setting up conv3
I1106 17:29:31.482477  9276 net.cpp:129] Top shape: 64 384 13 13 (4153344)
I1106 17:29:31.482479  9276 net.cpp:137] Memory required for data: 451534336
I1106 17:29:31.482488  9276 layer_factory.cpp:63] Creating layer relu3
I1106 17:29:31.482496  9276 net.cpp:84] Creating Layer relu3
I1106 17:29:31.482498  9276 net.cpp:406] relu3 <- conv3
I1106 17:29:31.482503  9276 net.cpp:367] relu3 -> conv3 (in-place)
I1106 17:29:31.482779  9276 net.cpp:122] Setting up relu3
I1106 17:29:31.482785  9276 net.cpp:129] Top shape: 64 384 13 13 (4153344)
I1106 17:29:31.482789  9276 net.cpp:137] Memory required for data: 468147712
I1106 17:29:31.482790  9276 layer_factory.cpp:63] Creating layer conv4
I1106 17:29:31.482798  9276 net.cpp:84] Creating Layer conv4
I1106 17:29:31.482801  9276 net.cpp:406] conv4 <- conv3
I1106 17:29:31.482805  9276 net.cpp:380] conv4 -> conv4
I1106 17:29:31.490219  9276 net.cpp:122] Setting up conv4
I1106 17:29:31.490236  9276 net.cpp:129] Top shape: 64 384 13 13 (4153344)
I1106 17:29:31.490237  9276 net.cpp:137] Memory required for data: 484761088
I1106 17:29:31.490244  9276 layer_factory.cpp:63] Creating layer relu4
I1106 17:29:31.490265  9276 net.cpp:84] Creating Layer relu4
I1106 17:29:31.490268  9276 net.cpp:406] relu4 <- conv4
I1106 17:29:31.490274  9276 net.cpp:367] relu4 -> conv4 (in-place)
I1106 17:29:31.490633  9276 net.cpp:122] Setting up relu4
I1106 17:29:31.490640  9276 net.cpp:129] Top shape: 64 384 13 13 (4153344)
I1106 17:29:31.490643  9276 net.cpp:137] Memory required for data: 501374464
I1106 17:29:31.490645  9276 layer_factory.cpp:63] Creating layer conv5
I1106 17:29:31.490653  9276 net.cpp:84] Creating Layer conv5
I1106 17:29:31.490655  9276 net.cpp:406] conv5 <- conv4
I1106 17:29:31.490660  9276 net.cpp:380] conv5 -> conv5
I1106 17:29:31.496758  9276 net.cpp:122] Setting up conv5
I1106 17:29:31.496775  9276 net.cpp:129] Top shape: 64 256 13 13 (2768896)
I1106 17:29:31.496778  9276 net.cpp:137] Memory required for data: 512450048
I1106 17:29:31.496788  9276 layer_factory.cpp:63] Creating layer relu5
I1106 17:29:31.496794  9276 net.cpp:84] Creating Layer relu5
I1106 17:29:31.496798  9276 net.cpp:406] relu5 <- conv5
I1106 17:29:31.496801  9276 net.cpp:367] relu5 -> conv5 (in-place)
I1106 17:29:31.497169  9276 net.cpp:122] Setting up relu5
I1106 17:29:31.497177  9276 net.cpp:129] Top shape: 64 256 13 13 (2768896)
I1106 17:29:31.497180  9276 net.cpp:137] Memory required for data: 523525632
I1106 17:29:31.497182  9276 layer_factory.cpp:63] Creating layer pool5
I1106 17:29:31.497191  9276 net.cpp:84] Creating Layer pool5
I1106 17:29:31.497195  9276 net.cpp:406] pool5 <- conv5
I1106 17:29:31.497198  9276 net.cpp:380] pool5 -> pool5
I1106 17:29:31.497225  9276 net.cpp:122] Setting up pool5
I1106 17:29:31.497229  9276 net.cpp:129] Top shape: 64 256 6 6 (589824)
I1106 17:29:31.497231  9276 net.cpp:137] Memory required for data: 525884928
I1106 17:29:31.497233  9276 layer_factory.cpp:63] Creating layer fc6
I1106 17:29:31.497241  9276 net.cpp:84] Creating Layer fc6
I1106 17:29:31.497244  9276 net.cpp:406] fc6 <- pool5
I1106 17:29:31.497248  9276 net.cpp:380] fc6 -> fc6
I1106 17:29:31.751428  9276 net.cpp:122] Setting up fc6
I1106 17:29:31.751446  9276 net.cpp:129] Top shape: 64 4096 (262144)
I1106 17:29:31.751448  9276 net.cpp:137] Memory required for data: 526933504
I1106 17:29:31.751456  9276 layer_factory.cpp:63] Creating layer relu6
I1106 17:29:31.751464  9276 net.cpp:84] Creating Layer relu6
I1106 17:29:31.751467  9276 net.cpp:406] relu6 <- fc6
I1106 17:29:31.751472  9276 net.cpp:367] relu6 -> fc6 (in-place)
I1106 17:29:31.751791  9276 net.cpp:122] Setting up relu6
I1106 17:29:31.751798  9276 net.cpp:129] Top shape: 64 4096 (262144)
I1106 17:29:31.751801  9276 net.cpp:137] Memory required for data: 527982080
I1106 17:29:31.751806  9276 layer_factory.cpp:63] Creating layer drop6
I1106 17:29:31.751813  9276 net.cpp:84] Creating Layer drop6
I1106 17:29:31.751816  9276 net.cpp:406] drop6 <- fc6
I1106 17:29:31.751818  9276 net.cpp:367] drop6 -> fc6 (in-place)
I1106 17:29:31.751842  9276 net.cpp:122] Setting up drop6
I1106 17:29:31.751845  9276 net.cpp:129] Top shape: 64 4096 (262144)
I1106 17:29:31.751847  9276 net.cpp:137] Memory required for data: 529030656
I1106 17:29:31.751849  9276 layer_factory.cpp:63] Creating layer fc7
I1106 17:29:31.751855  9276 net.cpp:84] Creating Layer fc7
I1106 17:29:31.751857  9276 net.cpp:406] fc7 <- fc6
I1106 17:29:31.751860  9276 net.cpp:380] fc7 -> fc7
I1106 17:29:31.863745  9276 net.cpp:122] Setting up fc7
I1106 17:29:31.863765  9276 net.cpp:129] Top shape: 64 4096 (262144)
I1106 17:29:31.863766  9276 net.cpp:137] Memory required for data: 530079232
I1106 17:29:31.863775  9276 layer_factory.cpp:63] Creating layer relu7
I1106 17:29:31.863785  9276 net.cpp:84] Creating Layer relu7
I1106 17:29:31.863787  9276 net.cpp:406] relu7 <- fc7
I1106 17:29:31.863792  9276 net.cpp:367] relu7 -> fc7 (in-place)
I1106 17:29:31.864266  9276 net.cpp:122] Setting up relu7
I1106 17:29:31.864274  9276 net.cpp:129] Top shape: 64 4096 (262144)
I1106 17:29:31.864277  9276 net.cpp:137] Memory required for data: 531127808
I1106 17:29:31.864281  9276 layer_factory.cpp:63] Creating layer drop7
I1106 17:29:31.864286  9276 net.cpp:84] Creating Layer drop7
I1106 17:29:31.864301  9276 net.cpp:406] drop7 <- fc7
I1106 17:29:31.864306  9276 net.cpp:367] drop7 -> fc7 (in-place)
I1106 17:29:31.864325  9276 net.cpp:122] Setting up drop7
I1106 17:29:31.864328  9276 net.cpp:129] Top shape: 64 4096 (262144)
I1106 17:29:31.864331  9276 net.cpp:137] Memory required for data: 532176384
I1106 17:29:31.864333  9276 layer_factory.cpp:63] Creating layer fc8_new
I1106 17:29:31.864337  9276 net.cpp:84] Creating Layer fc8_new
I1106 17:29:31.864339  9276 net.cpp:406] fc8_new <- fc7
I1106 17:29:31.864344  9276 net.cpp:380] fc8_new -> fc8_new
I1106 17:29:31.864459  9276 net.cpp:122] Setting up fc8_new
I1106 17:29:31.864464  9276 net.cpp:129] Top shape: 64 2 (128)
I1106 17:29:31.864465  9276 net.cpp:137] Memory required for data: 532176896
I1106 17:29:31.864470  9276 layer_factory.cpp:63] Creating layer fc8_new_fc8_new_0_split
I1106 17:29:31.864473  9276 net.cpp:84] Creating Layer fc8_new_fc8_new_0_split
I1106 17:29:31.864475  9276 net.cpp:406] fc8_new_fc8_new_0_split <- fc8_new
I1106 17:29:31.864480  9276 net.cpp:380] fc8_new_fc8_new_0_split -> fc8_new_fc8_new_0_split_0
I1106 17:29:31.864483  9276 net.cpp:380] fc8_new_fc8_new_0_split -> fc8_new_fc8_new_0_split_1
I1106 17:29:31.864503  9276 net.cpp:122] Setting up fc8_new_fc8_new_0_split
I1106 17:29:31.864507  9276 net.cpp:129] Top shape: 64 2 (128)
I1106 17:29:31.864509  9276 net.cpp:129] Top shape: 64 2 (128)
I1106 17:29:31.864511  9276 net.cpp:137] Memory required for data: 532177920
I1106 17:29:31.864513  9276 layer_factory.cpp:63] Creating layer accuracy
I1106 17:29:31.864516  9276 net.cpp:84] Creating Layer accuracy
I1106 17:29:31.864518  9276 net.cpp:406] accuracy <- fc8_new_fc8_new_0_split_0
I1106 17:29:31.864521  9276 net.cpp:406] accuracy <- label_data_1_split_0
I1106 17:29:31.864524  9276 net.cpp:380] accuracy -> accuracy
…
