…
iter_size: 8
type: "Nesterov"
I0601 18:37:37.076045  6142 solver.cpp:77] Creating training net from train_net file: modeldef/MnasNet/train.prototxt
I0601 18:37:37.079419  6142 net.cpp:51] Initializing net from parameters: 
name: "MnasNet"
state {
  phase: TRAIN
  level: 0
  stage: ""
}
layer {
  name: "data"
  type: "Data"
  top: "data"
  top: "label"
  transform_param {
    scale: 0.00390625
    mirror: true
    crop_size: 224
  }
  data_param {
    source: "lmdb/train_lmdb"
    batch_size: 8
    backend: LMDB
  }
  image_data_param {
    shuffle: true
  }
}
layer {
  name: "conv1"
  type: "Convolution"
  bottom: "data"
  top: "conv1"
  convolution_param {
    num_output: 32
    bias_term: false
    pad: 1
    kernel_size: 3
    stride: 2
    weight_filler {
      type: "msra"
    }
  }
}
layer {
  name: "conv1/bn"
  type: "BatchNorm"
  bottom: "conv1"
  top: "conv1"
  batch_norm_param {
    use_global_stats: false
  }
}
layer {
  name: "conv1/scale"
  type: "Scale"
  bottom: "conv1"
  top: "conv1"
  scale_param {
    bias_term: true
  }
}
layer {
  name: "conv1/ReLU"
  type: "ReLU"
  bottom: "conv1"
  top: "conv1"
}
layer {
  name: "conv2_1/dw"
  type: "ConvolutionDepthwise"
  bottom: "conv1"
  top: "conv2_1/dw"
  convolution_param {
    num_output: 32
    bias_term: false
    pad: 1
    kernel_size: 3
    stride: 1
    weight_filler {
      type: "msra"
    }
  }
}
layer {
  name: "conv2_1/dw/bn"
  type: "BatchNorm"
  bottom: "conv2_1/dw"
  top: "conv2_1/dw"
  batch_norm_param {
    use_global_stats: false
  }
}
layer {
  name: "conv2_1/dw/scale"
  type: "Scale"
  bottom: "conv2_1/dw"
  top: "conv2_1/dw"
  scale_param {
    bias_term: true
  }
}
layer {
  name: "conv2_1/dw/ReLU"
  type: "ReLU"
  bottom: "conv2_1/dw"
  top: "conv2_1/dw"
}
layer {
  name: "conv2_1/sep"
  type: "Convolution"
  bottom: "conv2_1/dw"
  top: "conv2_1/sep"
  convolution_param {
    num_output: 16
    bias_term: false
    pad: 0
    kernel_size: 1
    stride: 1
    weight_filler {
      type: "msra"
    }
  }
}
layer {
  name: "conv2_1/sep/bn"
  type: "BatchNorm"
  bottom: "conv2_1/sep"
  top: "conv2_1/sep"
  batch_norm_param {
    use_global_stats: false
  }
}
layer {
  name: "conv2_1/sep/scale"
  type: "Scale"
  bottom: "conv2_1/sep"
  top: "conv2_1/sep"
  scale_param {
    bias_term: true
  }
}
layer {
  name: "conv2_1/sep/ReLU"
  type: "ReLU"
  bottom: "conv2_1/sep"
  top: "conv2_1/sep"
}
layer {
  name: "conv3_1/sep1"
  type: "Convolution"
  bottom: "conv2_1/sep"
  top: "conv3_1/sep1"
  convolution_param {
    num_output: 48
    bias_term: false
    pad: 0
    kernel_size: 1
    stride: 1
    weight_filler {
      type: "msra"
    }
  }
}
layer {
  name: "conv3_1/sep1/bn"
  type: "BatchNorm"
  bottom: "conv3_1/sep1"
  top: "conv3_1/sep1"
  batch_norm_param {
    use_global_stats: false
  }
}
layer {
  name: "conv3_1/sep1/scale"
  type: "Scale"
  bottom: "conv3_1/sep1"
  top: "conv3_1/sep1"
  scale_param {
    bias_term: true
  }
}
layer {
  name: "conv3_1/sep1/ReLU"
  type: "ReLU"
  bottom: "conv3_1/sep1"
  top: "conv3_1/sep1"
}
layer {
  name: "conv3_1/dw"
  type: "ConvolutionDepthwise"
  bottom: "conv3_1/sep1"
  top: "conv3_1/dw"
  convolution_param {
    num_output: 48
    bias_term: false
    pad: 1
    kernel_size: 3
    stride: 2
    weight_filler {
      type: "msra"
    }
  }
}
layer {
  name: "conv3_1/dw/bn"
  type: "BatchNorm"
  bottom: "conv3_1/dw"
  top: "conv3_1/dw"
  batch_norm_param {
    use_global_stats: false
  }
}
layer {
  name: "conv3_1/dw/scale"
  type: "Scale"
  bottom: "conv3_1/dw"
  top: "conv3_1/dw"
  scale_param {
    bias_term: true
  }
}
layer {
  name: "conv3_1/dw/ReLU"
  type: "ReLU"
  bottom: "conv3_1/dw"
  top: "conv3_1/dw"
}
layer {
  name: "conv3_1/sep2"
  type: "Convolution"
  bottom: "conv3_1/dw"
  top: "conv3_1/sep2"
  convolution_param {
    num_output: 24
    bias_term: false
    pad: 0
    kernel_size: 1
    stride: 1
    weight_filler {
      type: "msra"
    }
  }
}
layer {
  name: "conv3_1/sep2/bn"
  type: "BatchNorm"
  bottom: "conv3_1/sep2"
  top: "conv3_1/sep2"
  batch_norm_param {
    use_global_stats: false
  }
}
layer {
  name: "conv3_1/sep2/scale"
  type: "Scale"
  bottom: "conv3_1/sep2"
  top: "conv3_1/sep2"
  scale_param {
    bias_term: true
  }
}
layer {
  name: "conv3_1/sep2/ReLU"
  type: "ReLU"
  bottom: "conv3_1/sep2"
  top: "conv3_1/sep2"
}
layer {
  name: "conv3_2/sep1"
  type: "Convolution"
  bottom: "conv3_1/sep2"
  top: "conv3_2/sep1"
  convolution_param {
    num_output: 72
    bias_term: false
    pad: 0
    kernel_size: 1
    stride: 1
    weight_filler {
      type: "msra"
    }
  }
}
layer {
  name: "conv3_2/sep1/bn"
  type: "BatchNorm"
  bottom: "conv3_2/sep1"
  top: "conv3_2/sep1"
  batch_norm_param {
    use_global_stats: false
  }
}
layer {
  name: "conv3_2/sep1/scale"
  type: "Scale"
  bottom: "conv3_2/sep1"
  top: "conv3_2/sep1"
  scale_param {
    bias_term: true
  }
}
layer {
  name: "conv3_2/sep1/ReLU"
  type: "ReLU"
  bottom: "conv3_2/sep1"
  top: "conv3_2/sep1"
}
layer {
  name: "conv3_2/dw"
  type: "ConvolutionDepthwise"
  bottom: "conv3_2/sep1"
  top: "conv3_2/dw"
  convolution_param {
    num_output: 72
    bias_term: false
    pad: 1
    kernel_size: 3
    stride: 1
    weight_filler {
      type: "msra"
    }
  }
}
layer {
  name: "conv3_2/dw/bn"
  type: "BatchNorm"
  bottom: "conv3_2/dw"
  top: "conv3_2/dw"
  batch_norm_param {
    use_global_stats: false
  }
}
layer {
  name: "conv3_2/dw/scale"
  type: "Scale"
  bottom: "conv3_2/dw"
  top: "conv3_2/dw"
  scale_param {
    bias_term: true
  }
}
layer {
  name: "conv3_2/dw/ReLU"
  type: "ReLU"
  bottom: "conv3_2/dw"
  top: "conv3_2/dw"
}
layer {
  name: "conv3_2/sep2"
  type: "Convolution"
  bottom: "conv3_2/dw"
  top: "conv3_2/sep2"
  convolution_param {
    num_output: 24
    bias_term: false
    pad: 0
    kernel_size: 1
    stride: 1
    weight_filler {
      type: "msra"
    }
  }
}
layer {
  name: "conv3_2/sep2/bn"
  type: "BatchNorm"
  bottom: "conv3_2/sep2"
  top: "conv3_2/sep2"
  batch_norm_param {
    use_global_stats: false
  }
}
layer {
  name: "conv3_2/sep2/scale"
  type: "Scale"
  bottom: "conv3_2/sep2"
  top: "conv3_2/sep2"
  scale_param {
    bias_term: true
  }
}
layer {
  name: "conv3_2/Eltwise1"
  type: "Eltwise"
  bottom: "conv3_1/sep2"
  bottom: "conv3_2/sep2"
  top: "conv3_2/Eltwise1"
  eltwise_param {
    operation: SUM
  }
}
layer {
  name: "conv3_2/Eltwise/ReLU"
  type: "ReLU"
  bottom: "conv3_2/Eltwise1"
  top: "conv3_2/Eltwise1"
}
layer {
  name: "conv3_3/sep1"
  type: "Convolution"
  bottom: "conv3_2/Eltwise1"
  top: "conv3_3/sep1"
  convolution_param {
    num_output: 72
    bias_term: false
    pad: 0
    kernel_size: 1
    stride: 1
    weight_filler {
      type: "msra"
    }
  }
}
layer {
  name: "conv3_3/sep1/bn"
  type: "BatchNorm"
  bottom: "conv3_3/sep1"
  top: "conv3_3/sep1"
  batch_norm_param {
    use_global_stats: false
  }
}
layer {
  name: "conv3_3/sep1/scale"
  type: "Scale"
  bottom: "conv3_3/sep1"
  top: "conv3_3/sep1"
  scale_param {
    bias_term: true
  }
}
layer {
  name: "conv3_3/sep1/ReLU"
  type: "ReLU"
  bottom: "conv3_3/sep1"
  top: "conv3_3/sep1"
}
layer {
  name: "conv3_3/dw"
  type: "ConvolutionDepthwise"
  bottom: "conv3_3/sep1"
  top: "conv3_3/dw"
  convolution_param {
    num_output: 72
    bias_term: false
    pad: 1
    kernel_size: 3
    stride: 1
    weight_filler {
      type: "msra"
    }
  }
}
layer {
  name: "conv3_3/dw/bn"
  type: "BatchNorm"
  bottom: "conv3_3/dw"
  top: "conv3_3/dw"
  batch_norm_param {
    use_global_stats: false
  }
}
layer {
  name: "conv3_3/dw/scale"
  type: "Scale"
  bottom: "conv3_3/dw"
  top: "conv3_3/dw"
  scale_param {
    bias_term: true
  }
}
layer {
  name: "conv3_3/dw/ReLU"
  type: "ReLU"
  bottom: "conv3_3/dw"
  top: "conv3_3/dw"
}
layer {
  name: "conv3_3/sep2"
  type: "Convolution"
  bottom: "conv3_3/dw"
  top: "conv3_3/sep2"
  convolution_param {
    num_output: 24
    bias_term: false
    pad: 0
    kernel_size: 1
    stride: 1
    weight_filler {
      type: "msra"
    }
  }
}
layer {
  name: "conv3_3/sep2/bn"
  type: "BatchNorm"
  bottom: "conv3_3/sep2"
  top: "conv3_3/sep2"
  batch_norm_param {
    use_global_stats: false
  }
}
layer {
  name: "conv3_3/sep2/scale"
  type: "Scale"
  bottom: "conv3_3/sep2"
  top: "conv3_3/sep2"
  scale_param {
    bias_term: true
  }
}
layer {
  name: "conv3_3/Eltwise1"
  type: "Eltwise"
  bottom: "conv3_2/Eltwise1"
  bottom: "conv3_3/sep2"
  top: "conv3_3/Eltwise1"
  eltwise_param {
    operation: SUM
  }
}
layer {
  name: "conv3_3/Eltwise/ReLU"
  type: "ReLU"
  bottom: "conv3_3/Eltwise1"
  top: "conv3_3/Eltwise1"
}
layer {
  name: "conv4_1/sep1"
  type: "Convolution"
  bottom: "conv3_3/Eltwise1"
  top: "conv4_1/sep1"
  convolution_param {
    num_output: 72
    bias_term: false
    pad: 0
    kernel_size: 1
    stride: 1
    weight_filler {
      type: "msra"
    }
  }
}
layer {
  name: "conv4_1/sep1/bn"
  type: "BatchNorm"
  bottom: "conv4_1/sep1"
  top: "conv4_1/sep1"
  batch_norm_param {
    use_global_stats: false
  }
}
layer {
  name: "conv4_1/sep1/scale"
  type: "Scale"
  bottom: "conv4_1/sep1"
  top: "conv4_1/sep1"
  scale_param {
    bias_term: true
  }
}
layer {
  name: "conv4_1/sep1/ReLU"
  type: "ReLU"
  bottom: "conv4_1/sep1"
  top: "conv4_1/sep1"
}
layer {
  name: "conv4_1/dw"
  type: "ConvolutionDepthwise"
  bottom: "conv4_1/sep1"
  top: "conv4_1/dw"
  convolution_param {
    num_output: 72
    bias_term: false
    pad: 2
    kernel_size: 5
    stride: 2
    weight_filler {
      type: "msra"
    }
  }
}
layer {
  name: "conv4_1/dw/bn"
  type: "BatchNorm"
  bottom: "conv4_1/dw"
  top: "conv4_1/dw"
  batch_norm_param {
    use_global_stats: false
  }
}
layer {
  name: "conv4_1/dw/scale"
  type: "Scale"
  bottom: "conv4_1/dw"
  top: "conv4_1/dw"
  scale_param {
    bias_term: true
  }
}
layer {
  name: "conv4_1/dw/ReLU"
  type: "ReLU"
  bottom: "conv4_1/dw"
  top: "conv4_1/dw"
}
layer {
  name: "conv4_1/sep2"
  type: "Convolution"
  bottom: "conv4_1/dw"
  top: "conv4_1/sep2"
  convolution_param {
    num_output: 40
    bias_term: false
    pad: 0
    kernel_size: 1
    stride: 1
    weight_filler {
      type: "msra"
    }
  }
}
layer {
  name: "conv4_1/sep2/bn"
  type: "BatchNorm"
  bottom: "conv4_1/sep2"
  top: "conv4_1/sep2"
  batch_norm_param {
    use_global_stats: false
  }
}
layer {
  name: "conv4_1/sep2/scale"
  type: "Scale"
  bottom: "conv4_1/sep2"
  top: "conv4_1/sep2"
  scale_param {
    bias_term: true
  }
}
layer {
  name: "conv4_1/sep2/ReLU"
  type: "ReLU"
  bottom: "conv4_1/sep2"
  top: "conv4_1/sep2"
}
layer {
  name: "conv4_2/sep1"
  type: "Convolution"
  bottom: "conv4_1/sep2"
  top: "conv4_2/sep1"
  convolution_param {
    num_output: 120
    bias_term: false
    pad: 0
    kernel_size: 1
    stride: 1
    weight_filler {
      type: "msra"
    }
  }
}
layer {
  name: "conv4_2/sep1/bn"
  type: "BatchNorm"
  bottom: "conv4_2/sep1"
  top: "conv4_2/sep1"
  batch_norm_param {
    use_global_stats: false
  }
}
layer {
  name: "conv4_2/sep1/scale"
  type: "Scale"
  bottom: "conv4_2/sep1"
  top: "conv4_2/sep1"
  scale_param {
    bias_term: true
  }
}
layer {
  name: "conv4_2/sep1/ReLU"
  type: "ReLU"
  bottom: "conv4_2/sep1"
  top: "conv4_2/sep1"
}
layer {
  name: "conv4_2/dw"
  type: "ConvolutionDepthwise"
  bottom: "conv4_2/sep1"
  top: "conv4_2/dw"
  convolution_param {
    num_output: 120
    bias_term: false
    pad: 2
    kernel_size: 5
    stride: 1
    weight_filler {
      type: "msra"
    }
  }
}
layer {
  name: "conv4_2/dw/bn"
  type: "BatchNorm"
  bottom: "conv4_2/dw"
  top: "conv4_2/dw"
  batch_norm_param {
    use_global_stats: false
  }
}
layer {
  name: "conv4_2/dw/scale"
  type: "Scale"
  bottom: "conv4_2/dw"
  top: "conv4_2/dw"
  scale_param {
    bias_term: true
  }
}
layer {
  name: "conv4_2/dw/ReLU"
  type: "ReLU"
  bottom: "conv4_2/dw"
  top: "conv4_2/dw"
}
layer {
  name: "conv4_2/sep2"
  type: "Convolution"
  bottom: "conv4_2/dw"
  top: "conv4_2/sep2"
  convolution_param {
    num_output: 40
    bias_term: false
    pad: 0
    kernel_size: 1
    stride: 1
    weight_filler {
      type: "msra"
    }
  }
}
layer {
  name: "conv4_2/sep2/bn"
  type: "BatchNorm"
  bottom: "conv4_2/sep2"
  top: "conv4_2/sep2"
  batch_norm_param {
    use_global_stats: false
  }
}
layer {
  name: "conv4_2/sep2/scale"
  type: "Scale"
  bottom: "conv4_2/sep2"
  top: "conv4_2/sep2"
  scale_param {
    bias_term: true
  }
}
layer {
  name: "conv4_2/Eltwise1"
  type: "Eltwise"
  bottom: "conv4_1/sep2"
  bottom: "conv4_2/sep2"
  top: "conv4_2/Eltwise1"
  eltwise_param {
    operation: SUM
  }
}
layer {
  name: "conv4_2/Eltwise/ReLU"
  type: "ReLU"
  bottom: "conv4_2/Eltwise1"
  top: "conv4_2/Eltwise1"
}
layer {
  name: "conv4_3/sep1"
  type: "Convolution"
  bottom: "conv4_2/Eltwise1"
  top: "conv4_3/sep1"
  convolution_param {
    num_output: 120
    bias_term: false
    pad: 0
    kernel_size: 1
    stride: 1
    weight_filler {
      type: "msra"
    }
  }
}
layer {
  name: "conv4_3/sep1/bn"
  type: "BatchNorm"
  bottom: "conv4_3/sep1"
  top: "conv4_3/sep1"
  batch_norm_param {
    use_global_stats: false
  }
}
layer {
  name: "conv4_3/sep1/scale"
  type: "Scale"
  bottom: "conv4_3/sep1"
  top: "conv4_3/sep1"
  scale_param {
    bias_term: true
  }
}
layer {
  name: "conv4_3/sep1/ReLU"
  type: "ReLU"
  bottom: "conv4_3/sep1"
  top: "conv4_3/sep1"
}
layer {
  name: "conv4_3/dw"
  type: "ConvolutionDepthwise"
  bottom: "conv4_3/sep1"
  top: "conv4_3/dw"
  convolution_param {
    num_output: 120
    bias_term: false
    pad: 2
    kernel_size: 5
    stride: 1
    weight_filler {
      type: "msra"
    }
  }
}
layer {
  name: "conv4_3/dw/bn"
  type: "BatchNorm"
  bottom: "conv4_3/dw"
  top: "conv4_3/dw"
  batch_norm_param {
    use_global_stats: false
  }
}
layer {
  name: "conv4_3/dw/scale"
  type: "Scale"
  bottom: "conv4_3/dw"
  top: "conv4_3/dw"
  scale_param {
    bias_term: true
  }
}
layer {
  name: "conv4_3/dw/ReLU"
  type: "ReLU"
  bottom: "conv4_3/dw"
  top: "conv4_3/dw"
}
layer {
  name: "conv4_3/sep2"
  type: "Convolution"
  bottom: "conv4_3/dw"
  top: "conv4_3/sep2"
  convolution_param {
    num_output: 40
    bias_term: false
    pad: 0
    kernel_size: 1
    stride: 1
    weight_filler {
      type: "msra"
    }
  }
}
layer {
  name: "conv4_3/sep2/bn"
  type: "BatchNorm"
  bottom: "conv4_3/sep2"
  top: "conv4_3/sep2"
  batch_norm_param {
    use_global_stats: false
  }
}
layer {
  name: "conv4_3/sep2/scale"
  type: "Scale"
  bottom: "conv4_3/sep2"
  top: "conv4_3/sep2"
  scale_param {
    bias_term: true
  }
}
layer {
  name: "conv4_3/Eltwise1"
  type: "Eltwise"
  bottom: "conv4_2/Eltwise1"
  bottom: "conv4_3/sep2"
  top: "conv4_3/Eltwise1"
  eltwise_param {
    operation: SUM
  }
}
layer {
  name: "conv4_3/Eltwise/ReLU"
  type: "ReLU"
  bottom: "conv4_3/Eltwise1"
  top: "conv4_3/Eltwise1"
}
layer {
  name: "conv5_1/sep1"
  type: "Convolution"
  bottom: "conv4_3/Eltwise1"
  top: "conv5_1/sep1"
  convolution_param {
    num_output: 240
    bias_term: false
    pad: 0
    kernel_size: 1
    stride: 1
    weight_filler {
      type: "msra"
    }
  }
}
layer {
  name: "conv5_1/sep1/bn"
  type: "BatchNorm"
  bottom: "conv5_1/sep1"
  top: "conv5_1/sep1"
  batch_norm_param {
    use_global_stats: false
  }
}
layer {
  name: "conv5_1/sep1/scale"
  type: "Scale"
  bottom: "conv5_1/sep1"
  top: "conv5_1/sep1"
  scale_param {
    bias_term: true
  }
}
layer {
  name: "conv5_1/sep1/ReLU"
  type: "ReLU"
  bottom: "conv5_1/sep1"
  top: "conv5_1/sep1"
}
layer {
  name: "conv5_1/dw"
  type: "ConvolutionDepthwise"
  bottom: "conv5_1/sep1"
  top: "conv5_1/dw"
  convolution_param {
    num_output: 240
    bias_term: false
    pad: 2
    kernel_size: 5
    stride: 2
    weight_filler {
      type: "msra"
    }
  }
}
layer {
  name: "conv5_1/dw/bn"
  type: "BatchNorm"
  bottom: "conv5_1/dw"
  top: "conv5_1/dw"
  batch_norm_param {
    use_global_stats: false
  }
}
layer {
  name: "conv5_1/dw/scale"
  type: "Scale"
  bottom: "conv5_1/dw"
  top: "conv5_1/dw"
  scale_param {
    bias_term: true
  }
}
layer {
  name: "conv5_1/dw/ReLU"
  type: "ReLU"
  bottom: "conv5_1/dw"
  top: "conv5_1/dw"
}
layer {
  name: "conv5_1/sep2"
  type: "Convolution"
  bottom: "conv5_1/dw"
  top: "conv5_1/sep2"
  convolution_param {
    num_output: 80
    bias_term: false
    pad: 0
    kernel_size: 1
    stride: 1
    weight_filler {
      type: "msra"
    }
  }
}
layer {
  name: "conv5_1/sep2/bn"
  type: "BatchNorm"
  bottom: "conv5_1/sep2"
  top: "conv5_1/sep2"
  batch_norm_param {
    use_global_stats: false
  }
}
layer {
  name: "conv5_1/sep2/scale"
  type: "Scale"
  bottom: "conv5_1/sep2"
  top: "conv5_1/sep2"
  scale_param {
    bias_term: true
  }
}
layer {
  name: "conv5_1/sep2/ReLU"
  type: "ReLU"
  bottom: "conv5_1/sep2"
  top: "conv5_1/sep2"
}
layer {
  name: "conv5_2/sep1"
  type: "Convolution"
  bottom: "conv5_1/sep2"
  top: "conv5_2/sep1"
  convolution_param {
    num_output: 480
    bias_term: false
    pad: 0
    kernel_size: 1
    stride: 1
    weight_filler {
      type: "msra"
    }
  }
}
layer {
  name: "conv5_2/sep1/bn"
  type: "BatchNorm"
  bottom: "conv5_2/sep1"
  top: "conv5_2/sep1"
  batch_norm_param {
    use_global_stats: false
  }
}
layer {
  name: "conv5_2/sep1/scale"
  type: "Scale"
  bottom: "conv5_2/sep1"
  top: "conv5_2/sep1"
  scale_param {
    bias_term: true
  }
}
layer {
  name: "conv5_2/sep1/ReLU"
  type: "ReLU"
  bottom: "conv5_2/sep1"
  top: "conv5_2/sep1"
}
layer {
  name: "conv5_2/dw"
  type: "ConvolutionDepthwise"
  bottom: "conv5_2/sep1"
  top: "conv5_2/dw"
  convolution_param {
    num_output: 480
    bias_term: false
    pad: 2
    kernel_size: 5
    stride: 1
    weight_filler {
      type: "msra"
    }
  }
}
layer {
  name: "conv5_2/dw/bn"
  type: "BatchNorm"
  bottom: "conv5_2/dw"
  top: "conv5_2/dw"
  batch_norm_param {
    use_global_stats: false
  }
}
layer {
  name: "conv5_2/dw/scale"
  type: "Scale"
  bottom: "conv5_2/dw"
  top: "conv5_2/dw"
  scale_param {
    bias_term: true
  }
}
layer {
  name: "conv5_2/dw/ReLU"
  type: "ReLU"
  bottom: "conv5_2/dw"
  top: "conv5_2/dw"
}
layer {
  name: "conv5_2/sep2"
  type: "Convolution"
  bottom: "conv5_2/dw"
  top: "conv5_2/sep2"
  convolution_param {
    num_output: 80
    bias_term: false
    pad: 0
    kernel_size: 1
    stride: 1
    weight_filler {
      type: "msra"
    }
  }
}
layer {
  name: "conv5_2/sep2/bn"
  type: "BatchNorm"
  bottom: "conv5_2/sep2"
  top: "conv5_2/sep2"
  batch_norm_param {
    use_global_stats: false
  }
}
layer {
  name: "conv5_2/sep2/scale"
  type: "Scale"
  bottom: "conv5_2/sep2"
  top: "conv5_2/sep2"
  scale_param {
    bias_term: true
  }
}
layer {
  name: "conv5_2/Eltwise1"
  type: "Eltwise"
  bottom: "conv5_1/sep2"
  bottom: "conv5_2/sep2"
  top: "conv5_2/Eltwise1"
  eltwise_param {
    operation: SUM
  }
}
layer {
  name: "conv5_2/Eltwise/ReLU"
  type: "ReLU"
  bottom: "conv5_2/Eltwise1"
  top: "conv5_2/Eltwise1"
}
layer {
  name: "conv5_3/sep1"
  type: "Convolution"
  bottom: "conv5_2/Eltwise1"
  top: "conv5_3/sep1"
  convolution_param {
    num_output: 480
    bias_term: false
    pad: 0
    kernel_size: 1
    stride: 1
    weight_filler {
      type: "msra"
    }
  }
}
layer {
  name: "conv5_3/sep1/bn"
  type: "BatchNorm"
  bottom: "conv5_3/sep1"
  top: "conv5_3/sep1"
  batch_norm_param {
    use_global_stats: false
  }
}
layer {
  name: "conv5_3/sep1/scale"
  type: "Scale"
  bottom: "conv5_3/sep1"
  top: "conv5_3/sep1"
  scale_param {
    bias_term: true
  }
}
layer {
  name: "conv5_3/sep1/ReLU"
  type: "ReLU"
  bottom: "conv5_3/sep1"
  top: "conv5_3/sep1"
}
layer {
  name: "conv5_3/dw"
  type: "ConvolutionDepthwise"
  bottom: "conv5_3/sep1"
  top: "conv5_3/dw"
  convolution_param {
    num_output: 480
    bias_term: false
    pad: 2
    kernel_size: 5
    stride: 1
    weight_filler {
      type: "msra"
    }
  }
}
layer {
  name: "conv5_3/dw/bn"
  type: "BatchNorm"
  bottom: "conv5_3/dw"
  top: "conv5_3/dw"
  batch_norm_param {
    use_global_stats: false
  }
}
layer {
  name: "conv5_3/dw/scale"
  type: "Scale"
  bottom: "conv5_3/dw"
  top: "conv5_3/dw"
  scale_param {
    bias_term: true
  }
}
layer {
  name: "conv5_3/dw/ReLU"
  type: "ReLU"
  bottom: "conv5_3/dw"
  top: "conv5_3/dw"
}
layer {
  name: "conv5_3/sep2"
  type: "Convolution"
  bottom: "conv5_3/dw"
  top: "conv5_3/sep2"
  convolution_param {
    num_output: 80
    bias_term: false
    pad: 0
    kernel_size: 1
    stride: 1
    weight_filler {
      type: "msra"
    }
  }
}
layer {
  name: "conv5_3/sep2/bn"
  type: "BatchNorm"
  bottom: "conv5_3/sep2"
  top: "conv5_3/sep2"
  batch_norm_param {
    use_global_stats: false
  }
}
layer {
  name: "conv5_3/sep2/scale"
  type: "Scale"
  bottom: "conv5_3/sep2"
  top: "conv5_3/sep2"
  scale_param {
    bias_term: true
  }
}
layer {
  name: "conv5_3/Eltwise1"
  type: "Eltwise"
  bottom: "conv5_2/Eltwise1"
  bottom: "conv5_3/sep2"
  top: "conv5_3/Eltwise1"
  eltwise_param {
    operation: SUM
  }
}
layer {
  name: "conv5_3/Eltwise/ReLU"
  type: "ReLU"
  bottom: "conv5_3/Eltwise1"
  top: "conv5_3/Eltwise1"
}
layer {
  name: "conv6_1/sep1"
  type: "Convolution"
  bottom: "conv5_3/Eltwise1"
  top: "conv6_1/sep1"
  convolution_param {
    num_output: 480
    bias_term: false
    pad: 0
    kernel_size: 1
    stride: 1
    weight_filler {
      type: "msra"
    }
  }
}
layer {
  name: "conv6_1/sep1/bn"
  type: "BatchNorm"
  bottom: "conv6_1/sep1"
  top: "conv6_1/sep1"
  batch_norm_param {
    use_global_stats: false
  }
}
layer {
  name: "conv6_1/sep1/scale"
  type: "Scale"
  bottom: "conv6_1/sep1"
  top: "conv6_1/sep1"
  scale_param {
    bias_term: true
  }
}
layer {
  name: "conv6_1/sep1/ReLU"
  type: "ReLU"
  bottom: "conv6_1/sep1"
  top: "conv6_1/sep1"
}
layer {
  name: "conv6_1/dw"
  type: "ConvolutionDepthwise"
  bottom: "conv6_1/sep1"
  top: "conv6_1/dw"
  convolution_param {
    num_output: 480
    bias_term: false
    pad: 1
    kernel_size: 3
    stride: 1
    weight_filler {
      type: "msra"
    }
  }
}
layer {
  name: "conv6_1/dw/bn"
  type: "BatchNorm"
  bottom: "conv6_1/dw"
  top: "conv6_1/dw"
  batch_norm_param {
    use_global_stats: false
  }
}
layer {
  name: "conv6_1/dw/scale"
  type: "Scale"
  bottom: "conv6_1/dw"
  top: "conv6_1/dw"
  scale_param {
    bias_term: true
  }
}
layer {
  name: "conv6_1/dw/ReLU"
  type: "ReLU"
  bottom: "conv6_1/dw"
  top: "conv6_1/dw"
}
layer {
  name: "conv6_1/sep2"
  type: "Convolution"
  bottom: "conv6_1/dw"
  top: "conv6_1/sep2"
  convolution_param {
    num_output: 96
    bias_term: false
    pad: 0
    kernel_size: 1
    stride: 1
    weight_filler {
      type: "msra"
    }
  }
}
layer {
  name: "conv6_1/sep2/bn"
  type: "BatchNorm"
  bottom: "conv6_1/sep2"
  top: "conv6_1/sep2"
  batch_norm_param {
    use_global_stats: false
  }
}
layer {
  name: "conv6_1/sep2/scale"
  type: "Scale"
  bottom: "conv6_1/sep2"
  top: "conv6_1/sep2"
  scale_param {
    bias_term: true
  }
}
layer {
  name: "conv6_1/sep2/ReLU"
  type: "ReLU"
  bottom: "conv6_1/sep2"
  top: "conv6_1/sep2"
}
layer {
  name: "conv6_2/sep1"
  type: "Convolution"
  bottom: "conv6_1/sep2"
  top: "conv6_2/sep1"
  convolution_param {
    num_output: 576
    bias_term: false
    pad: 0
    kernel_size: 1
    stride: 1
    weight_filler {
      type: "msra"
    }
  }
}
layer {
  name: "conv6_2/sep1/bn"
  type: "BatchNorm"
  bottom: "conv6_2/sep1"
  top: "conv6_2/sep1"
  batch_norm_param {
    use_global_stats: false
  }
}
layer {
  name: "conv6_2/sep1/scale"
  type: "Scale"
  bottom: "conv6_2/sep1"
  top: "conv6_2/sep1"
  scale_param {
    bias_term: true
  }
}
layer {
  name: "conv6_2/sep1/ReLU"
  type: "ReLU"
  bottom: "conv6_2/sep1"
  top: "conv6_2/sep1"
}
layer {
  name: "conv6_2/dw"
  type: "ConvolutionDepthwise"
  bottom: "conv6_2/sep1"
  top: "conv6_2/dw"
  convolution_param {
    num_output: 576
    bias_term: false
    pad: 1
    kernel_size: 3
    stride: 1
    weight_filler {
      type: "msra"
    }
  }
}
layer {
  name: "conv6_2/dw/bn"
  type: "BatchNorm"
  bottom: "conv6_2/dw"
  top: "conv6_2/dw"
  batch_norm_param {
    use_global_stats: false
  }
}
layer {
  name: "conv6_2/dw/scale"
  type: "Scale"
  bottom: "conv6_2/dw"
  top: "conv6_2/dw"
  scale_param {
    bias_term: true
  }
}
layer {
  name: "conv6_2/dw/ReLU"
  type: "ReLU"
  bottom: "conv6_2/dw"
  top: "conv6_2/dw"
}
layer {
  name: "conv6_2/sep2"
  type: "Convolution"
  bottom: "conv6_2/dw"
  top: "conv6_2/sep2"
  convolution_param {
    num_output: 96
    bias_term: false
    pad: 0
    kernel_size: 1
    stride: 1
    weight_filler {
      type: "msra"
    }
  }
}
layer {
  name: "conv6_2/sep2/bn"
  type: "BatchNorm"
  bottom: "conv6_2/sep2"
  top: "conv6_2/sep2"
  batch_norm_param {
    use_global_stats: false
  }
}
layer {
  name: "conv6_2/sep2/scale"
  type: "Scale"
  bottom: "conv6_2/sep2"
  top: "conv6_2/sep2"
  scale_param {
    bias_term: true
  }
}
layer {
  name: "conv6_2/Eltwise1"
  type: "Eltwise"
  bottom: "conv6_1/sep2"
  bottom: "conv6_2/sep2"
  top: "conv6_2/Eltwise1"
  eltwise_param {
    operation: SUM
  }
}
layer {
  name: "conv6_2/Eltwise/ReLU"
  type: "ReLU"
  bottom: "conv6_2/Eltwise1"
  top: "conv6_2/Eltwise1"
}
layer {
  name: "conv7_1/sep1"
  type: "Convolution"
  bottom: "conv6_2/Eltwise1"
  top: "conv7_1/sep1"
  convolution_param {
    num_output: 576
    bias_term: false
    pad: 0
    kernel_size: 1
    stride: 1
    weight_filler {
      type: "msra"
    }
  }
}
layer {
  name: "conv7_1/sep1/bn"
  type: "BatchNorm"
  bottom: "conv7_1/sep1"
  top: "conv7_1/sep1"
  batch_norm_param {
    use_global_stats: false
  }
}
layer {
  name: "conv7_1/sep1/scale"
  type: "Scale"
  bottom: "conv7_1/sep1"
  top: "conv7_1/sep1"
  scale_param {
    bias_term: true
  }
}
layer {
  name: "conv7_1/sep1/ReLU"
  type: "ReLU"
  bottom: "conv7_1/sep1"
  top: "conv7_1/sep1"
}
layer {
  name: "conv7_1/dw"
  type: "ConvolutionDepthwise"
  bottom: "conv7_1/sep1"
  top: "conv7_1/dw"
  convolution_param {
    num_output: 576
    bias_term: false
    pad: 2
    kernel_size: 5
    stride: 2
    weight_filler {
      type: "msra"
    }
  }
}
layer {
  name: "conv7_1/dw/bn"
  type: "BatchNorm"
  bottom: "conv7_1/dw"
  top: "conv7_1/dw"
  batch_norm_param {
    use_global_stats: false
  }
}
layer {
  name: "conv7_1/dw/scale"
  type: "Scale"
  bottom: "conv7_1/dw"
  top: "conv7_1/dw"
  scale_param {
    bias_term: true
  }
}
layer {
  name: "conv7_1/dw/ReLU"
  type: "ReLU"
  bottom: "conv7_1/dw"
  top: "conv7_1/dw"
}
layer {
  name: "conv7_1/sep2"
  type: "Convolution"
  bottom: "conv7_1/dw"
  top: "conv7_1/sep2"
  convolution_param {
    num_output: 192
    bias_term: false
    pad: 0
    kernel_size: 1
    stride: 1
    weight_filler {
      type: "msra"
    }
  }
}
layer {
  name: "conv7_1/sep2/bn"
  type: "BatchNorm"
  bottom: "conv7_1/sep2"
  top: "conv7_1/sep2"
  batch_norm_param {
    use_global_stats: false
  }
}
layer {
  name: "conv7_1/sep2/scale"
  type: "Scale"
  bottom: "conv7_1/sep2"
  top: "conv7_1/sep2"
  scale_param {
    bias_term: true
  }
}
layer {
  name: "conv7_1/sep2/ReLU"
  type: "ReLU"
  bottom: "conv7_1/sep2"
  top: "conv7_1/sep2"
}
layer {
  name: "conv7_2/sep1"
  type: "Convolution"
  bottom: "conv7_1/sep2"
  top: "conv7_2/sep1"
  convolution_param {
    num_output: 1152
    bias_term: false
    pad: 0
    kernel_size: 1
    stride: 1
    weight_filler {
      type: "msra"
    }
  }
}
layer {
  name: "conv7_2/sep1/bn"
  type: "BatchNorm"
  bottom: "conv7_2/sep1"
  top: "conv7_2/sep1"
  batch_norm_param {
    use_global_stats: false
  }
}
layer {
  name: "conv7_2/sep1/scale"
  type: "Scale"
  bottom: "conv7_2/sep1"
  top: "conv7_2/sep1"
  scale_param {
    bias_term: true
  }
}
layer {
  name: "conv7_2/sep1/ReLU"
  type: "ReLU"
  bottom: "conv7_2/sep1"
  top: "conv7_2/sep1"
}
layer {
  name: "conv7_2/dw"
  type: "ConvolutionDepthwise"
  bottom: "conv7_2/sep1"
  top: "conv7_2/dw"
  convolution_param {
    num_output: 1152
    bias_term: false
    pad: 2
    kernel_size: 5
    stride: 1
    weight_filler {
      type: "msra"
    }
  }
}
layer {
  name: "conv7_2/dw/bn"
  type: "BatchNorm"
  bottom: "conv7_2/dw"
  top: "conv7_2/dw"
  batch_norm_param {
    use_global_stats: false
  }
}
layer {
  name: "conv7_2/dw/scale"
  type: "Scale"
  bottom: "conv7_2/dw"
  top: "conv7_2/dw"
  scale_param {
    bias_term: true
  }
}
layer {
  name: "conv7_2/dw/ReLU"
  type: "ReLU"
  bottom: "conv7_2/dw"
  top: "conv7_2/dw"
}
layer {
  name: "conv7_2/sep2"
  type: "Convolution"
  bottom: "conv7_2/dw"
  top: "conv7_2/sep2"
  convolution_param {
    num_output: 192
    bias_term: false
    pad: 0
    kernel_size: 1
    stride: 1
    weight_filler {
      type: "msra"
    }
  }
}
layer {
  name: "conv7_2/sep2/bn"
  type: "BatchNorm"
  bottom: "conv7_2/sep2"
  top: "conv7_2/sep2"
  batch_norm_param {
    use_global_stats: false
  }
}
layer {
  name: "conv7_2/sep2/scale"
  type: "Scale"
  bottom: "conv7_2/sep2"
  top: "conv7_2/sep2"
  scale_param {
    bias_term: true
  }
}
layer {
  name: "conv7_2/Eltwise1"
  type: "Eltwise"
  bottom: "conv7_1/sep2"
  bottom: "conv7_2/sep2"
  top: "conv7_2/Eltwise1"
  eltwise_param {
    operation: SUM
  }
}
layer {
  name: "conv7_2/Eltwise/ReLU"
  type: "ReLU"
  bottom: "conv7_2/Eltwise1"
  top: "conv7_2/Eltwise1"
}
layer {
  name: "conv7_3/sep1"
  type: "Convolution"
  bottom: "conv7_2/Eltwise1"
  top: "conv7_3/sep1"
  convolution_param {
    num_output: 1152
    bias_term: false
    pad: 0
    kernel_size: 1
    stride: 1
    weight_filler {
      type: "msra"
    }
  }
}
layer {
  name: "conv7_3/sep1/bn"
  type: "BatchNorm"
  bottom: "conv7_3/sep1"
  top: "conv7_3/sep1"
  batch_norm_param {
    use_global_stats: false
  }
}
layer {
  name: "conv7_3/sep1/scale"
  type: "Scale"
  bottom: "conv7_3/sep1"
  top: "conv7_3/sep1"
  scale_param {
    bias_term: true
  }
}
layer {
  name: "conv7_3/sep1/ReLU"
  type: "ReLU"
  bottom: "conv7_3/sep1"
  top: "conv7_3/sep1"
}
layer {
  name: "conv7_3/dw"
  type: "ConvolutionDepthwise"
  bottom: "conv7_3/sep1"
  top: "conv7_3/dw"
  convolution_param {
    num_output: 1152
    bias_term: false
    pad: 2
    kernel_size: 
I0601 18:37:37.080441  6142 layer_factory.cpp:63] Creating layer data
I0601 18:37:37.081041  6142 db_lmdb.cpp:40] Opened lmdb lmdb/train_lmdb
I0601 18:37:37.081089  6142 net.cpp:84] Creating Layer data
I0601 18:37:37.081100  6142 net.cpp:380] data -> data
I0601 18:37:37.081142  6142 net.cpp:380] data -> label
I0601 18:37:37.082295  6142 data_layer.cpp:45] output data size: 8,3,224,224
I0601 18:37:37.096004  6142 net.cpp:122] Setting up data
I0601 18:37:37.096058  6142 net.cpp:129] Top shape: 8 3 224 224 (1204224)
I0601 18:37:37.096068  6142 net.cpp:129] Top shape: 8 (8)
I0601 18:37:37.096073  6142 net.cpp:137] Memory required for data: 4816928
I0601 18:37:37.096088  6142 layer_factory.cpp:63] Creating layer conv1
I0601 18:37:37.096123  6142 net.cpp:84] Creating Layer conv1
I0601 18:37:37.096133  6142 net.cpp:406] conv1 <- data
I0601 18:37:37.096153  6142 net.cpp:380] conv1 -> conv1
I0601 18:37:37.994716  6142 net.cpp:122] Setting up conv1
I0601 18:37:37.994760  6142 net.cpp:129] Top shape: 8 32 112 112 (3211264)
I0601 18:37:37.994767  6142 net.cpp:137] Memory required for data: 17661984
I0601 18:37:37.994798  6142 layer_factory.cpp:63] Creating layer conv1/bn
I0601 18:37:37.994822  6142 net.cpp:84] Creating Layer conv1/bn
I0601 18:37:37.994829  6142 net.cpp:406] conv1/bn <- conv1
I0601 18:37:37.994839  6142 net.cpp:367] conv1/bn -> conv1 (in-place)
I0601 18:37:37.995136  6142 net.cpp:122] Setting up conv1/bn
I0601 18:37:37.995152  6142 net.cpp:129] Top shape: 8 32 112 112 (3211264)
I0601 18:37:37.995158  6142 net.cpp:137] Memory required for data: 30507040
I0601 18:37:37.995174  6142 layer_factory.cpp:63] Creating layer conv1/scale
I0601 18:37:37.995193  6142 net.cpp:84] Creating Layer conv1/scale
I0601 18:37:37.995198  6142 net.cpp:406] conv1/scale <- conv1
I0601 18:37:37.995206  6142 net.cpp:367] conv1/scale -> conv1 (in-place)
I0601 18:37:37.995275  6142 layer_factory.cpp:63] Creating layer conv1/scale
I0601 18:37:37.995450  6142 net.cpp:122] Setting up conv1/scale
I0601 18:37:37.995463  6142 net.cpp:129] Top shape: 8 32 112 112 (3211264)
I0601 18:37:37.995498  6142 net.cpp:137] Memory required for data: 43352096
I0601 18:37:37.995512  6142 layer_factory.cpp:63] Creating layer conv1/ReLU
I0601 18:37:37.995522  6142 net.cpp:84] Creating Layer conv1/ReLU
I0601 18:37:37.995528  6142 net.cpp:406] conv1/ReLU <- conv1
I0601 18:37:37.995535  6142 net.cpp:367] conv1/ReLU -> conv1 (in-place)
I0601 18:37:37.996307  6142 net.cpp:122] Setting up conv1/ReLU
I0601 18:37:37.996330  6142 net.cpp:129] Top shape: 8 32 112 112 (3211264)
I0601 18:37:37.996336  6142 net.cpp:137] Memory required for data: 56197152
I0601 18:37:37.996342  6142 layer_factory.cpp:63] Creating layer conv2_1/dw
I0601 18:37:37.996354  6142 net.cpp:84] Creating Layer conv2_1/dw
I0601 18:37:37.996361  6142 net.cpp:406] conv2_1/dw <- conv1
I0601 18:37:37.996369  6142 net.cpp:380] conv2_1/dw -> conv2_1/dw
I0601 18:37:37.996565  6142 net.cpp:122] Setting up conv2_1/dw
I0601 18:37:37.996583  6142 net.cpp:129] Top shape: 8 32 112 112 (3211264)
I0601 18:37:37.996589  6142 net.cpp:137] Memory required for data: 69042208
I0601 18:37:37.996598  6142 layer_factory.cpp:63] Creating layer conv2_1/dw/bn
I0601 18:37:37.996606  6142 net.cpp:84] Creating Layer conv2_1/dw/bn
I0601 18:37:37.996613  6142 net.cpp:406] conv2_1/dw/bn <- conv2_1/dw
I0601 18:37:37.996620  6142 net.cpp:367] conv2_1/dw/bn -> conv2_1/dw (in-place)
I0601 18:37:37.996888  6142 net.cpp:122] Setting up conv2_1/dw/bn
I0601 18:37:37.996901  6142 net.cpp:129] Top shape: 8 32 112 112 (3211264)
I0601 18:37:37.996906  6142 net.cpp:137] Memory required for data: 81887264
I0601 18:37:37.996922  6142 layer_factory.cpp:63] Creating layer conv2_1/dw/scale
I0601 18:37:37.996930  6142 net.cpp:84] Creating Layer conv2_1/dw/scale
I0601 18:37:37.996935  6142 net.cpp:406] conv2_1/dw/scale <- conv2_1/dw
I0601 18:37:37.996942  6142 net.cpp:367] conv2_1/dw/scale -> conv2_1/dw (in-place)
I0601 18:37:37.996996  6142 layer_factory.cpp:63] Creating layer conv2_1/dw/scale
I0601 18:37:37.997165  6142 net.cpp:122] Setting up conv2_1/dw/scale
I0601 18:37:37.997179  6142 net.cpp:129] Top shape: 8 32 112 112 (3211264)
I0601 18:37:37.997184  6142 net.cpp:137] Memory required for data: 94732320
I0601 18:37:37.997193  6142 layer_factory.cpp:63] Creating layer conv2_1/dw/ReLU
I0601 18:37:37.997203  6142 net.cpp:84] Creating Layer conv2_1/dw/ReLU
I0601 18:37:37.997210  6142 net.cpp:406] conv2_1/dw/ReLU <- conv2_1/dw
I0601 18:37:37.997216  6142 net.cpp:367] conv2_1/dw/ReLU -> conv2_1/dw (in-place)
I0601 18:37:37.997967  6142 net.cpp:122] Setting up conv2_1/dw/ReLU
I0601 18:37:37.997992  6142 net.cpp:129] Top shape: 8 32 112 112 (3211264)
I0601 18:37:37.997997  6142 net.cpp:137] Memory required for data: 107577376
I0601 18:37:37.998003  6142 layer_factory.cpp:63] Creating layer conv2_1/sep
I0601 18:37:37.998015  6142 net.cpp:84] Creating Layer conv2_1/sep
I0601 18:37:37.998021  6142 net.cpp:406] conv2_1/sep <- conv2_1/dw
I0601 18:37:37.998030  6142 net.cpp:380] conv2_1/sep -> conv2_1/sep
I0601 18:37:38.000546  6142 net.cpp:122] Setting up conv2_1/sep
I0601 18:37:38.000572  6142 net.cpp:129] Top shape: 8 16 112 112 (1605632)
I0601 18:37:38.000578  6142 net.cpp:137] Memory required for data: 113999904
I0601 18:37:38.000588  6142 layer_factory.cpp:63] Creating layer conv2_1/sep/bn
I0601 18:37:38.000598  6142 net.cpp:84] Creating Layer conv2_1/sep/bn
I0601 18:37:38.000603  6142 net.cpp:406] conv2_1/sep/bn <- conv2_1/sep
I0601 18:37:38.000612  6142 net.cpp:367] conv2_1/sep/bn -> conv2_1/sep (in-place)
I0601 18:37:38.000890  6142 net.cpp:122] Setting up conv2_1/sep/bn
I0601 18:37:38.000903  6142 net.cpp:129] Top shape: 8 16 112 112 (1605632)
I0601 18:37:38.000910  6142 net.cpp:137] Memory required for data: 120422432
I0601 18:37:38.000921  6142 layer_factory.cpp:63] Creating layer conv2_1/sep/scale
I0601 18:37:38.000931  6142 net.cpp:84] Creating Layer conv2_1/sep/scale
I0601 18:37:38.000936  6142 net.cpp:406] conv2_1/sep/scale <- conv2_1/sep
I0601 18:37:38.000942  6142 net.cpp:367] conv2_1/sep/scale -> conv2_1/sep (in-place)
I0601 18:37:38.000998  6142 layer_factory.cpp:63] Creating layer conv2_1/sep/scale
I0601 18:37:38.001188  6142 net.cpp:122] Setting up conv2_1/sep/scale
I0601 18:37:38.001199  6142 net.cpp:129] Top shape: 8 16 112 112 (1605632)
I0601 18:37:38.001204  6142 net.cpp:137] Memory required for data: 126844960
I0601 18:37:38.001219  6142 layer_factory.cpp:63] Creating layer conv2_1/sep/ReLU
I0601 18:37:38.001228  6142 net.cpp:84] Creating Layer conv2_1/sep/ReLU
I0601 18:37:38.001233  6142 net.cpp:406] conv2_1/sep/ReLU <- conv2_1/sep
I0601 18:37:38.001241  6142 net.cpp:367] conv2_1/sep/ReLU -> conv2_1/sep (in-place)
I0601 18:37:38.002003  6142 net.cpp:122] Setting up conv2_1/sep/ReLU
I0601 18:37:38.002027  6142 net.cpp:129] Top shape: 8 16 112 112 (1605632)
I0601 18:37:38.002033  6142 net.cpp:137] Memory required for data: 133267488
I0601 18:37:38.002038  6142 layer_factory.cpp:63] Creating layer conv3_1/sep1
I0601 18:37:38.002051  6142 net.cpp:84] Creating Layer conv3_1/sep1
I0601 18:37:38.002058  6142 net.cpp:406] conv3_1/sep1 <- conv2_1/sep
I0601 18:37:38.002068  6142 net.cpp:380] conv3_1/sep1 -> conv3_1/sep1
I0601 18:37:38.004948  6142 net.cpp:122] Setting up conv3_1/sep1
I0601 18:37:38.004974  6142 net.cpp:129] Top shape: 8 48 112 112 (4816896)
I0601 18:37:38.004981  6142 net.cpp:137] Memory required for data: 152535072
I0601 18:37:38.004989  6142 layer_factory.cpp:63] Creating layer conv3_1/sep1/bn
I0601 18:37:38.004999  6142 net.cpp:84] Creating Layer conv3_1/sep1/bn
I0601 18:37:38.005005  6142 net.cpp:406] conv3_1/sep1/bn <- conv3_1/sep1
I0601 18:37:38.005014  6142 net.cpp:367] conv3_1/sep1/bn -> conv3_1/sep1 (in-place)
I0601 18:37:38.005290  6142 net.cpp:122] Setting up conv3_1/sep1/bn
I0601 18:37:38.005304  6142 net.cpp:129] Top shape: 8 48 112 112 (4816896)
I0601 18:37:38.005309  6142 net.cpp:137] Memory required for data: 171802656
I0601 18:37:38.005321  6142 layer_factory.cpp:63] Creating layer conv3_1/sep1/scale
I0601 18:37:38.005331  6142 net.cpp:84] Creating Layer conv3_1/sep1/scale
I0601 18:37:38.005336  6142 net.cpp:406] conv3_1/sep1/scale <- conv3_1/sep1
I0601 18:37:38.005343  6142 net.cpp:367] conv3_1/sep1/scale -> conv3_1/sep1 (in-place)
I0601 18:37:38.005398  6142 layer_factory.cpp:63] Creating layer conv3_1/sep1/scale
I0601 18:37:38.005559  6142 net.cpp:122] Setting up conv3_1/sep1/scale
I0601 18:37:38.005573  6142 net.cpp:129] Top shape: 8 48 112 112 (4816896)
I0601 18:37:38.005579  6142 net.cpp:137] Memory required for data: 191070240
I0601 18:37:38.005589  6142 layer_factory.cpp:63] Creating layer conv3_1/sep1/ReLU
I0601 18:37:38.005599  6142 net.cpp:84] Creating Layer conv3_1/sep1/ReLU
I0601 18:37:38.005604  6142 net.cpp:406] conv3_1/sep1/ReLU <- conv3_1/sep1
I0601 18:37:38.005612  6142 net.cpp:367] conv3_1/sep1/ReLU -> conv3_1/sep1 (in-place)
I0601 18:37:38.006175  6142 net.cpp:122] Setting up conv3_1/sep1/ReLU
I0601 18:37:38.006194  6142 net.cpp:129] Top shape: 8 48 112 112 (4816896)
I0601 18:37:38.006201  6142 net.cpp:137] Memory required for data: 210337824
I0601 18:37:38.006206  6142 layer_factory.cpp:63] Creating layer conv3_1/dw
I0601 18:37:38.006217  6142 net.cpp:84] Creating Layer conv3_1/dw
I0601 18:37:38.006222  6142 net.cpp:406] conv3_1/dw <- conv3_1/sep1
I0601 18:37:38.006230  6142 net.cpp:380] conv3_1/dw -> conv3_1/dw
I0601 18:37:38.006400  6142 net.cpp:122] Setting up conv3_1/dw
I0601 18:37:38.006418  6142 net.cpp:129] Top shape: 8 48 56 56 (1204224)
I0601 18:37:38.006424  6142 net.cpp:137] Memory required for data: 215154720
I0601 18:37:38.006433  6142 layer_factory.cpp:63] Creating layer conv3_1/dw/bn
I0601 18:37:38.006441  6142 net.cpp:84] Creating Layer conv3_1/dw/bn
I0601 18:37:38.006446  6142 net.cpp:406] conv3_1/dw/bn <- conv3_1/dw
I0601 18:37:38.006454  6142 net.cpp:367] conv3_1/dw/bn -> conv3_1/dw (in-place)
I0601 18:37:38.006716  6142 net.cpp:122] Setting up conv3_1/dw/bn
I0601 18:37:38.006728  6142 net.cpp:129] Top shape: 8 48 56 56 (1204224)
I0601 18:37:38.006733  6142 net.cpp:137] Memory required for data: 219971616
I0601 18:37:38.006744  6142 layer_factory.cpp:63] Creating layer conv3_1/dw/scale
I0601 18:37:38.006775  6142 net.cpp:84] Creating Layer conv3_1/dw/scale
I0601 18:37:38.006781  6142 net.cpp:406] conv3_1/dw/scale <- conv3_1/dw
I0601 18:37:38.006788  6142 net.cpp:367] conv3_1/dw/scale -> conv3_1/dw (in-place)
I0601 18:37:38.006844  6142 layer_factory.cpp:63] Creating layer conv3_1/dw/scale
I0601 18:37:38.006992  6142 net.cpp:122] Setting up conv3_1/dw/scale
I0601 18:37:38.007002  6142 net.cpp:129] Top shape: 8 48 56 56 (1204224)
I0601 18:37:38.007007  6142 net.cpp:137] Memory required for data: 224788512
I0601 18:37:38.007017  6142 layer_factory.cpp:63] Creating layer conv3_1/dw/ReLU
I0601 18:37:38.007025  6142 net.cpp:84] Creating Layer conv3_1/dw/ReLU
I0601 18:37:38.007030  6142 net.cpp:406] conv3_1/dw/ReLU <- conv3_1/dw
I0601 18:37:38.007037  6142 net.cpp:367] conv3_1/dw/ReLU -> conv3_1/dw (in-place)
I0601 18:37:38.007792  6142 net.cpp:122] Setting up conv3_1/dw/ReLU
I0601 18:37:38.007817  6142 net.cpp:129] Top shape: 8 48 56 56 (1204224)
I0601 18:37:38.007822  6142 net.cpp:137] Memory required for data: 229605408
I0601 18:37:38.007828  6142 layer_factory.cpp:63] Creating layer conv3_1/sep2
I0601 18:37:38.007840  6142 net.cpp:84] Creating Layer conv3_1/sep2
I0601 18:37:38.007848  6142 net.cpp:406] conv3_1/sep2 <- conv3_1/dw
I0601 18:37:38.007856  6142 net.cpp:380] conv3_1/sep2 -> conv3_1/sep2
I0601 18:37:38.010304  6142 net.cpp:122] Setting up conv3_1/sep2
I0601 18:37:38.010329  6142 net.cpp:129] Top shape: 8 24 56 56 (602112)
I0601 18:37:38.010335  6142 net.cpp:137] Memory required for data: 232013856
I0601 18:37:38.010344  6142 layer_factory.cpp:63] Creating layer conv3_1/sep2/bn
I0601 18:37:38.010354  6142 net.cpp:84] Creating Layer conv3_1/sep2/bn
I0601 18:37:38.010360  6142 net.cpp:406] conv3_1/sep2/bn <- conv3_1/sep2
I0601 18:37:38.010368  6142 net.cpp:367] conv3_1/sep2/bn -> conv3_1/sep2 (in-place)
I0601 18:37:38.010635  6142 net.cpp:122] Setting up conv3_1/sep2/bn
I0601 18:37:38.010648  6142 net.cpp:129] Top shape: 8 24 56 56 (602112)
I0601 18:37:38.010654  6142 net.cpp:137] Memory required for data: 234422304
I0601 18:37:38.010669  6142 layer_factory.cpp:63] Creating layer conv3_1/sep2/scale
I0601 18:37:38.010679  6142 net.cpp:84] Creating Layer conv3_1/sep2/scale
I0601 18:37:38.010684  6142 net.cpp:406] conv3_1/sep2/scale <- conv3_1/sep2
I0601 18:37:38.010691  6142 net.cpp:367] conv3_1/sep2/scale -> conv3_1/sep2 (in-place)
I0601 18:37:38.010746  6142 layer_factory.cpp:63] Creating layer conv3_1/sep2/scale
I0601 18:37:38.010897  6142 net.cpp:122] Setting up conv3_1/sep2/scale
I0601 18:37:38.010910  6142 net.cpp:129] Top shape: 8 24 56 56 (602112)
I0601 18:37:38.010915  6142 net.cpp:137] Memory required for data: 236830752
I0601 18:37:38.010923  6142 layer_factory.cpp:63] Creating layer conv3_1/sep2/ReLU
I0601 18:37:38.010932  6142 net.cpp:84] Creating Layer conv3_1/sep2/ReLU
I0601 18:37:38.010937  6142 net.cpp:406] conv3_1/sep2/ReLU <- conv3_1/sep2
I0601 18:37:38.010944  6142 net.cpp:367] conv3_1/sep2/ReLU -> conv3_1/sep2 (in-place)
I0601 18:37:38.011721  6142 net.cpp:122] Setting up conv3_1/sep2/ReLU
I0601 18:37:38.011745  6142 net.cpp:129] Top shape: 8 24 56 56 (602112)
I0601 18:37:38.011751  6142 net.cpp:137] Memory required for data: 239239200
I0601 18:37:38.011757  6142 layer_factory.cpp:63] Creating layer conv3_1/sep2_conv3_1/sep2/ReLU_0_split
I0601 18:37:38.011775  6142 net.cpp:84] Creating Layer conv3_1/sep2_conv3_1/sep2/ReLU_0_split
I0601 18:37:38.011780  6142 net.cpp:406] conv3_1/sep2_conv3_1/sep2/ReLU_0_split <- conv3_1/sep2
I0601 18:37:38.011790  6142 net.cpp:380] conv3_1/sep2_conv3_1/sep2/ReLU_0_split -> conv3_1/sep2_conv3_1/sep2/ReLU_0_split_0
I0601 18:37:38.011802  6142 net.cpp:380] conv3_1/sep2_conv3_1/sep2/ReLU_0_split -> conv3_1/sep2_conv3_1/sep2/ReLU_0_split_1
I0601 18:37:38.011863  6142 net.cpp:122] Setting up conv3_1/sep2_conv3_1/sep2/ReLU_0_split
I0601 18:37:38.011873  6142 net.cpp:129] Top shape: 8 24 56 56 (602112)
I0601 18:37:38.011880  6142 net.cpp:129] Top shape: 8 24 56 56 (602112)
I0601 18:37:38.011885  6142 net.cpp:137] Memory required for data: 244056096
I0601 18:37:38.011909  6142 layer_factory.cpp:63] Creating layer conv3_2/sep1
I0601 18:37:38.011921  6142 net.cpp:84] Creating Layer conv3_2/sep1
I0601 18:37:38.011927  6142 net.cpp:406] conv3_2/sep1 <- conv3_1/sep2_conv3_1/sep2/ReLU_0_split_0
I0601 18:37:38.011936  6142 net.cpp:380] conv3_2/sep1 -> conv3_2/sep1
I0601 18:37:38.015100  6142 net.cpp:122] Setting up conv3_2/sep1
I0601 18:37:38.015125  6142 net.cpp:129] Top shape: 8 72 56 56 (1806336)
I0601 18:37:38.015130  6142 net.cpp:137] Memory required for data: 251281440
I0601 18:37:38.015139  6142 layer_factory.cpp:63] Creating layer conv3_2/sep1/bn
I0601 18:37:38.015149  6142 net.cpp:84] Creating Layer conv3_2/sep1/bn
I0601 18:37:38.015156  6142 net.cpp:406] conv3_2/sep1/bn <- conv3_2/sep1
I0601 18:37:38.015166  6142 net.cpp:367] conv3_2/sep1/bn -> conv3_2/sep1 (in-place)
I0601 18:37:38.015458  6142 net.cpp:122] Setting up conv3_2/sep1/bn
I0601 18:37:38.015472  6142 net.cpp:129] Top shape: 8 72 56 56 (1806336)
I0601 18:37:38.015477  6142 net.cpp:137] Memory required for data: 258506784
I0601 18:37:38.015488  6142 layer_factory.cpp:63] Creating layer conv3_2/sep1/scale
I0601 18:37:38.015497  6142 net.cpp:84] Creating Layer conv3_2/sep1/scale
I0601 18:37:38.015503  6142 net.cpp:406] conv3_2/sep1/scale <- conv3_2/sep1
I0601 18:37:38.015512  6142 net.cpp:367] conv3_2/sep1/scale -> conv3_2/sep1 (in-place)
I0601 18:37:38.015565  6142 layer_factory.cpp:63] Creating layer conv3_2/sep1/scale
I0601 18:37:38.015734  6142 net.cpp:122] Setting up conv3_2/sep1/scale
I0601 18:37:38.015748  6142 net.cpp:129] Top shape: 8 72 56 56 (1806336)
I0601 18:37:38.015753  6142 net.cpp:137] Memory required for data: 265732128
I0601 18:37:38.015761  6142 layer_factory.cpp:63] Creating layer conv3_2/sep1/ReLU
I0601 18:37:38.015769  6142 net.cpp:84] Creating Layer conv3_2/sep1/ReLU
I0601 18:37:38.015775  6142 net.cpp:406] conv3_2/sep1/ReLU <- conv3_2/sep1
I0601 18:37:38.015784  6142 net.cpp:367] conv3_2/sep1/ReLU -> conv3_2/sep1 (in-place)
I0601 18:37:38.016492  6142 net.cpp:122] Setting up conv3_2/sep1/ReLU
I0601 18:37:38.016515  6142 net.cpp:129] Top shape: 8 72 56 56 (1806336)
I0601 18:37:38.016520  6142 net.cpp:137] Memory required for data: 272957472
I0601 18:37:38.016525  6142 layer_factory.cpp:63] Creating layer conv3_2/dw
I0601 18:37:38.016535  6142 net.cpp:84] Creating Layer conv3_2/dw
I0601 18:37:38.016541  6142 net.cpp:406] conv3_2/dw <- conv3_2/sep1
I0601 18:37:38.016552  6142 net.cpp:380] conv3_2/dw -> conv3_2/dw
I0601 18:37:38.016739  6142 net.cpp:122] Setting up conv3_2/dw
I0601 18:37:38.016757  6142 net.cpp:129] Top shape: 8 72 56 56 (1806336)
I0601 18:37:38.016763  6142 net.cpp:137] Memory required for data: 280182816
I0601 18:37:38.016770  6142 layer_factory.cpp:63] Creating layer conv3_2/dw/bn
I0601 18:37:38.016780  6142 net.cpp:84] Creating Layer conv3_2/dw/bn
I0601 18:37:38.016786  6142 net.cpp:406] conv3_2/dw/bn <- conv3_2/dw
I0601 18:37:38.016795  6142 net.cpp:367] conv3_2/dw/bn -> conv3_2/dw (in-place)
I0601 18:37:38.017081  6142 net.cpp:122] Setting up conv3_2/dw/bn
I0601 18:37:38.017093  6142 net.cpp:129] Top shape: 8 72 56 56 (1806336)
I0601 18:37:38.017098  6142 net.cpp:137] Memory required for data: 287408160
I0601 18:37:38.017109  6142 layer_factory.cpp:63] Creating layer conv3_2/dw/scale
I0601 18:37:38.017123  6142 net.cpp:84] Creating Layer conv3_2/dw/scale
I0601 18:37:38.017128  6142 net.cpp:406] conv3_2/dw/scale <- conv3_2/dw
I0601 18:37:38.017136  6142 net.cpp:367] conv3_2/dw/scale -> conv3_2/dw (in-place)
I0601 18:37:38.017191  6142 layer_factory.cpp:63] Creating layer conv3_2/dw/scale
I0601 18:37:38.017359  6142 net.cpp:122] Setting up conv3_2/dw/scale
I0601 18:37:38.017371  6142 net.cpp:129] Top shape: 8 72 56 56 (1806336)
I0601 18:37:38.017377  6142 net.cpp:137] Memory required for data: 294633504
I0601 18:37:38.017386  6142 layer_factory.cpp:63] Creating layer conv3_2/dw/ReLU
I0601 18:37:38.017398  6142 net.cpp:84] Creating Layer conv3_2/dw/ReLU
I0601 18:37:38.017403  6142 net.cpp:406] conv3_2/dw/ReLU <- conv3_2/dw
I0601 18:37:38.017410  6142 net.cpp:367] conv3_2/dw/ReLU -> conv3_2/dw (in-place)
I0601 18:37:38.018324  6142 net.cpp:122] Setting up conv3_2/dw/ReLU
I0601 18:37:38.018347  6142 net.cpp:129] Top shape: 8 72 56 56 (1806336)
I0601 18:37:38.018352  6142 net.cpp:137] Memory required for data: 301858848
I0601 18:37:38.018358  6142 layer_factory.cpp:63] Creating layer conv3_2/sep2
I0601 18:37:38.018373  6142 net.cpp:84] Creating Layer conv3_2/sep2
I0601 18:37:38.018378  6142 net.cpp:406] conv3_2/sep2 <- conv3_2/dw
I0601 18:37:38.018390  6142 net.cpp:380] conv3_2/sep2 -> conv3_2/sep2
I0601 18:37:38.021404  6142 net.cpp:122] Setting up conv3_2/sep2
I0601 18:37:38.021430  6142 net.cpp:129] Top shape: 8 24 56 56 (602112)
I0601 18:37:38.021435  6142 net.cpp:137] Memory required for data: 304267296
I0601 18:37:38.021443  6142 layer_factory.cpp:63] Creating layer conv3_2/sep2/bn
I0601 18:37:38.021456  6142 net.cpp:84] Creating Layer conv3_2/sep2/bn
I0601 18:37:38.021462  6142 net.cpp:406] conv3_2/sep2/bn <- conv3_2/sep2
I0601 18:37:38.021471  6142 net.cpp:367] conv3_2/sep2/bn -> conv3_2/sep2 (in-place)
I0601 18:37:38.021766  6142 net.cpp:122] Setting up conv3_2/sep2/bn
I0601 18:37:38.021780  6142 net.cpp:129] Top shape: 8 24 56 56 (602112)
I0601 18:37:38.021785  6142 net.cpp:137] Memory required for data: 306675744
I0601 18:37:38.021796  6142 layer_factory.cpp:63] Creating layer conv3_2/sep2/scale
I0601 18:37:38.021806  6142 net.cpp:84] Creating Layer conv3_2/sep2/scale
I0601 18:37:38.021811  6142 net.cpp:406] conv3_2/sep2/scale <- conv3_2/sep2
I0601 18:37:38.021818  6142 net.cpp:367] conv3_2/sep2/scale -> conv3_2/sep2 (in-place)
I0601 18:37:38.021879  6142 layer_factory.cpp:63] Creating layer conv3_2/sep2/scale
I0601 18:37:38.022049  6142 net.cpp:122] Setting up conv3_2/sep2/scale
I0601 18:37:38.022064  6142 net.cpp:129] Top shape: 8 24 56 56 (602112)
I0601 18:37:38.022069  6142 net.cpp:137] Memory required for data: 309084192
I0601 18:37:38.022078  6142 layer_factory.cpp:63] Creating layer conv3_2/Eltwise1
I0601 18:37:38.022097  6142 net.cpp:84] Creating Layer conv3_2/Eltwise1
I0601 18:37:38.022104  6142 net.cpp:406] conv3_2/Eltwise1 <- conv3_1/sep2_conv3_1/sep2/ReLU_0_split_1
I0601 18:37:38.022110  6142 net.cpp:406] conv3_2/Eltwise1 <- conv3_2/sep2
I0601 18:37:38.022119  6142 net.cpp:380] conv3_2/Eltwise1 -> conv3_2/Eltwise1
I0601 18:37:38.022163  6142 net.cpp:122] Setting up conv3_2/Eltwise1
I0601 18:37:38.022173  6142 net.cpp:129] Top shape: 8 24 56 56 (602112)
I0601 18:37:38.022177  6142 net.cpp:137] Memory required for data: 311492640
I0601 18:37:38.022182  6142 layer_factory.cpp:63] Creating layer conv3_2/Eltwise/ReLU
I0601 18:37:38.022195  6142 net.cpp:84] Creating Layer conv3_2/Eltwise/ReLU
I0601 18:37:38.022202  6142 net.cpp:406] conv3_2/Eltwise/ReLU <- conv3_2/Eltwise1
I0601 18:37:38.022208  6142 net.cpp:367] conv3_2/Eltwise/ReLU -> conv3_2/Eltwise1 (in-place)
I0601 18:37:38.022917  6142 net.cpp:122] Setting up conv3_2/Eltwise/ReLU
I0601 18:37:38.022938  6142 net.cpp:129] Top shape: 8 24 56 56 (602112)
I0601 18:37:38.022943  6142 net.cpp:137] Memory required for data: 313901088
I0601 18:37:38.022948  6142 layer_factory.cpp:63] Creating layer conv3_2/Eltwise1_conv3_2/Eltwise/ReLU_0_split
I0601 18:37:38.022958  6142 net.cpp:84] Creating Layer conv3_2/Eltwise1_conv3_2/Eltwise/ReLU_0_split
I0601 18:37:38.022963  6142 net.cpp:406] conv3_2/Eltwise1_conv3_2/Eltwise/ReLU_0_split <- conv3_2/Eltwise1
I0601 18:37:38.022974  6142 net.cpp:380] conv3_2/Eltwise1_conv3_2/Eltwise/ReLU_0_split -> conv3_2/Eltwise1_conv3_2/Eltwise/ReLU_0_split_0
I0601 18:37:38.022985  6142 net.cpp:380] conv3_2/Eltwise1_conv3_2/Eltwise/ReLU_0_split -> conv3_2/Eltwise1_conv3_2/Eltwise/ReLU_0_split_1
I0601 18:37:38.023048  6142 net.cpp:122] Setting up conv3_2/Eltwise1_conv3_2/Eltwise/ReLU_0_split
I0601 18:37:38.023069  6142 net.cpp:129] Top shape: 8 24 56 56 (602112)
I0601 18:37:38.023077  6142 net.cpp:129] Top shape: 8 24 56 56 (602112)
I0601 18:37:38.023082  6142 net.cpp:137] Memory required for data: 318717984
I0601 18:37:38.023087  6142 layer_factory.cpp:63] Creating layer conv3_3/sep1
I0601 18:37:38.023104  6142 net.cpp:84] Creating Layer conv3_3/sep1
I0601 18:37:38.023128  6142 net.cpp:406] conv3_3/sep1 <- conv3_2/Eltwise1_conv3_2/Eltwise/ReLU_0_split_0
I0601 18:37:38.023138  6142 net.cpp:380] conv3_3/sep1 -> conv3_3/sep1
I0601 18:37:38.026813  6142 net.cpp:122] Setting up conv3_3/sep1
I0601 18:37:38.026839  6142 net.cpp:129] Top shape: 8 72 56 56 (1806336)
I0601 18:37:38.026845  6142 net.cpp:137] Memory required for data: 325943328
I0601 18:37:38.026854  6142 layer_factory.cpp:63] Creating layer conv3_3/sep1/bn
I0601 18:37:38.026867  6142 net.cpp:84] Creating Layer conv3_3/sep1/bn
I0601 18:37:38.026873  6142 net.cpp:406] conv3_3/sep1/bn <- conv3_3/sep1
I0601 18:37:38.026882  6142 net.cpp:367] conv3_3/sep1/bn -> conv3_3/sep1 (in-place)
I0601 18:37:38.027197  6142 net.cpp:122] Setting up conv3_3/sep1/bn
I0601 18:37:38.027213  6142 net.cpp:129] Top shape: 8 72 56 56 (1806336)
I0601 18:37:38.027218  6142 net.cpp:137] Memory required for data: 333168672
I0601 18:37:38.027230  6142 layer_factory.cpp:63] Creating layer conv3_3/sep1/scale
I0601 18:37:38.027240  6142 net.cpp:84] Creating Layer conv3_3/sep1/scale
I0601 18:37:38.027245  6142 net.cpp:406] conv3_3/sep1/scale <- conv3_3/sep1
I0601 18:37:38.027251  6142 net.cpp:367] conv3_3/sep1/scale -> conv3_3/sep1 (in-place)
I0601 18:37:38.027310  6142 layer_factory.cpp:63] Creating layer conv3_3/sep1/scale
I0601 18:37:38.028134  6142 net.cpp:122] Setting up conv3_3/sep1/scale
I0601 18:37:38.028157  6142 net.cpp:129] Top shape: 8 72 56 56 (1806336)
I0601 18:37:38.028162  6142 net.cpp:137] Memory required for data: 340394016
I0601 18:37:38.028173  6142 layer_factory.cpp:63] Creating layer conv3_3/sep1/ReLU
I0601 18:37:38.028182  6142 net.cpp:84] Creating Layer conv3_3/sep1/ReLU
I0601 18:37:38.028188  6142 net.cpp:406] conv3_3/sep1/ReLU <- conv3_3/sep1
I0601 18:37:38.028199  6142 net.cpp:367] conv3_3/sep1/ReLU -> conv3_3/sep1 (in-place)
I0601 18:37:38.029099  6142 net.cpp:122] Setting up conv3_3/sep1/ReLU
I0601 18:37:38.029126  6142 net.cpp:129] Top shape: 8 72 56 56 (1806336)
I0601 18:37:38.029131  6142 net.cpp:137] Memory required for data: 347619360
I0601 18:37:38.029137  6142 layer_factory.cpp:63] Creating layer conv3_3/dw
I0601 18:37:38.029148  6142 net.cpp:84] Creating Layer conv3_3/dw
I0601 18:37:38.029155  6142 net.cpp:406] conv3_3/dw <- conv3_3/sep1
I0601 18:37:38.029165  6142 net.cpp:380] conv3_3/dw -> conv3_3/dw
I0601 18:37:38.029356  6142 net.cpp:122] Setting up conv3_3/dw
I0601 18:37:38.029376  6142 net.cpp:129] Top shape: 8 72 56 56 (1806336)
I0601 18:37:38.029381  6142 net.cpp:137] Memory required for data: 354844704
I0601 18:37:38.029388  6142 layer_factory.cpp:63] Creating layer conv3_3/dw/bn
I0601 18:37:38.029400  6142 net.cpp:84] Creating Layer conv3_3/dw/bn
I0601 18:37:38.029407  6142 net.cpp:406] conv3_3/dw/bn <- conv3_3/dw
I0601 18:37:38.029415  6142 net.cpp:367] conv3_3/dw/bn -> conv3_3/dw (in-place)
I0601 18:37:38.029722  6142 net.cpp:122] Setting up conv3_3/dw/bn
I0601 18:37:38.029736  6142 net.cpp:129] Top shape: 8 72 56 56 (1806336)
I0601 18:37:38.029740  6142 net.cpp:137] Memory required for data: 362070048
I0601 18:37:38.029752  6142 layer_factory.cpp:63] Creating layer conv3_3/dw/scale
I0601 18:37:38.029763  6142 net.cpp:84] Creating Layer conv3_3/dw/scale
I0601 18:37:38.029768  6142 net.cpp:406] conv3_3/dw/scale <- conv3_3/dw
I0601 18:37:38.029776  6142 net.cpp:367] conv3_3/dw/scale -> conv3_3/dw (in-place)
I0601 18:37:38.029835  6142 layer_factory.cpp:63] Creating layer conv3_3/dw/scale
I0601 18:37:38.030010  6142 net.cpp:122] Setting up conv3_3/dw/scale
I0601 18:37:38.030022  6142 net.cpp:129] Top shape: 8 72 56 56 (1806336)
I0601 18:37:38.030027  6142 net.cpp:137] Memory required for data: 369295392
I0601 18:37:38.030047  6142 layer_factory.cpp:63] Creating layer conv3_3/dw/ReLU
I0601 18:37:38.030055  6142 net.cpp:84] Creating Layer conv3_3/dw/ReLU
I0601 18:37:38.030061  6142 net.cpp:406] conv3_3/dw/ReLU <- conv3_3/dw
I0601 18:37:38.030068  6142 net.cpp:367] conv3_3/dw/ReLU -> conv3_3/dw (in-place)
I0601 18:37:38.030779  6142 net.cpp:122] Setting up conv3_3/dw/ReLU
I0601 18:37:38.030819  6142 net.cpp:129] Top shape: 8 72 56 56 (1806336)
I0601 18:37:38.030825  6142 net.cpp:137] Memory required for data: 376520736
I0601 18:37:38.030831  6142 layer_factory.cpp:63] Creating layer conv3_3/sep2
I0601 18:37:38.030845  6142 net.cpp:84] Creating Layer conv3_3/sep2
I0601 18:37:38.030851  6142 net.cpp:406] conv3_3/sep2 <- conv3_3/dw
I0601 18:37:38.030860  6142 net.cpp:380] conv3_3/sep2 -> conv3_3/sep2
I0601 18:37:38.033907  6142 net.cpp:122] Setting up conv3_3/sep2
I0601 18:37:38.033931  6142 net.cpp:129] Top shape: 8 24 56 56 (602112)
I0601 18:37:38.033937  6142 net.cpp:137] Memory required for data: 378929184
I0601 18:37:38.033946  6142 layer_factory.cpp:63] Creating layer conv3_3/sep2/bn
I0601 18:37:38.033958  6142 net.cpp:84] Creating Layer conv3_3/sep2/bn
I0601 18:37:38.033965  6142 net.cpp:406] conv3_3/sep2/bn <- conv3_3/sep2
I0601 18:37:38.033975  6142 net.cpp:367] conv3_3/sep2/bn -> conv3_3/sep2 (in-place)
I0601 18:37:38.034273  6142 net.cpp:122] Setting up conv3_3/sep2/bn
I0601 18:37:38.034287  6142 net.cpp:129] Top shape: 8 24 56 56 (602112)
I0601 18:37:38.034292  6142 net.cpp:137] Memory required for data: 381337632
I0601 18:37:38.034303  6142 layer_factory.cpp:63] Creating layer conv3_3/sep2/scale
I0601 18:37:38.034314  6142 net.cpp:84] Creating Layer conv3_3/sep2/scale
I0601 18:37:38.034320  6142 net.cpp:406] conv3_3/sep2/scale <- conv3_3/sep2
I0601 18:37:38.034327  6142 net.cpp:367] conv3_3/sep2/scale -> conv3_3/sep2 (in-place)
I0601 18:37:38.034385  6142 layer_factory.cpp:63] Creating layer conv3_3/sep2/scale
I0601 18:37:38.034557  6142 net.cpp:122] Setting up conv3_3/sep2/scale
I0601 18:37:38.034570  6142 net.cpp:129] Top shape: 8 24 56 56 (602112)
I0601 18:37:38.034575  6142 net.cpp:137] Memory required for data: 383746080
I0601 18:37:38.034584  6142 layer_factory.cpp:63] Creating layer conv3_3/Eltwise1
I0601 18:37:38.034593  6142 net.cpp:84] Creating Layer conv3_3/Eltwise1
I0601 18:37:38.034600  6142 net.cpp:406] conv3_3/Eltwise1 <- conv3_2/Eltwise1_conv3_2/Eltwise/ReLU_0_split_1
I0601 18:37:38.034606  6142 net.cpp:406] conv3_3/Eltwise1 <- conv3_3/sep2
I0601 18:37:38.034618  6142 net.cpp:380] conv3_3/Eltwise1 -> conv3_3/Eltwise1
I0601 18:37:38.034653  6142 net.cpp:122] Setting up conv3_3/Eltwise1
I0601 18:37:38.034662  6142 net.cpp:129] Top shape: 8 24 56 56 (602112)
I0601 18:37:38.034667  6142 net.cpp:137] Memory required for data: 386154528
I0601 18:37:38.034672  6142 layer_factory.cpp:63] Creating layer conv3_3/Eltwise/ReLU
I0601 18:37:38.034683  6142 net.cpp:84] Creating Layer conv3_3/Eltwise/ReLU
I0601 18:37:38.034688  6142 net.cpp:406] conv3_3/Eltwise/ReLU <- conv3_3/Eltwise1
I0601 18:37:38.034696  6142 net.cpp:367] conv3_3/Eltwise/ReLU -> conv3_3/Eltwise1 (in-place)
I0601 18:37:38.035424  6142 net.cpp:122] Setting up conv3_3/Eltwise/ReLU
I0601 18:37:38.035445  6142 net.cpp:129] Top shape: 8 24 56 56 (602112)
I0601 18:37:38.035450  6142 net.cpp:137] Memory required for data: 388562976
I0601 18:37:38.035456  6142 layer_factory.cpp:63] Creating layer conv4_1/sep1
I0601 18:37:38.035470  6142 net.cpp:84] Creating Layer conv4_1/sep1
I0601 18:37:38.035476  6142 net.cpp:406] conv4_1/sep1 <- conv3_3/Eltwise1
I0601 18:37:38.035488  6142 net.cpp:380] conv4_1/sep1 -> conv4_1/sep1
I0601 18:37:38.038502  6142 net.cpp:122] Setting up conv4_1/sep1
I0601 18:37:38.038525  6142 net.cpp:129] Top shape: 8 72 56 56 (1806336)
I0601 18:37:38.038532  6142 net.cpp:137] Memory required for data: 395788320
I0601 18:37:38.038540  6142 layer_factory.cpp:63] Creating layer conv4_1/sep1/bn
I0601 18:37:38.038552  6142 net.cpp:84] Creating Layer conv4_1/sep1/bn
I0601 18:37:38.038559  6142 net.cpp:406] conv4_1/sep1/bn <- conv4_1/sep1
I0601 18:37:38.038568  6142 net.cpp:367] conv4_1/sep1/bn -> conv4_1/sep1 (in-place)
I0601 18:37:38.038868  6142 net.cpp:122] Setting up conv4_1/sep1/bn
I0601 18:37:38.038882  6142 net.cpp:129] Top shape: 8 72 56 56 (1806336)
I0601 18:37:38.038887  6142 net.cpp:137] Memory required for data: 403013664
I0601 18:37:38.038898  6142 layer_factory.cpp:63] Creating layer conv4_1/sep1/scale
I0601 18:37:38.038929  6142 net.cpp:84] Creating Layer conv4_1/sep1/scale
I0601 18:37:38.038936  6142 net.cpp:406] conv4_1/sep1/scale <- conv4_1/sep1
I0601 18:37:38.038944  6142 net.cpp:367] conv4_1/sep1/scale -> conv4_1/sep1 (in-place)
I0601 18:37:38.039007  6142 layer_factory.cpp:63] Creating layer conv4_1/sep1/scale
I0601 18:37:38.039192  6142 net.cpp:122] Setting up conv4_1/sep1/scale
I0601 18:37:38.039204  6142 net.cpp:129] Top shape: 8 72 56 56 (1806336)
I0601 18:37:38.039209  6142 net.cpp:137] Memory required for data: 410239008
I0601 18:37:38.039218  6142 layer_factory.cpp:63] Creating layer conv4_1/sep1/ReLU
I0601 18:37:38.039229  6142 net.cpp:84] Creating Layer conv4_1/sep1/ReLU
I0601 18:37:38.039235  6142 net.cpp:406] conv4_1/sep1/ReLU <- conv4_1/sep1
I0601 18:37:38.039242  6142 net.cpp:367] conv4_1/sep1/ReLU -> conv4_1/sep1 (in-place)
I0601 18:37:38.040679  6142 net.cpp:122] Setting up conv4_1/sep1/ReLU
I0601 18:37:38.040704  6142 net.cpp:129] Top shape: 8 72 56 56 (1806336)
I0601 18:37:38.040709  6142 net.cpp:137] Memory required for data: 417464352
I0601 18:37:38.040715  6142 layer_factory.cpp:63] Creating layer conv4_1/dw
I0601 18:37:38.040727  6142 net.cpp:84] Creating Layer conv4_1/dw
I0601 18:37:38.040735  6142 net.cpp:406] conv4_1/dw <- conv4_1/sep1
I0601 18:37:38.040745  6142 net.cpp:380] conv4_1/dw -> conv4_1/dw
I0601 18:37:38.040963  6142 net.cpp:122] Setting up conv4_1/dw
I0601 18:37:38.040982  6142 net.cpp:129] Top shape: 8 72 28 28 (451584)
I0601 18:37:38.040987  6142 net.cpp:137] Memory required for data: 419270688
I0601 18:37:38.040995  6142 layer_factory.cpp:63] Creating layer conv4_1/dw/bn
I0601 18:37:38.041007  6142 net.cpp:84] Creating Layer conv4_1/dw/bn
I0601 18:37:38.041013  6142 net.cpp:406] conv4_1/dw/bn <- conv4_1/dw
I0601 18:37:38.041020  6142 net.cpp:367] conv4_1/dw/bn -> conv4_1/dw (in-place)
I0601 18:37:38.041323  6142 net.cpp:122] Setting up conv4_1/dw/bn
I0601 18:37:38.041337  6142 net.cpp:129] Top shape: 8 72 28 28 (451584)
I0601 18:37:38.041342  6142 net.cpp:137] Memory required for data: 421077024
I0601 18:37:38.041353  6142 layer_factory.cpp:63] Creating layer conv4_1/dw/scale
I0601 18:37:38.041363  6142 net.cpp:84] Creating Layer conv4_1/dw/scale
I0601 18:37:38.041368  6142 net.cpp:406] conv4_1/dw/scale <- conv4_1/dw
I0601 18:37:38.041375  6142 net.cpp:367] conv4_1/dw/scale -> conv4_1/dw (in-place)
I0601 18:37:38.041438  6142 layer_factory.cpp:63] Creating layer conv4_1/dw/scale
I0601 18:37:38.041608  6142 net.cpp:122] Setting up conv4_1/dw/scale
I0601 18:37:38.041621  6142 net.cpp:129] Top shape: 8 72 28 28 (451584)
I0601 18:37:38.041626  6142 net.cpp:137] Memory required for data: 422883360
I0601 18:37:38.041635  6142 layer_factory.cpp:63] Creating layer conv4_1/dw/ReLU
I0601 18:37:38.041646  6142 net.cpp:84] Creating Layer conv4_1/dw/ReLU
I0601 18:37:38.041651  6142 net.cpp:406] conv4_1/dw/ReLU <- conv4_1/dw
I0601 18:37:38.041658  6142 net.cpp:367] conv4_1/dw/ReLU -> conv4_1/dw (in-place)
I0601 18:37:38.042366  6142 net.cpp:122] Setting up conv4_1/dw/ReLU
I0601 18:37:38.042389  6142 net.cpp:129] Top shape: 8 72 28 28 (451584)
I0601 18:37:38.042395  6142 net.cpp:137] Memory required for data: 424689696
I0601 18:37:38.042400  6142 layer_factory.cpp:63] Creating layer conv4_1/sep2
I0601 18:37:38.042413  6142 net.cpp:84] Creating Layer conv4_1/sep2
I0601 18:37:38.042419  6142 net.cpp:406] conv4_1/sep2 <- conv4_1/dw
I0601 18:37:38.042428  6142 net.cpp:380] conv4_1/sep2 -> conv4_1/sep2
I0601 18:37:38.045652  6142 net.cpp:122] Setting up conv4_1/sep2
I0601 18:37:38.045677  6142 net.cpp:129] Top shape: 8 40 28 28 (250880)
I0601 18:37:38.045683  6142 net.cpp:137] Memory required for data: 425693216
I0601 18:37:38.045692  6142 layer_factory.cpp:63] Creating layer conv4_1/sep2/bn
I0601 18:37:38.045706  6142 net.cpp:84] Creating Layer conv4_1/sep2/bn
I0601 18:37:38.045711  6142 net.cpp:406] conv4_1/sep2/bn <- conv4_1/sep2
I0601 18:37:38.045719  6142 net.cpp:367] conv4_1/sep2/bn -> conv4_1/sep2 (in-place)
I0601 18:37:38.046032  6142 net.cpp:122] Setting up conv4_1/sep2/bn
I0601 18:37:38.046066  6142 net.cpp:129] Top shape: 8 40 28 28 (250880)
I0601 18:37:38.046073  6142 net.cpp:137] Memory required for data: 426696736
I0601 18:37:38.046085  6142 layer_factory.cpp:63] Creating layer conv4_1/sep2/scale
I0601 18:37:38.046094  6142 net.cpp:84] Creating Layer conv4_1/sep2/scale
I0601 18:37:38.046100  6142 net.cpp:406] conv4_1/sep2/scale <- conv4_1/sep2
I0601 18:37:38.046108  6142 net.cpp:367] conv4_1/sep2/scale -> conv4_1/sep2 (in-place)
I0601 18:37:38.046175  6142 layer_factory.cpp:63] Creating layer conv4_1/sep2/scale
I0601 18:37:38.046345  6142 net.cpp:122] Setting up conv4_1/sep2/scale
I0601 18:37:38.046361  6142 net.cpp:129] Top shape: 8 40 28 28 (250880)
I0601 18:37:38.046366  6142 net.cpp:137] Memory required for data: 427700256
I0601 18:37:38.046375  6142 layer_factory.cpp:63] Creating layer conv4_1/sep2/ReLU
I0601 18:37:38.046391  6142 net.cpp:84] Creating Layer conv4_1/sep2/ReLU
I0601 18:37:38.046397  6142 net.cpp:406] conv4_1/sep2/ReLU <- conv4_1/sep2
I0601 18:37:38.046404  6142 net.cpp:367] conv4_1/sep2/ReLU -> conv4_1/sep2 (in-place)
I0601 18:37:38.047335  6142 net.cpp:122] Setting up conv4_1/sep2/ReLU
I0601 18:37:38.047359  6142 net.cpp:129] Top shape: 8 40 28 28 (250880)
I0601 18:37:38.047365  6142 net.cpp:137] Memory required for data: 428703776
I0601 18:37:38.047372  6142 layer_factory.cpp:63] Creating layer conv4_1/sep2_conv4_1/sep2/ReLU_0_split
I0601 18:37:38.047384  6142 net.cpp:84] Creating Layer conv4_1/sep2_conv4_1/sep2/ReLU_0_split
I0601 18:37:38.047390  6142 net.cpp:406] conv4_1/sep2_conv4_1/sep2/ReLU_0_split <- conv4_1/sep2
I0601 18:37:38.047399  6142 net.cpp:380] conv4_1/sep2_conv4_1/sep2/ReLU_0_split -> conv4_1/sep2_conv4_1/sep2/ReLU_0_split_0
I0601 18:37:38.047412  6142 net.cpp:380] conv4_1/sep2_conv4_1/sep2/ReLU_0_split -> conv4_1/sep2_conv4_1/sep2/ReLU_0_split_1
I0601 18:37:38.047479  6142 net.cpp:122] Setting up conv4_1/sep2_conv4_1/sep2/ReLU_0_split
I0601 18:37:38.047488  6142 net.cpp:129] Top shape: 8 40 28 28 (250880)
I0601 18:37:38.047495  6142 net.cpp:129] Top shape: 8 40 28 28 (250880)
I0601 18:37:38.047500  6142 net.cpp:137] Memory required for data: 430710816
I0601 18:37:38.047505  6142 layer_factory.cpp:63] Creating layer conv4_2/sep1
I0601 18:37:38.047518  6142 net.cpp:84] Creating Layer conv4_2/sep1
I0601 18:37:38.047524  6142 net.cpp:406] conv4_2/sep1 <- conv4_1/sep2_conv4_1/sep2/ReLU_0_split_0
I0601 18:37:38.047535  6142 net.cpp:380] conv4_2/sep1 -> conv4_2/sep1
I0601 18:37:38.050472  6142 net.cpp:122] Setting up conv4_2/sep1
I0601 18:37:38.050495  6142 net.cpp:129] Top shape: 8 120 28 28 (752640)
I0601 18:37:38.050501  6142 net.cpp:137] Memory required for data: 433721376
I0601 18:37:38.050510  6142 layer_factory.cpp:63] Creating layer conv4_2/sep1/bn
I0601 18:37:38.050520  6142 net.cpp:84] Creating Layer conv4_2/sep1/bn
I0601 18:37:38.050526  6142 net.cpp:406] conv4_2/sep1/bn <- conv4_2/sep1
I0601 18:37:38.050537  6142 net.cpp:367] conv4_2/sep1/bn -> conv4_2/sep1 (in-place)
I0601 18:37:38.050839  6142 net.cpp:122] Setting up conv4_2/sep1/bn
I0601 18:37:38.050853  6142 net.cpp:129] Top shape: 8 120 28 28 (752640)
I0601 18:37:38.050858  6142 net.cpp:137] Memory required for data: 436731936
I0601 18:37:38.050870  6142 layer_factory.cpp:63] Creating layer conv4_2/sep1/scale
I0601 18:37:38.050879  6142 net.cpp:84] Creating Layer conv4_2/sep1/scale
I0601 18:37:38.050884  6142 net.cpp:406] conv4_2/sep1/scale <- conv4_2/sep1
I0601 18:37:38.050894  6142 net.cpp:367] conv4_2/sep1/scale -> conv4_2/sep1 (in-place)
I0601 18:37:38.050948  6142 layer_factory.cpp:63] Creating layer conv4_2/sep1/scale
I0601 18:37:38.051134  6142 net.cpp:122] Setting up conv4_2/sep1/scale
I0601 18:37:38.051149  6142 net.cpp:129] Top shape: 8 120 28 28 (752640)
I0601 18:37:38.051154  6142 net.cpp:137] Memory required for data: 439742496
I0601 18:37:38.051163  6142 layer_factory.cpp:63] Creating layer conv4_2/sep1/ReLU
I0601 18:37:38.051172  6142 net.cpp:84] Creating Layer conv4_2/sep1/ReLU
I0601 18:37:38.051177  6142 net.cpp:406] conv4_2/sep1/ReLU <- conv4_2/sep1
I0601 18:37:38.051206  6142 net.cpp:367] conv4_2/sep1/ReLU -> conv4_2/sep1 (in-place)
I0601 18:37:38.052109  6142 net.cpp:122] Setting up conv4_2/sep1/ReLU
I0601 18:37:38.052134  6142 net.cpp:129] Top shape: 8 120 28 28 (752640)
I0601 18:37:38.052140  6142 net.cpp:137] Memory required for data: 442753056
I0601 18:37:38.052146  6142 layer_factory.cpp:63] Creating layer conv4_2/dw
I0601 18:37:38.052156  6142 net.cpp:84] Creating Layer conv4_2/dw
I0601 18:37:38.052162  6142 net.cpp:406] conv4_2/dw <- conv4_2/sep1
I0601 18:37:38.052175  6142 net.cpp:380] conv4_2/dw -> conv4_2/dw
I0601 18:37:38.052419  6142 net.cpp:122] Setting up conv4_2/dw
I0601 18:37:38.052438  6142 net.cpp:129] Top shape: 8 120 28 28 (752640)
I0601 18:37:38.052443  6142 net.cpp:137] Memory required for data: 445763616
I0601 18:37:38.052451  6142 layer_factory.cpp:63] Creating layer conv4_2/dw/bn
I0601 18:37:38.052461  6142 net.cpp:84] Creating Layer conv4_2/dw/bn
I0601 18:37:38.052466  6142 net.cpp:406] conv4_2/dw/bn <- conv4_2/dw
I0601 18:37:38.052476  6142 net.cpp:367] conv4_2/dw/bn -> conv4_2/dw (in-place)
I0601 18:37:38.052773  6142 net.cpp:122] Setting up conv4_2/dw/bn
I0601 18:37:38.052786  6142 net.cpp:129] Top shape: 8 120 28 28 (752640)
I0601 18:37:38.052791  6142 net.cpp:137] Memory required for data: 448774176
I0601 18:37:38.052803  6142 layer_factory.cpp:63] Creating layer conv4_2/dw/scale
I0601 18:37:38.052814  6142 net.cpp:84] Creating Layer conv4_2/dw/scale
I0601 18:37:38.052819  6142 net.cpp:406] conv4_2/dw/scale <- conv4_2/dw
I0601 18:37:38.052826  6142 net.cpp:367] conv4_2/dw/scale -> conv4_2/dw (in-place)
I0601 18:37:38.052881  6142 layer_factory.cpp:63] Creating layer conv4_2/dw/scale
I0601 18:37:38.053054  6142 net.cpp:122] Setting up conv4_2/dw/scale
I0601 18:37:38.053067  6142 net.cpp:129] Top shape: 8 120 28 28 (752640)
I0601 18:37:38.053072  6142 net.cpp:137] Memory required for data: 451784736
I0601 18:37:38.053081  6142 layer_factory.cpp:63] Creating layer conv4_2/dw/ReLU
I0601 18:37:38.053089  6142 net.cpp:84] Creating Layer conv4_2/dw/ReLU
I0601 18:37:38.053094  6142 net.cpp:406] conv4_2/dw/ReLU <- conv4_2/dw
I0601 18:37:38.053103  6142 net.cpp:367] conv4_2/dw/ReLU -> conv4_2/dw (in-place)
I0601 18:37:38.054523  6142 net.cpp:122] Setting up conv4_2/dw/ReLU
I0601 18:37:38.054549  6142 net.cpp:129] Top shape: 8 120 28 28 (752640)
I0601 18:37:38.054555  6142 net.cpp:137] Memory required for data: 454795296
I0601 18:37:38.054561  6142 layer_factory.cpp:63] Creating layer conv4_2/sep2
I0601 18:37:38.054574  6142 net.cpp:84] Creating Layer conv4_2/sep2
I0601 18:37:38.054579  6142 net.cpp:406] conv4_2/sep2 <- conv4_2/dw
I0601 18:37:38.054591  6142 net.cpp:380] conv4_2/sep2 -> conv4_2/sep2
I0601 18:37:38.057549  6142 net.cpp:122] Setting up conv4_2/sep2
I0601 18:37:38.057574  6142 net.cpp:129] Top shape: 8 40 28 28 (250880)
I0601 18:37:38.057580  6142 net.cpp:137] Memory required for data: 455798816
I0601 18:37:38.057590  6142 layer_factory.cpp:63] Creating layer conv4_2/sep2/bn
I0601 18:37:38.057601  6142 net.cpp:84] Creating Layer conv4_2/sep2/bn
I0601 18:37:38.057607  6142 net.cpp:406] conv4_2/sep2/bn <- conv4_2/sep2
I0601 18:37:38.057615  6142 net.cpp:367] conv4_2/sep2/bn -> conv4_2/sep2 (in-place)
I0601 18:37:38.057929  6142 net.cpp:122] Setting up conv4_2/sep2/bn
I0601 18:37:38.057942  6142 net.cpp:129] Top shape: 8 40 28 28 (250880)
I0601 18:37:38.057948  6142 net.cpp:137] Memory required for data: 456802336
I0601 18:37:38.057960  6142 layer_factory.cpp:63] Creating layer conv4_2/sep2/scale
I0601 18:37:38.057971  6142 net.cpp:84] Creating Layer conv4_2/sep2/scale
I0601 18:37:38.057976  6142 net.cpp:406] conv4_2/sep2/scale <- conv4_2/sep2
I0601 18:37:38.057983  6142 net.cpp:367] conv4_2/sep2/scale -> conv4_2/sep2 (in-place)
I0601 18:37:38.058043  6142 layer_factory.cpp:63] Creating layer conv4_2/sep2/scale
I0601 18:37:38.058215  6142 net.cpp:122] Setting up conv4_2/sep2/scale
I0601 18:37:38.058228  6142 net.cpp:129] Top shape: 8 40 28 28 (250880)
I0601 18:37:38.058233  6142 net.cpp:137] Memory required for data: 457805856
I0601 18:37:38.058261  6142 layer_factory.cpp:63] Creating layer conv4_2/Eltwise1
I0601 18:37:38.058275  6142 net.cpp:84] Creating Layer conv4_2/Eltwise1
I0601 18:37:38.058281  6142 net.cpp:406] conv4_2/Eltwise1 <- conv4_1/sep2_conv4_1/sep2/ReLU_0_split_1
I0601 18:37:38.058288  6142 net.cpp:406] conv4_2/Eltwise1 <- conv4_2/sep2
I0601 18:37:38.058297  6142 net.cpp:380] conv4_2/Eltwise1 -> conv4_2/Eltwise1
I0601 18:37:38.058336  6142 net.cpp:122] Setting up conv4_2/Eltwise1
I0601 18:37:38.058346  6142 net.cpp:129] Top shape: 8 40 28 28 (250880)
I0601 18:37:38.058351  6142 net.cpp:137] Memory required for data: 458809376
I0601 18:37:38.058356  6142 layer_factory.cpp:63] Creating layer conv4_2/Eltwise/ReLU
I0601 18:37:38.058363  6142 net.cpp:84] Creating Layer conv4_2/Eltwise/ReLU
I0601 18:37:38.058369  6142 net.cpp:406] conv4_2/Eltwise/ReLU <- conv4_2/Eltwise1
I0601 18:37:38.058379  6142 net.cpp:367] conv4_2/Eltwise/ReLU -> conv4_2/Eltwise1 (in-place)
I0601 18:37:38.059295  6142 net.cpp:122] Setting up conv4_2/Eltwise/ReLU
I0601 18:37:38.059319  6142 net.cpp:129] Top shape: 8 40 28 28 (250880)
I0601 18:37:38.059324  6142 net.cpp:137] Memory required for data: 459812896
I0601 18:37:38.059330  6142 layer_factory.cpp:63] Creating layer conv4_2/Eltwise1_conv4_2/Eltwise/ReLU_0_split
I0601 18:37:38.059342  6142 net.cpp:84] Creating Layer conv4_2/Eltwise1_conv4_2/Eltwise/ReLU_0_split
I0601 18:37:38.059350  6142 net.cpp:406] conv4_2/Eltwise1_conv4_2/Eltwise/ReLU_0_split <- conv4_2/Eltwise1
I0601 18:37:38.059358  6142 net.cpp:380] conv4_2/Eltwise1_conv4_2/Eltwise/ReLU_0_split -> conv4_2/Eltwise1_conv4_2/Eltwise/ReLU_0_split_0
I0601 18:37:38.059370  6142 net.cpp:380] conv4_2/Eltwise1_conv4_2/Eltwise/ReLU_0_split -> conv4_2/Eltwise1_conv4_2/Eltwise/ReLU_0_split_1
I0601 18:37:38.059439  6142 net.cpp:122] Setting up conv4_2/Eltwise1_conv4_2/Eltwise/ReLU_0_split
I0601 18:37:38.059448  6142 net.cpp:129] Top shape: 8 40 28 28 (250880)
I0601 18:37:38.059455  6142 net.cpp:129] Top shape: 8 40 28 28 (250880)
I0601 18:37:38.059460  6142 net.cpp:137] Memory required for data: 461819936
I0601 18:37:38.059465  6142 layer_factory.cpp:63] Creating layer conv4_3/sep1
I0601 18:37:38.059478  6142 net.cpp:84] Creating Layer conv4_3/sep1
I0601 18:37:38.059485  6142 net.cpp:406] conv4_3/sep1 <- conv4_2/Eltwise1_conv4_2/Eltwise/ReLU_0_split_0
I0601 18:37:38.059495  6142 net.cpp:380] conv4_3/sep1 -> conv4_3/sep1
I0601 18:37:38.062409  6142 net.cpp:122] Setting up conv4_3/sep1
I0601 18:37:38.062433  6142 net.cpp:129] Top shape: 8 120 28 28 (752640)
I0601 18:37:38.062439  6142 net.cpp:137] Memory required for data: 464830496
I0601 18:37:38.062448  6142 layer_factory.cpp:63] Creating layer conv4_3/sep1/bn
I0601 18:37:38.062460  6142 net.cpp:84] Creating Layer conv4_3/sep1/bn
I0601 18:37:38.062467  6142 net.cpp:406] conv4_3/sep1/bn <- conv4_3/sep1
I0601 18:37:38.062477  6142 net.cpp:367] conv4_3/sep1/bn -> conv4_3/sep1 (in-place)
I0601 18:37:38.062783  6142 net.cpp:122] Setting up conv4_3/sep1/bn
I0601 18:37:38.062798  6142 net.cpp:129] Top shape: 8 120 28 28 (752640)
I0601 18:37:38.062803  6142 net.cpp:137] Memory required for data: 467841056
I0601 18:37:38.062814  6142 layer_factory.cpp:63] Creating layer conv4_3/sep1/scale
I0601 18:37:38.062825  6142 net.cpp:84] Creating Layer conv4_3/sep1/scale
I0601 18:37:38.062831  6142 net.cpp:406] conv4_3/sep1/scale <- conv4_3/sep1
I0601 18:37:38.062839  6142 net.cpp:367] conv4_3/sep1/scale -> conv4_3/sep1 (in-place)
I0601 18:37:38.062896  6142 layer_factory.cpp:63] Creating layer conv4_3/sep1/scale
I0601 18:37:38.063081  6142 net.cpp:122] Setting up conv4_3/sep1/scale
I0601 18:37:38.063096  6142 net.cpp:129] Top shape: 8 120 28 28 (752640)
I0601 18:37:38.063100  6142 net.cpp:137] Memory required for data: 470851616
I0601 18:37:38.063109  6142 layer_factory.cpp:63] Creating layer conv4_3/sep1/ReLU
I0601 18:37:38.063117  6142 net.cpp:84] Creating Layer conv4_3/sep1/ReLU
I0601 18:37:38.063123  6142 net.cpp:406] conv4_3/sep1/ReLU <- conv4_3/sep1
I0601 18:37:38.063133  6142 net.cpp:367] conv4_3/sep1/ReLU -> conv4_3/sep1 (in-place)
I0601 18:37:38.064056  6142 net.cpp:122] Setting up conv4_3/sep1/ReLU
I0601 18:37:38.064080  6142 net.cpp:129] Top shape: 8 120 28 28 (752640)
I0601 18:37:38.064085  6142 net.cpp:137] Memory required for data: 473862176
I0601 18:37:38.064091  6142 layer_factory.cpp:63] Creating layer conv4_3/dw
I0601 18:37:38.064102  6142 net.cpp:84] Creating Layer conv4_3/dw
I0601 18:37:38.064108  6142 net.cpp:406] conv4_3/dw <- conv4_3/sep1
I0601 18:37:38.064121  6142 net.cpp:380] conv4_3/dw -> conv4_3/dw
I0601 18:37:38.064368  6142 net.cpp:122] Setting up conv4_3/dw
I0601 18:37:38.064386  6142 net.cpp:129] Top shape: 8 120 28 28 (752640)
I0601 18:37:38.064391  6142 net.cpp:137] Memory required for data: 476872736
I0601 18:37:38.064400  6142 layer_factory.cpp:63] Creating layer conv4_3/dw/bn
I0601 18:37:38.064411  6142 net.cpp:84] Creating Layer conv4_3/dw/bn
I0601 18:37:38.064419  6142 net.cpp:406] conv4_3/dw/bn <- conv4_3/dw
I0601 18:37:38.064429  6142 net.cpp:367] conv4_3/dw/bn -> conv4_3/dw (in-place)
I0601 18:37:38.064725  6142 net.cpp:122] Setting up conv4_3/dw/bn
I0601 18:37:38.064739  6142 net.cpp:129] Top shape: 8 120 28 28 (752640)
I0601 18:37:38.064744  6142 net.cpp:137] Memory required for data: 479883296
I0601 18:37:38.064755  6142 layer_factory.cpp:63] Creating layer conv4_3/dw/scale
I0601 18:37:38.064769  6142 net.cpp:84] Creating Layer conv4_3/dw/scale
I0601 18:37:38.064774  6142 net.cpp:406] conv4_3/dw/scale <- conv4_3/dw
I0601 18:37:38.064781  6142 net.cpp:367] conv4_3/dw/scale -> conv4_3/dw (in-place)
I0601 18:37:38.064838  6142 layer_factory.cpp:63] Creating layer conv4_3/dw/scale
I0601 18:37:38.065004  6142 net.cpp:122] Setting up conv4_3/dw/scale
I0601 18:37:38.065017  6142 net.cpp:129] Top shape: 8 120 28 28 (752640)
I0601 18:37:38.065022  6142 net.cpp:137] Memory required for data: 482893856
I0601 18:37:38.065030  6142 layer_factory.cpp:63] Creating layer conv4_3/dw/ReLU
I0601 18:37:38.065042  6142 net.cpp:84] Creating Layer conv4_3/dw/ReLU
I0601 18:37:38.065047  6142 net.cpp:406] conv4_3/dw/ReLU <- conv4_3/dw
I0601 18:37:38.065055  6142 net.cpp:367] conv4_3/dw/ReLU -> conv4_3/dw (in-place)
I0601 18:37:38.065954  6142 net.cpp:122] Setting up conv4_3/dw/ReLU
I0601 18:37:38.065977  6142 net.cpp:129] Top shape: 8 120 28 28 (752640)
I0601 18:37:38.065982  6142 net.cpp:137] Memory required for data: 485904416
I0601 18:37:38.065989  6142 layer_factory.cpp:63] Creating layer conv4_3/sep2
I0601 18:37:38.066002  6142 net.cpp:84] Creating Layer conv4_3/sep2
I0601 18:37:38.066009  6142 net.cpp:406] conv4_3/sep2 <- conv4_3/dw
I0601 18:37:38.066022  6142 net.cpp:380] conv4_3/sep2 -> conv4_3/sep2
I0601 18:37:38.070344  6142 net.cpp:122] Setting up conv4_3/sep2
I0601 18:37:38.070372  6142 net.cpp:129] Top shape: 8 40 28 28 (250880)
I0601 18:37:38.070379  6142 net.cpp:137] Memory required for data: 486907936
I0601 18:37:38.070387  6142 layer_factory.cpp:63] Creating layer conv4_3/sep2/bn
I0601 18:37:38.070397  6142 net.cpp:84] Creating Layer conv4_3/sep2/bn
I0601 18:37:38.070403  6142 net.cpp:406] conv4_3/sep2/bn <- conv4_3/sep2
I0601 18:37:38.070415  6142 net.cpp:367] conv4_3/sep2/bn -> conv4_3/sep2 (in-place)
I0601 18:37:38.070732  6142 net.cpp:122] Setting up conv4_3/sep2/bn
I0601 18:37:38.070746  6142 net.cpp:129] Top shape: 8 40 28 28 (250880)
I0601 18:37:38.070752  6142 net.cpp:137] Memory required for data: 487911456
I0601 18:37:38.070763  6142 layer_factory.cpp:63] Creating layer conv4_3/sep2/scale
I0601 18:37:38.070772  6142 net.cpp:84] Creating Layer conv4_3/sep2/scale
I0601 18:37:38.070777  6142 net.cpp:406] conv4_3/sep2/scale <- conv4_3/sep2
I0601 18:37:38.070785  6142 net.cpp:367] conv4_3/sep2/scale -> conv4_3/sep2 (in-place)
I0601 18:37:38.070845  6142 layer_factory.cpp:63] Creating layer conv4_3/sep2/scale
I0601 18:37:38.071022  6142 net.cpp:122] Setting up conv4_3/sep2/scale
I0601 18:37:38.071034  6142 net.cpp:129] Top shape: 8 40 28 28 (250880)
I0601 18:37:38.071039  6142 net.cpp:137] Memory required for data: 488914976
I0601 18:37:38.071048  6142 layer_factory.cpp:63] Creating layer conv4_3/Eltwise1
I0601 18:37:38.071086  6142 net.cpp:84] Creating Layer conv4_3/Eltwise1
I0601 18:37:38.071094  6142 net.cpp:406] conv4_3/Eltwise1 <- conv4_2/Eltwise1_conv4_2/Eltwise/ReLU_0_split_1
I0601 18:37:38.071101  6142 net.cpp:406] conv4_3/Eltwise1 <- conv4_3/sep2
I0601 18:37:38.071112  6142 net.cpp:380] conv4_3/Eltwise1 -> conv4_3/Eltwise1
I0601 18:37:38.071153  6142 net.cpp:122] Setting up conv4_3/Eltwise1
I0601 18:37:38.071166  6142 net.cpp:129] Top shape: 8 40 28 28 (250880)
I0601 18:37:38.071171  6142 net.cpp:137] Memory required for data: 489918496
I0601 18:37:38.071175  6142 layer_factory.cpp:63] Creating layer conv4_3/Eltwise/ReLU
I0601 18:37:38.071184  6142 net.cpp:84] Creating Layer conv4_3/Eltwise/ReLU
I0601 18:37:38.071189  6142 net.cpp:406] conv4_3/Eltwise/ReLU <- conv4_3/Eltwise1
I0601 18:37:38.071197  6142 net.cpp:367] conv4_3/Eltwise/ReLU -> conv4_3/Eltwise1 (in-place)
I0601 18:37:38.072108  6142 net.cpp:122] Setting up conv4_3/Eltwise/ReLU
I0601 18:37:38.072131  6142 net.cpp:129] Top shape: 8 40 28 28 (250880)
I0601 18:37:38.072136  6142 net.cpp:137] Memory required for data: 490922016
I0601 18:37:38.072142  6142 layer_factory.cpp:63] Creating layer conv5_1/sep1
I0601 18:37:38.072160  6142 net.cpp:84] Creating Layer conv5_1/sep1
I0601 18:37:38.072167  6142 net.cpp:406] conv5_1/sep1 <- conv4_3/Eltwise1
I0601 18:37:38.072177  6142 net.cpp:380] conv5_1/sep1 -> conv5_1/sep1
I0601 18:37:38.075210  6142 net.cpp:122] Setting up conv5_1/sep1
I0601 18:37:38.075234  6142 net.cpp:129] Top shape: 8 240 28 28 (1505280)
I0601 18:37:38.075240  6142 net.cpp:137] Memory required for data: 496943136
I0601 18:37:38.075249  6142 layer_factory.cpp:63] Creating layer conv5_1/sep1/bn
I0601 18:37:38.075259  6142 net.cpp:84] Creating Layer conv5_1/sep1/bn
I0601 18:37:38.075265  6142 net.cpp:406] conv5_1/sep1/bn <- conv5_1/sep1
I0601 18:37:38.075276  6142 net.cpp:367] conv5_1/sep1/bn -> conv5_1/sep1 (in-place)
I0601 18:37:38.075587  6142 net.cpp:122] Setting up conv5_1/sep1/bn
I0601 18:37:38.075601  6142 net.cpp:129] Top shape: 8 240 28 28 (1505280)
I0601 18:37:38.075606  6142 net.cpp:137] Memory required for data: 502964256
I0601 18:37:38.075634  6142 layer_factory.cpp:63] Creating layer conv5_1/sep1/scale
I0601 18:37:38.075642  6142 net.cpp:84] Creating Layer conv5_1/sep1/scale
I0601 18:37:38.075649  6142 net.cpp:406] conv5_1/sep1/scale <- conv5_1/sep1
I0601 18:37:38.075659  6142 net.cpp:367] conv5_1/sep1/scale -> conv5_1/sep1 (in-place)
I0601 18:37:38.075718  6142 layer_factory.cpp:63] Creating layer conv5_1/sep1/scale
I0601 18:37:38.075891  6142 net.cpp:122] Setting up conv5_1/sep1/scale
I0601 18:37:38.075904  6142 net.cpp:129] Top shape: 8 240 28 28 (1505280)
I0601 18:37:38.075909  6142 net.cpp:137] Memory required for data: 508985376
I0601 18:37:38.075918  6142 layer_factory.cpp:63] Creating layer conv5_1/sep1/ReLU
I0601 18:37:38.075927  6142 net.cpp:84] Creating Layer conv5_1/sep1/ReLU
I0601 18:37:38.075932  6142 net.cpp:406] conv5_1/sep1/ReLU <- conv5_1/sep1
I0601 18:37:38.075942  6142 net.cpp:367] conv5_1/sep1/ReLU -> conv5_1/sep1 (in-place)
I0601 18:37:38.076854  6142 net.cpp:122] Setting up conv5_1/sep1/ReLU
I0601 18:37:38.076877  6142 net.cpp:129] Top shape: 8 240 28 28 (1505280)
I0601 18:37:38.076884  6142 net.cpp:137] Memory required for data: 515006496
I0601 18:37:38.076889  6142 layer_factory.cpp:63] Creating layer conv5_1/dw
I0601 18:37:38.076901  6142 net.cpp:84] Creating Layer conv5_1/dw
I0601 18:37:38.076907  6142 net.cpp:406] conv5_1/dw <- conv5_1/sep1
I0601 18:37:38.076917  6142 net.cpp:380] conv5_1/dw -> conv5_1/dw
I0601 18:37:38.077219  6142 net.cpp:122] Setting up conv5_1/dw
I0601 18:37:38.077239  6142 net.cpp:129] Top shape: 8 240 14 14 (376320)
I0601 18:37:38.077244  6142 net.cpp:137] Memory required for data: 516511776
I0601 18:37:38.077252  6142 layer_factory.cpp:63] Creating layer conv5_1/dw/bn
I0601 18:37:38.077263  6142 net.cpp:84] Creating Layer conv5_1/dw/bn
I0601 18:37:38.077270  6142 net.cpp:406] conv5_1/dw/bn <- conv5_1/dw
I0601 18:37:38.077277  6142 net.cpp:367] conv5_1/dw/bn -> conv5_1/dw (in-place)
I0601 18:37:38.077608  6142 net.cpp:122] Setting up conv5_1/dw/bn
I0601 18:37:38.077622  6142 net.cpp:129] Top shape: 8 240 14 14 (376320)
I0601 18:37:38.077627  6142 net.cpp:137] Memory required for data: 518017056
I0601 18:37:38.077639  6142 layer_factory.cpp:63] Creating layer conv5_1/dw/scale
I0601 18:37:38.077648  6142 net.cpp:84] Creating Layer conv5_1/dw/scale
I0601 18:37:38.077654  6142 net.cpp:406] conv5_1/dw/scale <- conv5_1/dw
I0601 18:37:38.077661  6142 net.cpp:367] conv5_1/dw/scale -> conv5_1/dw (in-place)
I0601 18:37:38.077723  6142 layer_factory.cpp:63] Creating layer conv5_1/dw/scale
I0601 18:37:38.077893  6142 net.cpp:122] Setting up conv5_1/dw/scale
I0601 18:37:38.077905  6142 net.cpp:129] Top shape: 8 240 14 14 (376320)
I0601 18:37:38.077910  6142 net.cpp:137] Memory required for data: 519522336
I0601 18:37:38.077919  6142 layer_factory.cpp:63] Creating layer conv5_1/dw/ReLU
I0601 18:37:38.077927  6142 net.cpp:84] Creating Layer conv5_1/dw/ReLU
I0601 18:37:38.077934  6142 net.cpp:406] conv5_1/dw/ReLU <- conv5_1/dw
I0601 18:37:38.077942  6142 net.cpp:367] conv5_1/dw/ReLU -> conv5_1/dw (in-place)
I0601 18:37:38.078850  6142 net.cpp:122] Setting up conv5_1/dw/ReLU
I0601 18:37:38.078872  6142 net.cpp:129] Top shape: 8 240 14 14 (376320)
I0601 18:37:38.078877  6142 net.cpp:137] Memory required for data: 521027616
I0601 18:37:38.078883  6142 layer_factory.cpp:63] Creating layer conv5_1/sep2
I0601 18:37:38.078897  6142 net.cpp:84] Creating Layer conv5_1/sep2
I0601 18:37:38.078904  6142 net.cpp:406] conv5_1/sep2 <- conv5_1/dw
I0601 18:37:38.078915  6142 net.cpp:380] conv5_1/sep2 -> conv5_1/sep2
I0601 18:37:38.082666  6142 net.cpp:122] Setting up conv5_1/sep2
I0601 18:37:38.082690  6142 net.cpp:129] Top shape: 8 80 14 14 (125440)
I0601 18:37:38.082696  6142 net.cpp:137] Memory required for data: 521529376
I0601 18:37:38.082705  6142 layer_factory.cpp:63] Creating layer conv5_1/sep2/bn
I0601 18:37:38.082717  6142 net.cpp:84] Creating Layer conv5_1/sep2/bn
I0601 18:37:38.082724  6142 net.cpp:406] conv5_1/sep2/bn <- conv5_1/sep2
I0601 18:37:38.082732  6142 net.cpp:367] conv5_1/sep2/bn -> conv5_1/sep2 (in-place)
I0601 18:37:38.083047  6142 net.cpp:122] Setting up conv5_1/sep2/bn
I0601 18:37:38.083072  6142 net.cpp:129] Top shape: 8 80 14 14 (125440)
I0601 18:37:38.083078  6142 net.cpp:137] Memory required for data: 522031136
I0601 18:37:38.083089  6142 layer_factory.cpp:63] Creating layer conv5_1/sep2/scale
I0601 18:37:38.083101  6142 net.cpp:84] Creating Layer conv5_1/sep2/scale
I0601 18:37:38.083107  6142 net.cpp:406] conv5_1/sep2/scale <- conv5_1/sep2
I0601 18:37:38.083114  6142 net.cpp:367] conv5_1/sep2/scale -> conv5_1/sep2 (in-place)
I0601 18:37:38.083176  6142 layer_factory.cpp:63] Creating layer conv5_1/sep2/scale
I0601 18:37:38.083353  6142 net.cpp:122] Setting up conv5_1/sep2/scale
I0601 18:37:38.083366  6142 net.cpp:129] Top shape: 8 80 14 14 (125440)
I0601 18:37:38.083371  6142 net.cpp:137] Memory required for data: 522532896
I0601 18:37:38.083380  6142 layer_factory.cpp:63] Creating layer conv5_1/sep2/ReLU
I0601 18:37:38.083393  6142 net.cpp:84] Creating Layer conv5_1/sep2/ReLU
I0601 18:37:38.083398  6142 net.cpp:406] conv5_1/sep2/ReLU <- conv5_1/sep2
I0601 18:37:38.083405  6142 net.cpp:367] conv5_1/sep2/ReLU -> conv5_1/sep2 (in-place)
I0601 18:37:38.084311  6142 net.cpp:122] Setting up conv5_1/sep2/ReLU
I0601 18:37:38.084334  6142 net.cpp:129] Top shape: 8 80 14 14 (125440)
I0601 18:37:38.084339  6142 net.cpp:137] Memory required for data: 523034656
I0601 18:37:38.084345  6142 layer_factory.cpp:63] Creating layer conv5_1/sep2_conv5_1/sep2/ReLU_0_split
I0601 18:37:38.084358  6142 net.cpp:84] Creating Layer conv5_1/sep2_conv5_1/sep2/ReLU_0_split
I0601 18:37:38.084365  6142 net.cpp:406] conv5_1/sep2_conv5_1/sep2/ReLU_0_split <- conv5_1/sep2
I0601 18:37:38.084374  6142 net.cpp:380] conv5_1/sep2_conv5_1/sep2/ReLU_0_split -> conv5_1/sep2_conv5_1/sep2/ReLU_0_split_0
I0601 18:37:38.084388  6142 net.cpp:380] conv5_1/sep2_conv5_1/sep2/ReLU_0_split -> conv5_1/sep2_conv5_1/sep2/ReLU_0_split_1
I0601 18:37:38.084455  6142 net.cpp:122] Setting up conv5_1/sep2_conv5_1/sep2/ReLU_0_split
I0601 18:37:38.084481  6142 net.cpp:129] Top shape: 8 80 14 14 (125440)
I0601 18:37:38.084488  6142 net.cpp:129] Top shape: 8 80 14 14 (125440)
I0601 18:37:38.084493  6142 net.cpp:137] Memory required for data: 524038176
I0601 18:37:38.084498  6142 layer_factory.cpp:63] Creating layer conv5_2/sep1
I0601 18:37:38.084513  6142 net.cpp:84] Creating Layer conv5_2/sep1
I0601 18:37:38.084519  6142 net.cpp:406] conv5_2/sep1 <- conv5_1/sep2_conv5_1/sep2/ReLU_0_split_0
I0601 18:37:38.084530  6142 net.cpp:380] conv5_2/sep1 -> conv5_2/sep1
I0601 18:37:38.088089  6142 net.cpp:122] Setting up conv5_2/sep1
I0601 18:37:38.088114  6142 net.cpp:129] Top shape: 8 480 14 14 (752640)
I0601 18:37:38.088119  6142 net.cpp:137] Memory required for data: 527048736
I0601 18:37:38.088129  6142 layer_factory.cpp:63] Creating layer conv5_2/sep1/bn
I0601 18:37:38.088141  6142 net.cpp:84] Creating Layer conv5_2/sep1/bn
I0601 18:37:38.088147  6142 net.cpp:406] conv5_2/sep1/bn <- conv5_2/sep1
I0601 18:37:38.088157  6142 net.cpp:367] conv5_2/sep1/bn -> conv5_2/sep1 (in-place)
I0601 18:37:38.088467  6142 net.cpp:122] Setting up conv5_2/sep1/bn
I0601 18:37:38.088481  6142 net.cpp:129] Top shape: 8 480 14 14 (752640)
I0601 18:37:38.088486  6142 net.cpp:137] Memory required for data: 530059296
I0601 18:37:38.088497  6142 layer_factory.cpp:63] Creating layer conv5_2/sep1/scale
I0601 18:37:38.088508  6142 net.cpp:84] Creating Layer conv5_2/sep1/scale
I0601 18:37:38.088515  6142 net.cpp:406] conv5_2/sep1/scale <- conv5_2/sep1
I0601 18:37:38.088521  6142 net.cpp:367] conv5_2/sep1/scale -> conv5_2/sep1 (in-place)
I0601 18:37:38.088582  6142 layer_factory.cpp:63] Creating layer conv5_2/sep1/scale
I0601 18:37:38.088759  6142 net.cpp:122] Setting up conv5_2/sep1/scale
I0601 18:37:38.088773  6142 net.cpp:129] Top shape: 8 480 14 14 (752640)
I0601 18:37:38.088778  6142 net.cpp:137] Memory required for data: 533069856
I0601 18:37:38.088786  6142 layer_factory.cpp:63] Creating layer conv5_2/sep1/ReLU
I0601 18:37:38.088794  6142 net.cpp:84] Creating Layer conv5_2/sep1/ReLU
I0601 18:37:38.088799  6142 net.cpp:406] conv5_2/sep1/ReLU <- conv5_2/sep1
I0601 18:37:38.088809  6142 net.cpp:367] conv5_2/sep1/ReLU -> conv5_2/sep1 (in-place)
I0601 18:37:38.089741  6142 net.cpp:122] Setting up conv5_2/sep1/ReLU
I0601 18:37:38.089764  6142 net.cpp:129] Top shape: 8 480 14 14 (752640)
I0601 18:37:38.089771  6142 net.cpp:137] Memory required for data: 536080416
I0601 18:37:38.089776  6142 layer_factory.cpp:63] Creating layer conv5_2/dw
I0601 18:37:38.089787  6142 net.cpp:84] Creating Layer conv5_2/dw
I0601 18:37:38.089792  6142 net.cpp:406] conv5_2/dw <- conv5_2/sep1
I0601 18:37:38.089804  6142 net.cpp:380] conv5_2/dw -> conv5_2/dw
I0601 18:37:38.090226  6142 net.cpp:122] Setting up conv5_2/dw
I0601 18:37:38.090245  6142 net.cpp:129] Top shape: 8 480 14 14 (752640)
I0601 18:37:38.090250  6142 net.cpp:137] Memory required for data: 539090976
I0601 18:37:38.090258  6142 layer_factory.cpp:63] Creating layer conv5_2/dw/bn
I0601 18:37:38.090267  6142 net.cpp:84] Creating Layer conv5_2/dw/bn
I0601 18:37:38.090273  6142 net.cpp:406] conv5_2/dw/bn <- conv5_2/dw
I0601 18:37:38.090283  6142 net.cpp:367] conv5_2/dw/bn -> conv5_2/dw (in-place)
I0601 18:37:38.090589  6142 net.cpp:122] Setting up conv5_2/dw/bn
I0601 18:37:38.090601  6142 net.cpp:129] Top shape: 8 480 14 14 (752640)
I0601 18:37:38.090606  6142 net.cpp:137] Memory required for data: 542101536
I0601 18:37:38.090617  6142 layer_factory.cpp:63] Creating layer conv5_2/dw/scale
I0601 18:37:38.090626  6142 net.cpp:84] Creating Layer conv5_2/dw/scale
I0601 18:37:38.090632  6142 net.cpp:406] conv5_2/dw/scale <- conv5_2/dw
I0601 18:37:38.090641  6142 net.cpp:367] conv5_2/dw/scale -> conv5_2/dw (in-place)
I0601 18:37:38.090700  6142 layer_factory.cpp:63] Creating layer conv5_2/dw/scale
I0601 18:37:38.090880  6142 net.cpp:122] Setting up conv5_2/dw/scale
I0601 18:37:38.090891  6142 net.cpp:129] Top shape: 8 480 14 14 (752640)
I0601 18:37:38.090896  6142 net.cpp:137] Memory required for data: 545112096
I0601 18:37:38.090924  6142 layer_factory.cpp:63] Creating layer conv5_2/dw/ReLU
I0601 18:37:38.090934  6142 net.cpp:84] Creating Layer conv5_2/dw/ReLU
I0601 18:37:38.090939  6142 net.cpp:406] conv5_2/dw/ReLU <- conv5_2/dw
I0601 18:37:38.090950  6142 net.cpp:367] conv5_2/dw/ReLU -> conv5_2/dw (in-place)
I0601 18:37:38.091881  6142 net.cpp:122] Setting up conv5_2/dw/ReLU
I0601 18:37:38.091907  6142 net.cpp:129] Top shape: 8 480 14 14 (752640)
I0601 18:37:38.091912  6142 net.cpp:137] Memory required for data: 548122656
I0601 18:37:38.091918  6142 layer_factory.cpp:63] Creating layer conv5_2/sep2
I0601 18:37:38.091933  6142 net.cpp:84] Creating Layer conv5_2/sep2
I0601 18:37:38.091938  6142 net.cpp:406] conv5_2/sep2 <- conv5_2/dw
I0601 18:37:38.091948  6142 net.cpp:380] conv5_2/sep2 -> conv5_2/sep2
I0601 18:37:38.096334  6142 net.cpp:122] Setting up conv5_2/sep2
I0601 18:37:38.096359  6142 net.cpp:129] Top shape: 8 80 14 14 (125440)
I0601 18:37:38.096365  6142 net.cpp:137] Memory required for data: 548624416
I0601 18:37:38.096374  6142 layer_factory.cpp:63] Creating layer conv5_2/sep2/bn
I0601 18:37:38.096387  6142 net.cpp:84] Creating Layer conv5_2/sep2/bn
I0601 18:37:38.096395  6142 net.cpp:406] conv5_2/sep2/bn <- conv5_2/sep2
I0601 18:37:38.096402  6142 net.cpp:367] conv5_2/sep2/bn -> conv5_2/sep2 (in-place)
I0601 18:37:38.096717  6142 net.cpp:122] Setting up conv5_2/sep2/bn
I0601 18:37:38.096731  6142 net.cpp:129] Top shape: 8 80 14 14 (125440)
I0601 18:37:38.096736  6142 net.cpp:137] Memory required for data: 549126176
I0601 18:37:38.096747  6142 layer_factory.cpp:63] Creating layer conv5_2/sep2/scale
I0601 18:37:38.096756  6142 net.cpp:84] Creating Layer conv5_2/sep2/scale
I0601 18:37:38.096762  6142 net.cpp:406] conv5_2/sep2/scale <- conv5_2/sep2
I0601 18:37:38.096769  6142 net.cpp:367] conv5_2/sep2/scale -> conv5_2/sep2 (in-place)
I0601 18:37:38.096832  6142 layer_factory.cpp:63] Creating layer conv5_2/sep2/scale
I0601 18:37:38.097010  6142 net.cpp:122] Setting up conv5_2/sep2/scale
I0601 18:37:38.097023  6142 net.cpp:129] Top shape: 8 80 14 14 (125440)
I0601 18:37:38.097028  6142 net.cpp:137] Memory required for data: 549627936
I0601 18:37:38.097038  6142 layer_factory.cpp:63] Creating layer conv5_2/Eltwise1
I0601 18:37:38.097049  6142 net.cpp:84] Creating Layer conv5_2/Eltwise1
I0601 18:37:38.097055  6142 net.cpp:406] conv5_2/Eltwise1 <- conv5_1/sep2_conv5_1/sep2/ReLU_0_split_1
I0601 18:37:38.097062  6142 net.cpp:406] conv5_2/Eltwise1 <- conv5_2/sep2
I0601 18:37:38.097070  6142 net.cpp:380] conv5_2/Eltwise1 -> conv5_2/Eltwise1
I0601 18:37:38.097110  6142 net.cpp:122] Setting up conv5_2/Eltwise1
I0601 18:37:38.097120  6142 net.cpp:129] Top shape: 8 80 14 14 (125440)
I0601 18:37:38.097124  6142 net.cpp:137] Memory required for data: 550129696
I0601 18:37:38.097129  6142 layer_factory.cpp:63] Creating layer conv5_2/Eltwise/ReLU
I0601 18:37:38.097138  6142 net.cpp:84] Creating Layer conv5_2/Eltwise/ReLU
I0601 18:37:38.097143  6142 net.cpp:406] conv5_2/Eltwise/ReLU <- conv5_2/Eltwise1
I0601 18:37:38.097151  6142 net.cpp:367] conv5_2/Eltwise/ReLU -> conv5_2/Eltwise1 (in-place)
I0601 18:37:38.098657  6142 net.cpp:122] Setting up conv5_2/Eltwise/ReLU
I0601 18:37:38.098681  6142 net.cpp:129] Top shape: 8 80 14 14 (125440)
I0601 18:37:38.098686  6142 net.cpp:137] Memory required for data: 550631456
I0601 18:37:38.098692  6142 layer_factory.cpp:63] Creating layer conv5_2/Eltwise1_conv5_2/Eltwise/ReLU_0_split
I0601 18:37:38.098702  6142 net.cpp:84] Creating Layer conv5_2/Eltwise1_conv5_2/Eltwise/ReLU_0_split
I0601 18:37:38.098709  6142 net.cpp:406] conv5_2/Eltwise1_conv5_2/Eltwise/ReLU_0_split <- conv5_2/Eltwise1
I0601 18:37:38.098722  6142 net.cpp:380] conv5_2/Eltwise1_conv5_2/Eltwise/ReLU_0_split -> conv5_2/Eltwise1_conv5_2/Eltwise/ReLU_0_split_0
I0601 18:37:38.098734  6142 net.cpp:380] conv5_2/Eltwise1_conv5_2/Eltwise/ReLU_0_split -> conv5_2/Eltwise1_conv5_2/Eltwise/ReLU_0_split_1
I0601 18:37:38.098796  6142 net.cpp:122] Setting up conv5_2/Eltwise1_conv5_2/Eltwise/ReLU_0_split
I0601 18:37:38.098806  6142 net.cpp:129] Top shape: 8 80 14 14 (125440)
I0601 18:37:38.098830  6142 net.cpp:129] Top shape: 8 80 14 14 (125440)
I0601 18:37:38.098836  6142 net.cpp:137] Memory required for data: 551634976
I0601 18:37:38.098841  6142 layer_factory.cpp:63] Creating layer conv5_3/sep1
I0601 18:37:38.098860  6142 net.cpp:84] Creating Layer conv5_3/sep1
I0601 18:37:38.098866  6142 net.cpp:406] conv5_3/sep1 <- conv5_2/Eltwise1_conv5_2/Eltwise/ReLU_0_split_0
I0601 18:37:38.098875  6142 net.cpp:380] conv5_3/sep1 -> conv5_3/sep1
I0601 18:37:38.102643  6142 net.cpp:122] Setting up conv5_3/sep1
I0601 18:37:38.102669  6142 net.cpp:129] Top shape: 8 480 14 14 (752640)
I0601 18:37:38.102674  6142 net.cpp:137] Memory required for data: 554645536
I0601 18:37:38.102684  6142 layer_factory.cpp:63] Creating layer conv5_3/sep1/bn
I0601 18:37:38.102695  6142 net.cpp:84] Creating Layer conv5_3/sep1/bn
I0601 18:37:38.102702  6142 net.cpp:406] conv5_3/sep1/bn <- conv5_3/sep1
I0601 18:37:38.102710  6142 net.cpp:367] conv5_3/sep1/bn -> conv5_3/sep1 (in-place)
I0601 18:37:38.103020  6142 net.cpp:122] Setting up conv5_3/sep1/bn
I0601 18:37:38.103034  6142 net.cpp:129] Top shape: 8 480 14 14 (752640)
I0601 18:37:38.103039  6142 net.cpp:137] Memory required for data: 557656096
I0601 18:37:38.103050  6142 layer_factory.cpp:63] Creating layer conv5_3/sep1/scale
I0601 18:37:38.103073  6142 net.cpp:84] Creating Layer conv5_3/sep1/scale
I0601 18:37:38.103080  6142 net.cpp:406] conv5_3/sep1/scale <- conv5_3/sep1
I0601 18:37:38.103087  6142 net.cpp:367] conv5_3/sep1/scale -> conv5_3/sep1 (in-place)
I0601 18:37:38.103148  6142 layer_factory.cpp:63] Creating layer conv5_3/sep1/scale
I0601 18:37:38.103325  6142 net.cpp:122] Setting up conv5_3/sep1/scale
I0601 18:37:38.103339  6142 net.cpp:129] Top shape: 8 480 14 14 (752640)
I0601 18:37:38.103344  6142 net.cpp:137] Memory required for data: 560666656
I0601 18:37:38.103353  6142 layer_factory.cpp:63] Creating layer conv5_3/sep1/ReLU
I0601 18:37:38.103366  6142 net.cpp:84] Creating Layer conv5_3/sep1/ReLU
I0601 18:37:38.103371  6142 net.cpp:406] conv5_3/sep1/ReLU <- conv5_3/sep1
I0601 18:37:38.103379  6142 net.cpp:367] conv5_3/sep1/ReLU -> conv5_3/sep1 (in-place)
I0601 18:37:38.104104  6142 net.cpp:122] Setting up conv5_3/sep1/ReLU
I0601 18:37:38.104123  6142 net.cpp:129] Top shape: 8 480 14 14 (752640)
I0601 18:37:38.104130  6142 net.cpp:137] Memory required for data: 563677216
I0601 18:37:38.104135  6142 layer_factory.cpp:63] Creating layer conv5_3/dw
I0601 18:37:38.104147  6142 net.cpp:84] Creating Layer conv5_3/dw
I0601 18:37:38.104153  6142 net.cpp:406] conv5_3/dw <- conv5_3/sep1
I0601 18:37:38.104162  6142 net.cpp:380] conv5_3/dw -> conv5_3/dw
I0601 18:37:38.104576  6142 net.cpp:122] Setting up conv5_3/dw
I0601 18:37:38.104595  6142 net.cpp:129] Top shape: 8 480 14 14 (752640)
I0601 18:37:38.104600  6142 net.cpp:137] Memory required for data: 566687776
I0601 18:37:38.104609  6142 layer_factory.cpp:63] Creating layer conv5_3/dw/bn
I0601 18:37:38.104617  6142 net.cpp:84] Creating Layer conv5_3/dw/bn
I0601 18:37:38.104624  6142 net.cpp:406] conv5_3/dw/bn <- conv5_3/dw
I0601 18:37:38.104634  6142 net.cpp:367] conv5_3/dw/bn -> conv5_3/dw (in-place)
I0601 18:37:38.104941  6142 net.cpp:122] Setting up conv5_3/dw/bn
I0601 18:37:38.104954  6142 net.cpp:129] Top shape: 8 480 14 14 (752640)
I0601 18:37:38.104959  6142 net.cpp:137] Memory required for data: 569698336
I0601 18:37:38.104971  6142 layer_factory.cpp:63] Creating layer conv5_3/dw/scale
I0601 18:37:38.104980  6142 net.cpp:84] Creating Layer conv5_3/dw/scale
I0601 18:37:38.104985  6142 net.cpp:406] conv5_3/dw/scale <- conv5_3/dw
I0601 18:37:38.104995  6142 net.cpp:367] conv5_3/dw/scale -> conv5_3/dw (in-place)
I0601 18:37:38.105052  6142 layer_factory.cpp:63] Creating layer conv5_3/dw/scale
I0601 18:37:38.105224  6142 net.cpp:122] Setting up conv5_3/dw/scale
I0601 18:37:38.105237  6142 net.cpp:129] Top shape: 8 480 14 14 (752640)
I0601 18:37:38.105242  6142 net.cpp:137] Memory required for data: 572708896
I0601 18:37:38.105250  6142 layer_factory.cpp:63] Creating layer conv5_3/dw/ReLU
I0601 18:37:38.105276  6142 net.cpp:84] Creating Layer conv5_3/dw/ReLU
I0601 18:37:38.105283  6142 net.cpp:406] conv5_3/dw/ReLU <- conv5_3/dw
I0601 18:37:38.105293  6142 net.cpp:367] conv5_3/dw/ReLU -> conv5_3/dw (in-place)
I0601 18:37:38.106216  6142 net.cpp:122] Setting up conv5_3/dw/ReLU
I0601 18:37:38.106238  6142 net.cpp:129] Top shape: 8 480 14 14 (752640)
I0601 18:37:38.106245  6142 net.cpp:137] Memory required for data: 575719456
I0601 18:37:38.106251  6142 layer_factory.cpp:63] Creating layer conv5_3/sep2
I0601 18:37:38.106276  6142 net.cpp:84] Creating Layer conv5_3/sep2
I0601 18:37:38.106282  6142 net.cpp:406] conv5_3/sep2 <- conv5_3/dw
I0601 18:37:38.106292  6142 net.cpp:380] conv5_3/sep2 -> conv5_3/sep2
I0601 18:37:38.109869  6142 net.cpp:122] Setting up conv5_3/sep2
I0601 18:37:38.109894  6142 net.cpp:129] Top shape: 8 80 14 14 (125440)
I0601 18:37:38.109899  6142 net.cpp:137] Memory required for data: 576221216
I0601 18:37:38.109910  6142 layer_factory.cpp:63] Creating layer conv5_3/sep2/bn
I0601 18:37:38.109921  6142 net.cpp:84] Creating Layer conv5_3/sep2/bn
I0601 18:37:38.109927  6142 net.cpp:406] conv5_3/sep2/bn <- conv5_3/sep2
I0601 18:37:38.109935  6142 net.cpp:367] conv5_3/sep2/bn -> conv5_3/sep2 (in-place)
I0601 18:37:38.110252  6142 net.cpp:122] Setting up conv5_3/sep2/bn
I0601 18:37:38.110266  6142 net.cpp:129] Top shape: 8 80 14 14 (125440)
I0601 18:37:38.110271  6142 net.cpp:137] Memory required for data: 576722976
I0601 18:37:38.110283  6142 layer_factory.cpp:63] Creating layer conv5_3/sep2/scale
I0601 18:37:38.110294  6142 net.cpp:84] Creating Layer conv5_3/sep2/scale
I0601 18:37:38.110301  6142 net.cpp:406] conv5_3/sep2/scale <- conv5_3/sep2
I0601 18:37:38.110307  6142 net.cpp:367] conv5_3/sep2/scale -> conv5_3/sep2 (in-place)
I0601 18:37:38.110370  6142 layer_factory.cpp:63] Creating layer conv5_3/sep2/scale
I0601 18:37:38.110553  6142 net.cpp:122] Setting up conv5_3/sep2/scale
I0601 18:37:38.110568  6142 net.cpp:129] Top shape: 8 80 14 14 (125440)
I0601 18:37:38.110572  6142 net.cpp:137] Memory required for data: 577224736
I0601 18:37:38.110581  6142 layer_factory.cpp:63] Creating layer conv5_3/Eltwise1
I0601 18:37:38.110592  6142 net.cpp:84] Creating Layer conv5_3/Eltwise1
I0601 18:37:38.110599  6142 net.cpp:406] conv5_3/Eltwise1 <- conv5_2/Eltwise1_conv5_2/Eltwise/ReLU_0_split_1
I0601 18:37:38.110605  6142 net.cpp:406] conv5_3/Eltwise1 <- conv5_3/sep2
I0601 18:37:38.110615  6142 net.cpp:380] conv5_3/Eltwise1 -> conv5_3/Eltwise1
I0601 18:37:38.110651  6142 net.cpp:122] Setting up conv5_3/Eltwise1
I0601 18:37:38.110659  6142 net.cpp:129] Top shape: 8 80 14 14 (125440)
I0601 18:37:38.110663  6142 net.cpp:137] Memory required for data: 577726496
I0601 18:37:38.110668  6142 layer_factory.cpp:63] Creating layer conv5_3/Eltwise/ReLU
I0601 18:37:38.110679  6142 net.cpp:84] Creating Layer conv5_3/Eltwise/ReLU
I0601 18:37:38.110685  6142 net.cpp:406] conv5_3/Eltwise/ReLU <- conv5_3/Eltwise1
I0601 18:37:38.110692  6142 net.cpp:367] conv5_3/Eltwise/ReLU -> conv5_3/Eltwise1 (in-place)
I0601 18:37:38.111618  6142 net.cpp:122] Setting up conv5_3/Eltwise/ReLU
I0601 18:37:38.111640  6142 net.cpp:129] Top shape: 8 80 14 14 (125440)
I0601 18:37:38.111646  6142 net.cpp:137] Memory required for data: 578228256
I0601 18:37:38.111651  6142 layer_factory.cpp:63] Creating layer conv6_1/sep1
I0601 18:37:38.111666  6142 net.cpp:84] Creating Layer conv6_1/sep1
I0601 18:37:38.111673  6142 net.cpp:406] conv6_1/sep1 <- conv5_3/Eltwise1
I0601 18:37:38.111685  6142 net.cpp:380] conv6_1/sep1 -> conv6_1/sep1
I0601 18:37:38.115990  6142 net.cpp:122] Setting up conv6_1/sep1
I0601 18:37:38.116015  6142 net.cpp:129] Top shape: 8 480 14 14 (752640)
I0601 18:37:38.116021  6142 net.cpp:137] Memory required for data: 581238816
I0601 18:37:38.116030  6142 layer_factory.cpp:63] Creating layer conv6_1/sep1/bn
I0601 18:37:38.116042  6142 net.cpp:84] Creating Layer conv6_1/sep1/bn
I0601 18:37:38.116048  6142 net.cpp:406] conv6_1/sep1/bn <- conv6_1/sep1
I0601 18:37:38.116057  6142 net.cpp:367] conv6_1/sep1/bn -> conv6_1/sep1 (in-place)
I0601 18:37:38.116400  6142 net.cpp:122] Setting up conv6_1/sep1/bn
I0601 18:37:38.116415  6142 net.cpp:129] Top shape: 8 480 14 14 (752640)
I0601 18:37:38.116420  6142 net.cpp:137] Memory required for data: 584249376
I0601 18:37:38.116432  6142 layer_factory.cpp:63] Creating layer conv6_1/sep1/scale
I0601 18:37:38.116441  6142 net.cpp:84] Creating Layer conv6_1/sep1/scale
I0601 18:37:38.116447  6142 net.cpp:406] conv6_1/sep1/scale <- conv6_1/sep1
I0601 18:37:38.116454  6142 net.cpp:367] conv6_1/sep1/scale -> conv6_1/sep1 (in-place)
I0601 18:37:38.116518  6142 layer_factory.cpp:63] Creating layer conv6_1/sep1/scale
I0601 18:37:38.116690  6142 net.cpp:122] Setting up conv6_1/sep1/scale
I0601 18:37:38.116704  6142 net.cpp:129] Top shape: 8 480 14 14 (752640)
I0601 18:37:38.116708  6142 net.cpp:137] Memory required for data: 587259936
I0601 18:37:38.116717  6142 layer_factory.cpp:63] Creating layer conv6_1/sep1/ReLU
I0601 18:37:38.116726  6142 net.cpp:84] Creating Layer conv6_1/sep1/ReLU
I0601 18:37:38.116731  6142 net.cpp:406] conv6_1/sep1/ReLU <- conv6_1/sep1
I0601 18:37:38.116740  6142 net.cpp:367] conv6_1/sep1/ReLU -> conv6_1/sep1 (in-place)
I0601 18:37:38.117466  6142 net.cpp:122] Setting up conv6_1/sep1/ReLU
I0601 18:37:38.117488  6142 net.cpp:129] Top shape: 8 480 14 14 (752640)
I0601 18:37:38.117493  6142 net.cpp:137] Memory required for data: 590270496
I0601 18:37:38.117499  6142 layer_factory.cpp:63] Creating layer conv6_1/dw
I0601 18:37:38.117509  6142 net.cpp:84] Creating Layer conv6_1/dw
I0601 18:37:38.117516  6142 net.cpp:406] conv6_1/dw <- conv6_1/sep1
I0601 18:37:38.117527  6142 net.cpp:380] conv6_1/dw -> conv6_1/dw
I0601 18:37:38.117794  6142 net.cpp:122] Setting up conv6_1/dw
I0601 18:37:38.117811  6142 net.cpp:129] Top shape: 8 480 14 14 (752640)
I0601 18:37:38.117817  6142 net.cpp:137] Memory required for data: 593281056
I0601 18:37:38.117825  6142 layer_factory.cpp:63] Creating layer conv6_1/dw/bn
I0601 18:37:38.117835  6142 net.cpp:84] Creating Layer conv6_1/dw/bn
I0601 18:37:38.117841  6142 net.cpp:406] conv6_1/dw/bn <- conv6_1/dw
I0601 18:37:38.117851  6142 net.cpp:367] conv6_1/dw/bn -> conv6_1/dw (in-place)
I0601 18:37:38.118155  6142 net.cpp:122] Setting up conv6_1/dw/bn
I0601 18:37:38.118168  6142 net.cpp:129] Top shape: 8 480 14 14 (752640)
I0601 18:37:38.118173  6142 net.cpp:137] Memory required for data: 596291616
I0601 18:37:38.118185  6142 layer_factory.cpp:63] Creating layer conv6_1/dw/scale
I0601 18:37:38.118196  6142 net.cpp:84] Creating Layer conv6_1/dw/scale
I0601 18:37:38.118202  6142 net.cpp:406] conv6_1/dw/scale <- conv6_1/dw
I0601 18:37:38.118209  6142 net.cpp:367] conv6_1/dw/scale -> conv6_1/dw (in-place)
I0601 18:37:38.118268  6142 layer_factory.cpp:63] Creating layer conv6_1/dw/scale
I0601 18:37:38.118446  6142 net.cpp:122] Setting up conv6_1/dw/scale
I0601 18:37:38.118459  6142 net.cpp:129] Top shape: 8 480 14 14 (752640)
I0601 18:37:38.118464  6142 net.cpp:137] Memory required for data: 599302176
I0601 18:37:38.118474  6142 layer_factory.cpp:63] Creating layer conv6_1/dw/ReLU
I0601 18:37:38.118481  6142 net.cpp:84] Creating Layer conv6_1/dw/ReLU
I0601 18:37:38.118487  6142 net.cpp:406] conv6_1/dw/ReLU <- conv6_1/dw
I0601 18:37:38.118496  6142 net.cpp:367] conv6_1/dw/ReLU -> conv6_1/dw (in-place)
I0601 18:37:38.119422  6142 net.cpp:122] Setting up conv6_1/dw/ReLU
I0601 18:37:38.119448  6142 net.cpp:129] Top shape: 8 480 14 14 (752640)
I0601 18:37:38.119454  6142 net.cpp:137] Memory required for data: 602312736
I0601 18:37:38.119459  6142 layer_factory.cpp:63] Creating layer conv6_1/sep2
I0601 18:37:38.119474  6142 net.cpp:84] Creating Layer conv6_1/sep2
I0601 18:37:38.119480  6142 net.cpp:406] conv6_1/sep2 <- conv6_1/dw
I0601 18:37:38.119490  6142 net.cpp:380] conv6_1/sep2 -> conv6_1/sep2
I0601 18:37:38.123409  6142 net.cpp:122] Setting up conv6_1/sep2
I0601 18:37:38.123436  6142 net.cpp:129] Top shape: 8 96 14 14 (150528)
I0601 18:37:38.123442  6142 net.cpp:137] Memory required for data: 602914848
I0601 18:37:38.123451  6142 layer_factory.cpp:63] Creating layer conv6_1/sep2/bn
I0601 18:37:38.123478  6142 net.cpp:84] Creating Layer conv6_1/sep2/bn
I0601 18:37:38.123486  6142 net.cpp:406] conv6_1/sep2/bn <- conv6_1/sep2
I0601 18:37:38.123494  6142 net.cpp:367] conv6_1/sep2/bn -> conv6_1/sep2 (in-place)
I0601 18:37:38.123814  6142 net.cpp:122] Setting up conv6_1/sep2/bn
I0601 18:37:38.123829  6142 net.cpp:129] Top shape: 8 96 14 14 (150528)
I0601 18:37:38.123834  6142 net.cpp:137] Memory required for data: 603516960
I0601 18:37:38.123847  6142 layer_factory.cpp:63] Creating layer conv6_1/sep2/scale
I0601 18:37:38.123855  6142 net.cpp:84] Creating Layer conv6_1/sep2/scale
I0601 18:37:38.123860  6142 net.cpp:406] conv6_1/sep2/scale <- conv6_1/sep2
I0601 18:37:38.123868  6142 net.cpp:367] conv6_1/sep2/scale -> conv6_1/sep2 (in-place)
I0601 18:37:38.123934  6142 layer_factory.cpp:63] Creating layer conv6_1/sep2/scale
I0601 18:37:38.124109  6142 net.cpp:122] Setting up conv6_1/sep2/scale
I0601 18:37:38.124126  6142 net.cpp:129] Top shape: 8 96 14 14 (150528)
I0601 18:37:38.124131  6142 net.cpp:137] Memory required for data: 604119072
I0601 18:37:38.124140  6142 layer_factory.cpp:63] Creating layer conv6_1/sep2/ReLU
I0601 18:37:38.124150  6142 net.cpp:84] Creating Layer conv6_1/sep2/ReLU
I0601 18:37:38.124155  6142 net.cpp:406] conv6_1/sep2/ReLU <- conv6_1/sep2
I0601 18:37:38.124161  6142 net.cpp:367] conv6_1/sep2/ReLU -> conv6_1/sep2 (in-place)
I0601 18:37:38.125070  6142 net.cpp:122] Setting up conv6_1/sep2/ReLU
I0601 18:37:38.125093  6142 net.cpp:129] Top shape: 8 96 14 14 (150528)
I0601 18:37:38.125098  6142 net.cpp:137] Memory required for data: 604721184
I0601 18:37:38.125104  6142 layer_factory.cpp:63] Creating layer conv6_1/sep2_conv6_1/sep2/ReLU_0_split
I0601 18:37:38.125114  6142 net.cpp:84] Creating Layer conv6_1/sep2_conv6_1/sep2/ReLU_0_split
I0601 18:37:38.125120  6142 net.cpp:406] conv6_1/sep2_conv6_1/sep2/ReLU_0_split <- conv6_1/sep2
I0601 18:37:38.125131  6142 net.cpp:380] conv6_1/sep2_conv6_1/sep2/ReLU_0_split -> conv6_1/sep2_conv6_1/sep2/ReLU_0_split_0
I0601 18:37:38.125144  6142 net.cpp:380] conv6_1/sep2_conv6_1/sep2/ReLU_0_split -> conv6_1/sep2_conv6_1/sep2/ReLU_0_split_1
I0601 18:37:38.125213  6142 net.cpp:122] Setting up conv6_1/sep2_conv6_1/sep2/ReLU_0_split
I0601 18:37:38.125223  6142 net.cpp:129] Top shape: 8 96 14 14 (150528)
I0601 18:37:38.125229  6142 net.cpp:129] Top shape: 8 96 14 14 (150528)
I0601 18:37:38.125234  6142 net.cpp:137] Memory required for data: 605925408
I0601 18:37:38.125239  6142 layer_factory.cpp:63] Creating layer conv6_2/sep1
I0601 18:37:38.125252  6142 net.cpp:84] Creating Layer conv6_2/sep1
I0601 18:37:38.125259  6142 net.cpp:406] conv6_2/sep1 <- conv6_1/sep2_conv6_1/sep2/ReLU_0_split_0
I0601 18:37:38.125267  6142 net.cpp:380] conv6_2/sep1 -> conv6_2/sep1
I0601 18:37:38.130534  6142 net.cpp:122] Setting up conv6_2/sep1
I0601 18:37:38.130563  6142 net.cpp:129] Top shape: 8 576 14 14 (903168)
I0601 18:37:38.130568  6142 net.cpp:137] Memory required for data: 609538080
I0601 18:37:38.130578  6142 layer_factory.cpp:63] Creating layer conv6_2/sep1/bn
I0601 18:37:38.130587  6142 net.cpp:84] Creating Layer conv6_2/sep1/bn
I0601 18:37:38.130594  6142 net.cpp:406] conv6_2/sep1/bn <- conv6_2/sep1
I0601 18:37:38.130607  6142 net.cpp:367] conv6_2/sep1/bn -> conv6_2/sep1 (in-place)
I0601 18:37:38.130935  6142 net.cpp:122] Setting up conv6_2/sep1/bn
I0601 18:37:38.130949  6142 net.cpp:129] Top shape: 8 576 14 14 (903168)
I0601 18:37:38.130955  6142 net.cpp:137] Memory required for data: 613150752
I0601 18:37:38.130966  6142 layer_factory.cpp:63] Creating layer conv6_2/sep1/scale
I0601 18:37:38.130975  6142 net.cpp:84] Creating Layer conv6_2/sep1/scale
I0601 18:37:38.130981  6142 net.cpp:406] conv6_2/sep1/scale <- conv6_2/sep1
I0601 18:37:38.130991  6142 net.cpp:367] conv6_2/sep1/scale -> conv6_2/sep1 (in-place)
I0601 18:37:38.131050  6142 layer_factory.cpp:63] Creating layer conv6_2/sep1/scale
I0601 18:37:38.131247  6142 net.cpp:122] Setting up conv6_2/sep1/scale
I0601 18:37:38.131261  6142 net.cpp:129] Top shape: 8 576 14 14 (903168)
I0601 18:37:38.131266  6142 net.cpp:137] Memory required for data: 616763424
I0601 18:37:38.131294  6142 layer_factory.cpp:63] Creating layer conv6_2/sep1/ReLU
I0601 18:37:38.131302  6142 net.cpp:84] Creating Layer conv6_2/sep1/ReLU
I0601 18:37:38.131309  6142 net.cpp:406] conv6_2/sep1/ReLU <- conv6_2/sep1
I0601 18:37:38.131315  6142 net.cpp:367] conv6_2/sep1/ReLU -> conv6_2/sep1 (in-place)
I0601 18:37:38.132241  6142 net.cpp:122] Setting up conv6_2/sep1/ReLU
I0601 18:37:38.132267  6142 net.cpp:129] Top shape: 8 576 14 14 (903168)
I0601 18:37:38.132273  6142 net.cpp:137] Memory required for data: 620376096
I0601 18:37:38.132279  6142 layer_factory.cpp:63] Creating layer conv6_2/dw
I0601 18:37:38.132290  6142 net.cpp:84] Creating Layer conv6_2/dw
I0601 18:37:38.132297  6142 net.cpp:406] conv6_2/dw <- conv6_2/sep1
I0601 18:37:38.132308  6142 net.cpp:380] conv6_2/dw -> conv6_2/dw
I0601 18:37:38.132591  6142 net.cpp:122] Setting up conv6_2/dw
I0601 18:37:38.132608  6142 net.cpp:129] Top shape: 8 576 14 14 (903168)
I0601 18:37:38.132614  6142 net.cpp:137] Memory required for data: 623988768
I0601 18:37:38.132622  6142 layer_factory.cpp:63] Creating layer conv6_2/dw/bn
I0601 18:37:38.132634  6142 net.cpp:84] Creating Layer conv6_2/dw/bn
I0601 18:37:38.132640  6142 net.cpp:406] conv6_2/dw/bn <- conv6_2/dw
I0601 18:37:38.132648  6142 net.cpp:367] conv6_2/dw/bn -> conv6_2/dw (in-place)
I0601 18:37:38.132959  6142 net.cpp:122] Setting up conv6_2/dw/bn
I0601 18:37:38.132972  6142 net.cpp:129] Top shape: 8 576 14 14 (903168)
I0601 18:37:38.132977  6142 net.cpp:137] Memory required for data: 627601440
I0601 18:37:38.132989  6142 layer_factory.cpp:63] Creating layer conv6_2/dw/scale
I0601 18:37:38.133000  6142 net.cpp:84] Creating Layer conv6_2/dw/scale
I0601 18:37:38.133006  6142 net.cpp:406] conv6_2/dw/scale <- conv6_2/dw
I0601 18:37:38.133013  6142 net.cpp:367] conv6_2/dw/scale -> conv6_2/dw (in-place)
I0601 18:37:38.133076  6142 layer_factory.cpp:63] Creating layer conv6_2/dw/scale
I0601 18:37:38.133252  6142 net.cpp:122] Setting up conv6_2/dw/scale
I0601 18:37:38.133265  6142 net.cpp:129] Top shape: 8 576 14 14 (903168)
I0601 18:37:38.133270  6142 net.cpp:137] Memory required for data: 631214112
I0601 18:37:38.133280  6142 layer_factory.cpp:63] Creating layer conv6_2/dw/ReLU
I0601 18:37:38.133289  6142 net.cpp:84] Creating Layer conv6_2/dw/ReLU
I0601 18:37:38.133296  6142 net.cpp:406] conv6_2/dw/ReLU <- conv6_2/dw
I0601 18:37:38.133302  6142 net.cpp:367] conv6_2/dw/ReLU -> conv6_2/dw (in-place)
I0601 18:37:38.134028  6142 net.cpp:122] Setting up conv6_2/dw/ReLU
I0601 18:37:38.134048  6142 net.cpp:129] Top shape: 8 576 14 14 (903168)
I0601 18:37:38.134054  6142 net.cpp:137] Memory required for data: 634826784
I0601 18:37:38.134059  6142 layer_factory.cpp:63] Creating layer conv6_2/sep2
I0601 18:37:38.134073  6142 net.cpp:84] Creating Layer conv6_2/sep2
I0601 18:37:38.134079  6142 net.cpp:406] conv6_2/sep2 <- conv6_2/dw
I0601 18:37:38.134090  6142 net.cpp:380] conv6_2/sep2 -> conv6_2/sep2
I0601 18:37:38.138170  6142 net.cpp:122] Setting up conv6_2/sep2
I0601 18:37:38.138195  6142 net.cpp:129] Top shape: 8 96 14 14 (150528)
I0601 18:37:38.138200  6142 net.cpp:137] Memory required for data: 635428896
I0601 18:37:38.138208  6142 layer_factory.cpp:63] Creating layer conv6_2/sep2/bn
I0601 18:37:38.138218  6142 net.cpp:84] Creating Layer conv6_2/sep2/bn
I0601 18:37:38.138226  6142 net.cpp:406] conv6_2/sep2/bn <- conv6_2/sep2
I0601 18:37:38.138236  6142 net.cpp:367] conv6_2/sep2/bn -> conv6_2/sep2 (in-place)
I0601 18:37:38.138563  6142 net.cpp:122] Setting up conv6_2/sep2/bn
I0601 18:37:38.138577  6142 net.cpp:129] Top shape: 8 96 14 14 (150528)
I0601 18:37:38.138582  6142 net.cpp:137] Memory required for data: 636031008
I0601 18:37:38.138594  6142 layer_factory.cpp:63] Creating layer conv6_2/sep2/scale
I0601 18:37:38.138603  6142 net.cpp:84] Creating Layer conv6_2/sep2/scale
I0601 18:37:38.138608  6142 net.cpp:406] conv6_2/sep2/scale <- conv6_2/sep2
I0601 18:37:38.138618  6142 net.cpp:367] conv6_2/sep2/scale -> conv6_2/sep2 (in-place)
I0601 18:37:38.138679  6142 layer_factory.cpp:63] Creating layer conv6_2/sep2/scale
I0601 18:37:38.138881  6142 net.cpp:122] Setting up conv6_2/sep2/scale
I0601 18:37:38.138896  6142 net.cpp:129] Top shape: 8 96 14 14 (150528)
I0601 18:37:38.138901  6142 net.cpp:137] Memory required for data: 636633120
I0601 18:37:38.138911  6142 layer_factory.cpp:63] Creating layer conv6_2/Eltwise1
I0601 18:37:38.138921  6142 net.cpp:84] Creating Layer conv6_2/Eltwise1
I0601 18:37:38.138926  6142 net.cpp:406] conv6_2/Eltwise1 <- conv6_1/sep2_conv6_1/sep2/ReLU_0_split_1
I0601 18:37:38.138933  6142 net.cpp:406] conv6_2/Eltwise1 <- conv6_2/sep2
I0601 18:37:38.138944  6142 net.cpp:380] conv6_2/Eltwise1 -> conv6_2/Eltwise1
I0601 18:37:38.138985  6142 net.cpp:122] Setting up conv6_2/Eltwise1
I0601 18:37:38.138994  6142 net.cpp:129] Top shape: 8 96 14 14 (150528)
I0601 18:37:38.138998  6142 net.cpp:137] Memory required for data: 637235232
I0601 18:37:38.139003  6142 layer_factory.cpp:63] Creating layer conv6_2/Eltwise/ReLU
I0601 18:37:38.139012  6142 net.cpp:84] Creating Layer conv6_2/Eltwise/ReLU
I0601 18:37:38.139017  6142 net.cpp:406] conv6_2/Eltwise/ReLU <- conv6_2/Eltwise1
I0601 18:37:38.139025  6142 net.cpp:367] conv6_2/Eltwise/ReLU -> conv6_2/Eltwise1 (in-place)
I0601 18:37:38.139775  6142 net.cpp:122] Setting up conv6_2/Eltwise/ReLU
I0601 18:37:38.139796  6142 net.cpp:129] Top shape: 8 96 14 14 (150528)
I0601 18:37:38.139801  6142 net.cpp:137] Memory required for data: 637837344
I0601 18:37:38.139807  6142 layer_factory.cpp:63] Creating layer conv7_1/sep1
I0601 18:37:38.139822  6142 net.cpp:84] Creating Layer conv7_1/sep1
I0601 18:37:38.139828  6142 net.cpp:406] conv7_1/sep1 <- conv6_2/Eltwise1
I0601 18:37:38.139839  6142 net.cpp:380] conv7_1/sep1 -> conv7_1/sep1
I0601 18:37:38.144477  6142 net.cpp:122] Setting up conv7_1/sep1
I0601 18:37:38.144503  6142 net.cpp:129] Top shape: 8 576 14 14 (903168)
I0601 18:37:38.144508  6142 net.cpp:137] Memory required for data: 641450016
I0601 18:37:38.144517  6142 layer_factory.cpp:63] Creating layer conv7_1/sep1/bn
I0601 18:37:38.144531  6142 net.cpp:84] Creating Layer conv7_1/sep1/bn
I0601 18:37:38.144537  6142 net.cpp:406] conv7_1/sep1/bn <- conv7_1/sep1
I0601 18:37:38.144544  6142 net.cpp:367] conv7_1/sep1/bn -> conv7_1/sep1 (in-place)
I0601 18:37:38.144865  6142 net.cpp:122] Setting up conv7_1/sep1/bn
I0601 18:37:38.144878  6142 net.cpp:129] Top shape: 8 576 14 14 (903168)
I0601 18:37:38.144883  6142 net.cpp:137] Memory required for data: 645062688
I0601 18:37:38.144896  6142 layer_factory.cpp:63] Creating layer conv7_1/sep1/scale
I0601 18:37:38.144904  6142 net.cpp:84] Creating Layer conv7_1/sep1/scale
I0601 18:37:38.144910  6142 net.cpp:406] conv7_1/sep1/scale <- conv7_1/sep1
I0601 18:37:38.144917  6142 net.cpp:367] conv7_1/sep1/scale -> conv7_1/sep1 (in-place)
I0601 18:37:38.144981  6142 layer_factory.cpp:63] Creating layer conv7_1/sep1/scale
I0601 18:37:38.145162  6142 net.cpp:122] Setting up conv7_1/sep1/scale
I0601 18:37:38.145175  6142 net.cpp:129] Top shape: 8 576 14 14 (903168)
I0601 18:37:38.145181  6142 net.cpp:137] Memory required for data: 648675360
I0601 18:37:38.145190  6142 layer_factory.cpp:63] Creating layer conv7_1/sep1/ReLU
I0601 18:37:38.145198  6142 net.cpp:84] Creating Layer conv7_1/sep1/ReLU
I0601 18:37:38.145206  6142 net.cpp:406] conv7_1/sep1/ReLU <- conv7_1/sep1
I0601 18:37:38.145213  6142 net.cpp:367] conv7_1/sep1/ReLU -> conv7_1/sep1 (in-place)
I0601 18:37:38.146132  6142 net.cpp:122] Setting up conv7_1/sep1/ReLU
I0601 18:37:38.146155  6142 net.cpp:129] Top shape: 8 576 14 14 (903168)
I0601 18:37:38.146160  6142 net.cpp:137] Memory required for data: 652288032
I0601 18:37:38.146167  6142 layer_factory.cpp:63] Creating layer conv7_1/dw
I0601 18:37:38.146179  6142 net.cpp:84] Creating Layer conv7_1/dw
I0601 18:37:38.146185  6142 net.cpp:406] conv7_1/dw <- conv7_1/sep1
I0601 18:37:38.146194  6142 net.cpp:380] conv7_1/dw -> conv7_1/dw
I0601 18:37:38.146653  6142 net.cpp:122] Setting up conv7_1/dw
I0601 18:37:38.146672  6142 net.cpp:129] Top shape: 8 576 7 7 (225792)
I0601 18:37:38.146677  6142 net.cpp:137] Memory required for data: 653191200
I0601 18:37:38.146703  6142 layer_factory.cpp:63] Creating layer conv7_1/dw/bn
I0601 18:37:38.146715  6142 net.cpp:84] Creating Layer conv7_1/dw/bn
I0601 18:37:38.146723  6142 net.cpp:406] conv7_1/dw/bn <- conv7_1/dw
I0601 18:37:38.146729  6142 net.cpp:367] conv7_1/dw/bn -> conv7_1/dw (in-place)
I0601 18:37:38.147045  6142 net.cpp:122] Setting up conv7_1/dw/bn
I0601 18:37:38.147070  6142 net.cpp:129] Top shape: 8 576 7 7 (225792)
I0601 18:37:38.147075  6142 net.cpp:137] Memory required for data: 654094368
I0601 18:37:38.147087  6142 layer_factory.cpp:63] Creating layer conv7_1/dw/scale
I0601 18:37:38.147096  6142 net.cpp:84] Creating Layer conv7_1/dw/scale
I0601 18:37:38.147102  6142 net.cpp:406] conv7_1/dw/scale <- conv7_1/dw
I0601 18:37:38.147111  6142 net.cpp:367] conv7_1/dw/scale -> conv7_1/dw (in-place)
I0601 18:37:38.147174  6142 layer_factory.cpp:63] Creating layer conv7_1/dw/scale
I0601 18:37:38.147354  6142 net.cpp:122] Setting up conv7_1/dw/scale
I0601 18:37:38.147367  6142 net.cpp:129] Top shape: 8 576 7 7 (225792)
I0601 18:37:38.147372  6142 net.cpp:137] Memory required for data: 654997536
I0601 18:37:38.147382  6142 layer_factory.cpp:63] Creating layer conv7_1/dw/ReLU
I0601 18:37:38.147389  6142 net.cpp:84] Creating Layer conv7_1/dw/ReLU
I0601 18:37:38.147394  6142 net.cpp:406] conv7_1/dw/ReLU <- conv7_1/dw
I0601 18:37:38.147403  6142 net.cpp:367] conv7_1/dw/ReLU -> conv7_1/dw (in-place)
I0601 18:37:38.148130  6142 net.cpp:122] Setting up conv7_1/dw/ReLU
I0601 18:37:38.148149  6142 net.cpp:129] Top shape: 8 576 7 7 (225792)
I0601 18:37:38.148154  6142 net.cpp:137] Memory required for data: 655900704
I0601 18:37:38.148160  6142 layer_factory.cpp:63] Creating layer conv7_1/sep2
I0601 18:37:38.148175  6142 net.cpp:84] Creating Layer conv7_1/sep2
I0601 18:37:38.148180  6142 net.cpp:406] conv7_1/sep2 <- conv7_1/dw
I0601 18:37:38.148190  6142 net.cpp:380] conv7_1/sep2 -> conv7_1/sep2
I0601 18:37:38.153937  6142 net.cpp:122] Setting up conv7_1/sep2
I0601 18:37:38.153962  6142 net.cpp:129] Top shape: 8 192 7 7 (75264)
I0601 18:37:38.153968  6142 net.cpp:137] Memory required for data: 656201760
I0601 18:37:38.153976  6142 layer_factory.cpp:63] Creating layer conv7_1/sep2/bn
I0601 18:37:38.153990  6142 net.cpp:84] Creating Layer conv7_1/sep2/bn
I0601 18:37:38.153996  6142 net.cpp:406] conv7_1/sep2/bn <- conv7_1/sep2
I0601 18:37:38.154006  6142 net.cpp:367] conv7_1/sep2/bn -> conv7_1/sep2 (in-place)
I0601 18:37:38.154327  6142 net.cpp:122] Setting up conv7_1/sep2/bn
I0601 18:37:38.154341  6142 net.cpp:129] Top shape: 8 192 7 7 (75264)
I0601 18:37:38.154347  6142 net.cpp:137] Memory required for data: 656502816
I0601 18:37:38.154358  6142 layer_factory.cpp:63] Creating layer conv7_1/sep2/scale
I0601 18:37:38.154369  6142 net.cpp:84] Creating Layer conv7_1/sep2/scale
I0601 18:37:38.154376  6142 net.cpp:406] conv7_1/sep2/scale <- conv7_1/sep2
I0601 18:37:38.154382  6142 net.cpp:367] conv7_1/sep2/scale -> conv7_1/sep2 (in-place)
I0601 18:37:38.154444  6142 layer_factory.cpp:63] Creating layer conv7_1/sep2/scale
I0601 18:37:38.154628  6142 net.cpp:122] Setting up conv7_1/sep2/scale
I0601 18:37:38.154640  6142 net.cpp:129] Top shape: 8 192 7 7 (75264)
I0601 18:37:38.154645  6142 net.cpp:137] Memory required for data: 656803872
I0601 18:37:38.154654  6142 layer_factory.cpp:63] Creating layer conv7_1/sep2/ReLU
I0601 18:37:38.154665  6142 net.cpp:84] Creating Layer conv7_1/sep2/ReLU
I0601 18:37:38.154671  6142 net.cpp:406] conv7_1/sep2/ReLU <- conv7_1/sep2
I0601 18:37:38.154678  6142 net.cpp:367] conv7_1/sep2/ReLU -> conv7_1/sep2 (in-place)
I0601 18:37:38.155618  6142 net.cpp:122] Setting up conv7_1/sep2/ReLU
I0601 18:37:38.155643  6142 net.cpp:129] Top shape: 8 192 7 7 (75264)
I0601 18:37:38.155648  6142 net.cpp:137] Memory required for data: 657104928
I0601 18:37:38.155654  6142 layer_factory.cpp:63] Creating layer conv7_1/sep2_conv7_1/sep2/ReLU_0_split
I0601 18:37:38.155664  6142 net.cpp:84] Creating Layer conv7_1/sep2_conv7_1/sep2/ReLU_0_split
I0601 18:37:38.155670  6142 net.cpp:406] conv7_1/sep2_conv7_1/sep2/ReLU_0_split <- conv7_1/sep2
I0601 18:37:38.155700  6142 net.cpp:380] conv7_1/sep2_conv7_1/sep2/ReLU_0_split -> conv7_1/sep2_conv7_1/sep2/ReLU_0_split_0
I0601 18:37:38.155714  6142 net.cpp:380] conv7_1/sep2_conv7_1/sep2/ReLU_0_split -> conv7_1/sep2_conv7_1/sep2/ReLU_0_split_1
I0601 18:37:38.155788  6142 net.cpp:122] Setting up conv7_1/sep2_conv7_1/sep2/ReLU_0_split
I0601 18:37:38.155798  6142 net.cpp:129] Top shape: 8 192 7 7 (75264)
I0601 18:37:38.155805  6142 net.cpp:129] Top shape: 8 192 7 7 (75264)
I0601 18:37:38.155809  6142 net.cpp:137] Memory required for data: 657707040
I0601 18:37:38.155815  6142 layer_factory.cpp:63] Creating layer conv7_2/sep1
I0601 18:37:38.155831  6142 net.cpp:84] Creating Layer conv7_2/sep1
I0601 18:37:38.155838  6142 net.cpp:406] conv7_2/sep1 <- conv7_1/sep2_conv7_1/sep2/ReLU_0_split_0
I0601 18:37:38.155845  6142 net.cpp:380] conv7_2/sep1 -> conv7_2/sep1
I0601 18:37:38.163671  6142 net.cpp:122] Setting up conv7_2/sep1
I0601 18:37:38.163697  6142 net.cpp:129] Top shape: 8 1152 7 7 (451584)
I0601 18:37:38.163702  6142 net.cpp:137] Memory required for data: 659513376
I0601 18:37:38.163712  6142 layer_factory.cpp:63] Creating layer conv7_2/sep1/bn
I0601 18:37:38.163722  6142 net.cpp:84] Creating Layer conv7_2/sep1/bn
I0601 18:37:38.163727  6142 net.cpp:406] conv7_2/sep1/bn <- conv7_2/sep1
I0601 18:37:38.163738  6142 net.cpp:367] conv7_2/sep1/bn -> conv7_2/sep1 (in-place)
I0601 18:37:38.164047  6142 net.cpp:122] Setting up conv7_2/sep1/bn
I0601 18:37:38.164060  6142 net.cpp:129] Top shape: 8 1152 7 7 (451584)
I0601 18:37:38.164065  6142 net.cpp:137] Memory required for data: 661319712
I0601 18:37:38.164077  6142 layer_factory.cpp:63] Creating layer conv7_2/sep1/scale
I0601 18:37:38.164086  6142 net.cpp:84] Creating Layer conv7_2/sep1/scale
I0601 18:37:38.164091  6142 net.cpp:406] conv7_2/sep1/scale <- conv7_2/sep1
I0601 18:37:38.164099  6142 net.cpp:367] conv7_2/sep1/scale -> conv7_2/sep1 (in-place)
I0601 18:37:38.164161  6142 layer_factory.cpp:63] Creating layer conv7_2/sep1/scale
I0601 18:37:38.164330  6142 net.cpp:122] Setting up conv7_2/sep1/scale
I0601 18:37:38.164341  6142 net.cpp:129] Top shape: 8 1152 7 7 (451584)
I0601 18:37:38.164346  6142 net.cpp:137] Memory required for data: 663126048
I0601 18:37:38.164355  6142 layer_factory.cpp:63] Creating layer conv7_2/sep1/ReLU
I0601 18:37:38.164364  6142 net.cpp:84] Creating Layer conv7_2/sep1/ReLU
I0601 18:37:38.164369  6142 net.cpp:406] conv7_2/sep1/ReLU <- conv7_2/sep1
I0601 18:37:38.164381  6142 net.cpp:367] conv7_2/sep1/ReLU -> conv7_2/sep1 (in-place)
I0601 18:37:38.165868  6142 net.cpp:122] Setting up conv7_2/sep1/ReLU
I0601 18:37:38.165892  6142 net.cpp:129] Top shape: 8 1152 7 7 (451584)
I0601 18:37:38.165897  6142 net.cpp:137] Memory required for data: 664932384
I0601 18:37:38.165904  6142 layer_factory.cpp:63] Creating layer conv7_2/dw
I0601 18:37:38.165915  6142 net.cpp:84] Creating Layer conv7_2/dw
I0601 18:37:38.165920  6142 net.cpp:406] conv7_2/dw <- conv7_2/sep1
I0601 18:37:38.165932  6142 net.cpp:380] conv7_2/dw -> conv7_2/dw
I0601 18:37:38.166666  6142 net.cpp:122] Setting up conv7_2/dw
I0601 18:37:38.166687  6142 net.cpp:129] Top shape: 8 1152 7 7 (451584)
I0601 18:37:38.166692  6142 net.cpp:137] Memory required for data: 666738720
I0601 18:37:38.166700  6142 layer_factory.cpp:63] Creating layer conv7_2/dw/bn
I0601 18:37:38.166710  6142 net.cpp:84] Creating Layer conv7_2/dw/bn
I0601 18:37:38.166716  6142 net.cpp:406] conv7_2/dw/bn <- conv7_2/dw
I0601 18:37:38.166726  6142 net.cpp:367] conv7_2/dw/bn -> conv7_2/dw (in-place)
I0601 18:37:38.167047  6142 net.cpp:122] Setting up conv7_2/dw/bn
I0601 18:37:38.167073  6142 net.cpp:129] Top shape: 8 1152 7 7 (451584)
I0601 18:37:38.167078  6142 net.cpp:137] Memory required for data: 668545056
I0601 18:37:38.167089  6142 layer_factory.cpp:63] Creating layer conv7_2/dw/scale
I0601 18:37:38.167098  6142 net.cpp:84] Creating Layer conv7_2/dw/scale
I0601 18:37:38.167104  6142 net.cpp:406] conv7_2/dw/scale <- conv7_2/dw
I0601 18:37:38.167111  6142 net.cpp:367] conv7_2/dw/scale -> conv7_2/dw (in-place)
I0601 18:37:38.167199  6142 layer_factory.cpp:63] Creating layer conv7_2/dw/scale
I0601 18:37:38.167373  6142 net.cpp:122] Setting up conv7_2/dw/scale
I0601 18:37:38.167387  6142 net.cpp:129] Top shape: 8 1152 7 7 (451584)
I0601 18:37:38.167392  6142 net.cpp:137] Memory required for data: 670351392
I0601 18:37:38.167402  6142 layer_factory.cpp:63] Creating layer conv7_2/dw/ReLU
I0601 18:37:38.167412  6142 net.cpp:84] Creating Layer conv7_2/dw/ReLU
I0601 18:37:38.167418  6142 net.cpp:406] conv7_2/dw/ReLU <- conv7_2/dw
I0601 18:37:38.167425  6142 net.cpp:367] conv7_2/dw/ReLU -> conv7_2/dw (in-place)
I0601 18:37:38.168349  6142 net.cpp:122] Setting up conv7_2/dw/ReLU
I0601 18:37:38.168372  6142 net.cpp:129] Top shape: 8 1152 7 7 (451584)
I0601 18:37:38.168380  6142 net.cpp:137] Memory required for data: 672157728
I0601 18:37:38.168386  6142 layer_factory.cpp:63] Creating layer conv7_2/sep2
I0601 18:37:38.168398  6142 net.cpp:84] Creating Layer conv7_2/sep2
I0601 18:37:38.168404  6142 net.cpp:406] conv7_2/sep2 <- conv7_2/dw
I0601 18:37:38.168416  6142 net.cpp:380] conv7_2/sep2 -> conv7_2/sep2
I0601 18:37:38.176193  6142 net.cpp:122] Setting up conv7_2/sep2
I0601 18:37:38.176218  6142 net.cpp:129] Top shape: 8 192 7 7 (75264)
I0601 18:37:38.176224  6142 net.cpp:137] Memory required for data: 672458784
I0601 18:37:38.176234  6142 layer_factory.cpp:63] Creating layer conv7_2/sep2/bn
I0601 18:37:38.176244  6142 net.cpp:84] Creating Layer conv7_2/sep2/bn
I0601 18:37:38.176250  6142 net.cpp:406] conv7_2/sep2/bn <- conv7_2/sep2
I0601 18:37:38.176265  6142 net.cpp:367] conv7_2/sep2/bn -> conv7_2/sep2 (in-place)
I0601 18:37:38.176590  6142 net.cpp:122] Setting up conv7_2/sep2/bn
I0601 18:37:38.176604  6142 net.cpp:129] Top shape: 8 192 7 7 (75264)
I0601 18:37:38.176609  6142 net.cpp:137] Memory required for data: 672759840
I0601 18:37:38.176620  6142 layer_factory.cpp:63] Creating layer conv7_2/sep2/scale
I0601 18:37:38.176630  6142 net.cpp:84] Creating Layer conv7_2/sep2/scale
I0601 18:37:38.176636  6142 net.cpp:406] conv7_2/sep2/scale <- conv7_2/sep2
I0601 18:37:38.176643  6142 net.cpp:367] conv7_2/sep2/scale -> conv7_2/sep2 (in-place)
I0601 18:37:38.176705  6142 layer_factory.cpp:63] Creating layer conv7_2/sep2/scale
I0601 18:37:38.176889  6142 net.cpp:122] Setting up conv7_2/sep2/scale
I0601 18:37:38.176903  6142 net.cpp:129] Top shape: 8 192 7 7 (75264)
I0601 18:37:38.176908  6142 net.cpp:137] Memory required for data: 673060896
I0601 18:37:38.176916  6142 layer_factory.cpp:63] Creating layer conv7_2/Eltwise1
I0601 18:37:38.176926  6142 net.cpp:84] Creating Layer conv7_2/Eltwise1
I0601 18:37:38.176932  6142 net.cpp:406] conv7_2/Eltwise1 <- conv7_1/sep2_conv7_1/sep2/ReLU_0_split_1
I0601 18:37:38.176939  6142 net.cpp:406] conv7_2/Eltwise1 <- conv7_2/sep2
I0601 18:37:38.176952  6142 net.cpp:380] conv7_2/Eltwise1 -> conv7_2/Eltwise1
I0601 18:37:38.176992  6142 net.cpp:122] Setting up conv7_2/Eltwise1
I0601 18:37:38.177002  6142 net.cpp:129] Top shape: 8 192 7 7 (75264)
I0601 18:37:38.177007  6142 net.cpp:137] Memory required for data: 673361952
I0601 18:37:38.177012  6142 layer_factory.cpp:63] Creating layer conv7_2/Eltwise/ReLU
I0601 18:37:38.177021  6142 net.cpp:84] Creating Layer conv7_2/Eltwise/ReLU
I0601 18:37:38.177027  6142 net.cpp:406] conv7_2/Eltwise/ReLU <- conv7_2/Eltwise1
I0601 18:37:38.177034  6142 net.cpp:367] conv7_2/Eltwise/ReLU -> conv7_2/Eltwise1 (in-place)
I0601 18:37:38.177963  6142 net.cpp:122] Setting up conv7_2/Eltwise/ReLU
I0601 18:37:38.177986  6142 net.cpp:129] Top shape: 8 192 7 7 (75264)
I0601 18:37:38.177991  6142 net.cpp:137] Memory required for data: 673663008
I0601 18:37:38.177997  6142 layer_factory.cpp:63] Creating layer conv7_2/Eltwise1_conv7_2/Eltwise/ReLU_0_split
I0601 18:37:38.178009  6142 net.cpp:84] Creating Layer conv7_2/Eltwise1_conv7_2/Eltwise/ReLU_0_split
I0601 18:37:38.178014  6142 net.cpp:406] conv7_2/Eltwise1_conv7_2/Eltwise/ReLU_0_split <- conv7_2/Eltwise1
I0601 18:37:38.178026  6142 net.cpp:380] conv7_2/Eltwise1_conv7_2/Eltwise/ReLU_0_split -> conv7_2/Eltwise1_conv7_2/Eltwise/ReLU_0_split_0
I0601 18:37:38.178057  6142 net.cpp:380] conv7_2/Eltwise1_conv7_2/Eltwise/ReLU_0_split -> conv7_2/Eltwise1_conv7_2/Eltwise/ReLU_0_split_1
I0601 18:37:38.178133  6142 net.cpp:122] Setting up conv7_2/Eltwise1_conv7_2/Eltwise/ReLU_0_split
I0601 18:37:38.178143  6142 net.cpp:129] Top shape: 8 192 7 7 (75264)
I0601 18:37:38.178150  6142 net.cpp:129] Top shape: 8 192 7 7 (75264)
I0601 18:37:38.178155  6142 net.cpp:137] Memory required for data: 674265120
I0601 18:37:38.178160  6142 layer_factory.cpp:63] Creating layer conv7_3/sep1
I0601 18:37:38.178174  6142 net.cpp:84] Creating Layer conv7_3/sep1
I0601 18:37:38.178181  6142 net.cpp:406] conv7_3/sep1 <- conv7_2/Eltwise1_conv7_2/Eltwise/ReLU_0_split_0
I0601 18:37:38.178190  6142 net.cpp:380] conv7_3/sep1 -> conv7_3/sep1
I0601 18:37:38.185855  6142 net.cpp:122] Setting up conv7_3/sep1
I0601 18:37:38.185881  6142 net.cpp:129] Top shape: 8 1152 7 7 (451584)
I0601 18:37:38.185887  6142 net.cpp:137] Memory required for data: 676071456
I0601 18:37:38.185896  6142 layer_factory.cpp:63] Creating layer conv7_3/sep1/bn
I0601 18:37:38.185911  6142 net.cpp:84] Creating Layer conv7_3/sep1/bn
I0601 18:37:38.185919  6142 net.cpp:406] conv7_3/sep1/bn <- conv7_3/sep1
I0601 18:37:38.185926  6142 net.cpp:367] conv7_3/sep1/bn -> conv7_3/sep1 (in-place)
I0601 18:37:38.186245  6142 net.cpp:122] Setting up conv7_3/sep1/bn
I0601 18:37:38.186260  6142 net.cpp:129] Top shape: 8 1152 7 7 (451584)
I0601 18:37:38.186266  6142 net.cpp:137] Memory required for data: 677877792
I0601 18:37:38.186277  6142 layer_factory.cpp:63] Creating layer conv7_3/sep1/scale
I0601 18:37:38.186287  6142 net.cpp:84] Creating Layer conv7_3/sep1/scale
I0601 18:37:38.186293  6142 net.cpp:406] conv7_3/sep1/scale <- conv7_3/sep1
I0601 18:37:38.186303  6142 net.cpp:367] conv7_3/sep1/scale -> conv7_3/sep1 (in-place)
I0601 18:37:38.186364  6142 layer_factory.cpp:63] Creating layer conv7_3/sep1/scale
I0601 18:37:38.186538  6142 net.cpp:122] Setting up conv7_3/sep1/scale
I0601 18:37:38.186553  6142 net.cpp:129] Top shape: 8 1152 7 7 (451584)
I0601 18:37:38.186558  6142 net.cpp:137] Memory required for data: 679684128
I0601 18:37:38.186591  6142 layer_factory.cpp:63] Creating layer conv7_3/sep1/ReLU
I0601 18:37:38.186601  6142 net.cpp:84] Creating Layer conv7_3/sep1/ReLU
I0601 18:37:38.186607  6142 net.cpp:406] conv7_3/sep1/ReLU <- conv7_3/sep1
I0601 18:37:38.186615  6142 net.cpp:367] conv7_3/sep1/ReLU -> conv7_3/sep1 (in-place)
I0601 18:37:38.187561  6142 net.cpp:122] Setting up conv7_3/sep1/ReLU
I0601 18:37:38.187584  6142 net.cpp:129] Top shape: 8 1152 7 7 (451584)
I0601 18:37:38.187590  6142 net.cpp:137] Memory required for data: 681490464
I0601 18:37:38.187597  6142 layer_factory.cpp:63] Creating layer conv7_3/dw
I0601 18:37:38.187610  6142 net.cpp:84] Creating Layer conv7_3/dw
I0601 18:37:38.187616  6142 net.cpp:406] conv7_3/dw <- conv7_3/sep1
I0601 18:37:38.187628  6142 net.cpp:380] conv7_3/dw -> conv7_3/dw
I0601 18:37:38.188349  6142 net.cpp:122] Setting up conv7_3/dw
I0601 18:37:38.188372  6142 net.cpp:129] Top shape: 8 1152 7 7 (451584)
I0601 18:37:38.188378  6142 net.cpp:137] Memory required for data: 683296800
I0601 18:37:38.188386  6142 layer_factory.cpp:63] Creating layer conv7_3/dw/bn
I0601 18:37:38.188395  6142 net.cpp:84] Creating Layer conv7_3/dw/bn
I0601 18:37:38.188402  6142 net.cpp:406] conv7_3/dw/bn <- conv7_3/dw
I0601 18:37:38.188413  6142 net.cpp:367] conv7_3/dw/bn -> conv7_3/dw (in-place)
I0601 18:37:38.188724  6142 net.cpp:122] Setting up conv7_3/dw/bn
I0601 18:37:38.188738  6142 net.cpp:129] Top shape: 8 1152 7 7 (451584)
I0601 18:37:38.188743  6142 net.cpp:137] Memory required for data: 685103136
I0601 18:37:38.188755  6142 layer_factory.cpp:63] Creating layer conv7_3/dw/scale
I0601 18:37:38.188766  6142 net.cpp:84] Creating Layer conv7_3/dw/scale
I0601 18:37:38.188771  6142 net.cpp:406] conv7_3/dw/scale <- conv7_3/dw
I0601 18:37:38.188778  6142 net.cpp:367] conv7_3/dw/scale -> conv7_3/dw (in-place)
I0601 18:37:38.188843  6142 layer_factory.cpp:63] Creating layer conv7_3/dw/scale
I0601 18:37:38.189033  6142 net.cpp:122] Setting up conv7_3/dw/scale
I0601 18:37:38.189049  6142 net.cpp:129] Top shape: 8 1152 7 7 (451584)
I0601 18:37:38.189054  6142 net.cpp:137] Memory required for data: 686909472
I0601 18:37:38.189064  6142 layer_factory.cpp:63] Creating layer conv7_3/dw/ReLU
I0601 18:37:38.189075  6142 net.cpp:84] Creating Layer conv7_3/dw/ReLU
I0601 18:37:38.189081  6142 net.cpp:406] conv7_3/dw/ReLU <- conv7_3/dw
I0601 18:37:38.189090  6142 net.cpp:367] conv7_3/dw/ReLU -> conv7_3/dw (in-place)
I0601 18:37:38.190608  6142 net.cpp:122] Setting up conv7_3/dw/ReLU
I0601 18:37:38.190632  6142 net.cpp:129] Top shape: 8 1152 7 7 (451584)
I0601 18:37:38.190639  6142 net.cpp:137] Memory required for data: 688715808
I0601 18:37:38.190644  6142 layer_factory.cpp:63] Creating layer conv7_3/sep2
I0601 18:37:38.190659  6142 net.cpp:84] Creating Layer conv7_3/sep2
I0601 18:37:38.190665  6142 net.cpp:406] conv7_3/sep2 <- conv7_3/dw
I0601 18:37:38.190677  6142 net.cpp:380] conv7_3/sep2 -> conv7_3/sep2
I0601 18:37:38.198382  6142 net.cpp:122] Setting up conv7_3/sep2
I0601 18:37:38.198407  6142 net.cpp:129] Top shape: 8 192 7 7 (75264)
I0601 18:37:38.198415  6142 net.cpp:137] Memory required for data: 689016864
I0601 18:37:38.198423  6142 layer_factory.cpp:63] Creating layer conv7_3/sep2/bn
I0601 18:37:38.198436  6142 net.cpp:84] Creating Layer conv7_3/sep2/bn
I0601 18:37:38.198443  6142 net.cpp:406] conv7_3/sep2/bn <- conv7_3/sep2
I0601 18:37:38.198453  6142 net.cpp:367] conv7_3/sep2/bn -> conv7_3/sep2 (in-place)
I0601 18:37:38.198781  6142 net.cpp:122] Setting up conv7_3/sep2/bn
I0601 18:37:38.198796  6142 net.cpp:129] Top shape: 8 192 7 7 (75264)
I0601 18:37:38.198801  6142 net.cpp:137] Memory required for data: 689317920
I0601 18:37:38.198812  6142 layer_factory.cpp:63] Creating layer conv7_3/sep2/scale
I0601 18:37:38.198824  6142 net.cpp:84] Creating Layer conv7_3/sep2/scale
I0601 18:37:38.198830  6142 net.cpp:406] conv7_3/sep2/scale <- conv7_3/sep2
I0601 18:37:38.198838  6142 net.cpp:367] conv7_3/sep2/scale -> conv7_3/sep2 (in-place)
I0601 18:37:38.198912  6142 layer_factory.cpp:63] Creating layer conv7_3/sep2/scale
I0601 18:37:38.199126  6142 net.cpp:122] Setting up conv7_3/sep2/scale
I0601 18:37:38.199141  6142 net.cpp:129] Top shape: 8 192 7 7 (75264)
I0601 18:37:38.199146  6142 net.cpp:137] Memory required for data: 689618976
I0601 18:37:38.199156  6142 layer_factory.cpp:63] Creating layer conv7_3/Eltwise1
I0601 18:37:38.199167  6142 net.cpp:84] Creating Layer conv7_3/Eltwise1
I0601 18:37:38.199172  6142 net.cpp:406] conv7_3/Eltwise1 <- conv7_2/Eltwise1_conv7_2/Eltwise/ReLU_0_split_1
I0601 18:37:38.199180  6142 net.cpp:406] conv7_3/Eltwise1 <- conv7_3/sep2
I0601 18:37:38.199192  6142 net.cpp:380] conv7_3/Eltwise1 -> conv7_3/Eltwise1
I0601 18:37:38.199234  6142 net.cpp:122] Setting up conv7_3/Eltwise1
I0601 18:37:38.199244  6142 net.cpp:129] Top shape: 8 192 7 7 (75264)
I0601 18:37:38.199249  6142 net.cpp:137] Memory required for data: 689920032
I0601 18:37:38.199254  6142 layer_factory.cpp:63] Creating layer conv7_3/Eltwise/ReLU
I0601 18:37:38.199263  6142 net.cpp:84] Creating Layer conv7_3/Eltwise/ReLU
I0601 18:37:38.199268  6142 net.cpp:406] conv7_3/Eltwise/ReLU <- conv7_3/Eltwise1
I0601 18:37:38.199276  6142 net.cpp:367] conv7_3/Eltwise/ReLU -> conv7_3/Eltwise1 (in-place)
I0601 18:37:38.200194  6142 net.cpp:122] Setting up conv7_3/Eltwise/ReLU
I0601 18:37:38.200220  6142 net.cpp:129] Top shape: 8 192 7 7 (75264)
I0601 18:37:38.200225  6142 net.cpp:137] Memory required for data: 690221088
I0601 18:37:38.200232  6142 layer_factory.cpp:63] Creating layer conv7_3/Eltwise1_conv7_3/Eltwise/ReLU_0_split
I0601 18:37:38.200242  6142 net.cpp:84] Creating Layer conv7_3/Eltwise1_conv7_3/Eltwise/ReLU_0_split
I0601 18:37:38.200248  6142 net.cpp:406] conv7_3/Eltwise1_conv7_3/Eltwise/ReLU_0_split <- conv7_3/Eltwise1
I0601 18:37:38.200260  6142 net.cpp:380] conv7_3/Eltwise1_conv7_3/Eltwise/ReLU_0_split -> conv7_3/Eltwise1_conv7_3/Eltwise/ReLU_0_split_0
I0601 18:37:38.200273  6142 net.cpp:380] conv7_3/Eltwise1_conv7_3/Eltwise/ReLU_0_split -> conv7_3/Eltwise1_conv7_3/Eltwise/ReLU_0_split_1
I0601 18:37:38.200368  6142 net.cpp:122] Setting up conv7_3/Eltwise1_conv7_3/Eltwise/ReLU_0_split
I0601 18:37:38.200381  6142 net.cpp:129] Top shape: 8 192 7 7 (75264)
I0601 18:37:38.200387  6142 net.cpp:129] Top shape: 8 192 7 7 (75264)
I0601 18:37:38.200392  6142 net.cpp:137] Memory required for data: 690823200
I0601 18:37:38.200397  6142 layer_factory.cpp:63] Creating layer conv7_4/sep1
I0601 18:37:38.200412  6142 net.cpp:84] Creating Layer conv7_4/sep1
I0601 18:37:38.200418  6142 net.cpp:406] conv7_4/sep1 <- conv7_3/Eltwise1_conv7_3/Eltwise/ReLU_0_split_0
I0601 18:37:38.200428  6142 net.cpp:380] conv7_4/sep1 -> conv7_4/sep1
I0601 18:37:38.208246  6142 net.cpp:122] Setting up conv7_4/sep1
I0601 18:37:38.208272  6142 net.cpp:129] Top shape: 8 1152 7 7 (451584)
I0601 18:37:38.208278  6142 net.cpp:137] Memory required for data: 692629536
I0601 18:37:38.208287  6142 layer_factory.cpp:63] Creating layer conv7_4/sep1/bn
I0601 18:37:38.208302  6142 net.cpp:84] Creating Layer conv7_4/sep1/bn
I0601 18:37:38.208308  6142 net.cpp:406] conv7_4/sep1/bn <- conv7_4/sep1
I0601 18:37:38.208319  6142 net.cpp:367] conv7_4/sep1/bn -> conv7_4/sep1 (in-place)
I0601 18:37:38.208628  6142 net.cpp:122] Setting up conv7_4/sep1/bn
I0601 18:37:38.208643  6142 net.cpp:129] Top shape: 8 1152 7 7 (451584)
I0601 18:37:38.208648  6142 net.cpp:137] Memory required for data: 694435872
I0601 18:37:38.208659  6142 layer_factory.cpp:63] Creating layer conv7_4/sep1/scale
I0601 18:37:38.208672  6142 net.cpp:84] Creating Layer conv7_4/sep1/scale
I0601 18:37:38.208678  6142 net.cpp:406] conv7_4/sep1/scale <- conv7_4/sep1
I0601 18:37:38.208686  6142 net.cpp:367] conv7_4/sep1/scale -> conv7_4/sep1 (in-place)
I0601 18:37:38.208750  6142 layer_factory.cpp:63] Creating layer conv7_4/sep1/scale
I0601 18:37:38.208920  6142 net.cpp:122] Setting up conv7_4/sep1/scale
I0601 18:37:38.208932  6142 net.cpp:129] Top shape: 8 1152 7 7 (451584)
I0601 18:37:38.208938  6142 net.cpp:137] Memory required for data: 696242208
I0601 18:37:38.208947  6142 layer_factory.cpp:63] Creating layer conv7_4/sep1/ReLU
I0601 18:37:38.208956  6142 net.cpp:84] Creating Layer conv7_4/sep1/ReLU
I0601 18:37:38.208962  6142 net.cpp:406] conv7_4/sep1/ReLU <- conv7_4/sep1
I0601 18:37:38.208969  6142 net.cpp:367] conv7_4/sep1/ReLU -> conv7_4/sep1 (in-place)
I0601 18:37:38.209898  6142 net.cpp:122] Setting up conv7_4/sep1/ReLU
I0601 18:37:38.209924  6142 net.cpp:129] Top shape: 8 1152 7 7 (451584)
I0601 18:37:38.209930  6142 net.cpp:137] Memory required for data: 698048544
I0601 18:37:38.209936  6142 layer_factory.cpp:63] Creating layer conv7_4/dw
I0601 18:37:38.209947  6142 net.cpp:84] Creating Layer conv7_4/dw
I0601 18:37:38.209954  6142 net.cpp:406] conv7_4/dw <- conv7_4/sep1
I0601 18:37:38.209965  6142 net.cpp:380] conv7_4/dw -> conv7_4/dw
I0601 18:37:38.210706  6142 net.cpp:122] Setting up conv7_4/dw
I0601 18:37:38.210726  6142 net.cpp:129] Top shape: 8 1152 7 7 (451584)
I0601 18:37:38.210732  6142 net.cpp:137] Memory required for data: 699854880
I0601 18:37:38.210741  6142 layer_factory.cpp:63] Creating layer conv7_4/dw/bn
I0601 18:37:38.210753  6142 net.cpp:84] Creating Layer conv7_4/dw/bn
I0601 18:37:38.210760  6142 net.cpp:406] conv7_4/dw/bn <- conv7_4/dw
I0601 18:37:38.210768  6142 net.cpp:367] conv7_4/dw/bn -> conv7_4/dw (in-place)
I0601 18:37:38.211094  6142 net.cpp:122] Setting up conv7_4/dw/bn
I0601 18:37:38.211110  6142 net.cpp:129] Top shape: 8 1152 7 7 (451584)
I0601 18:37:38.211115  6142 net.cpp:137] Memory required for data: 701661216
I0601 18:37:38.211128  6142 layer_factory.cpp:63] Creating layer conv7_4/dw/scale
I0601 18:37:38.211138  6142 net.cpp:84] Creating Layer conv7_4/dw/scale
I0601 18:37:38.211144  6142 net.cpp:406] conv7_4/dw/scale <- conv7_4/dw
I0601 18:37:38.211154  6142 net.cpp:367] conv7_4/dw/scale -> conv7_4/dw (in-place)
I0601 18:37:38.211215  6142 layer_factory.cpp:63] Creating layer conv7_4/dw/scale
I0601 18:37:38.211385  6142 net.cpp:122] Setting up conv7_4/dw/scale
I0601 18:37:38.211419  6142 net.cpp:129] Top shape: 8 1152 7 7 (451584)
I0601 18:37:38.211426  6142 net.cpp:137] Memory required for data: 703467552
I0601 18:37:38.211436  6142 layer_factory.cpp:63] Creating layer conv7_4/dw/ReLU
I0601 18:37:38.211446  6142 net.cpp:84] Creating Layer conv7_4/dw/ReLU
I0601 18:37:38.211452  6142 net.cpp:406] conv7_4/dw/ReLU <- conv7_4/dw
I0601 18:37:38.211458  6142 net.cpp:367] conv7_4/dw/ReLU -> conv7_4/dw (in-place)
I0601 18:37:38.212394  6142 net.cpp:122] Setting up conv7_4/dw/ReLU
I0601 18:37:38.212419  6142 net.cpp:129] Top shape: 8 1152 7 7 (451584)
I0601 18:37:38.212424  6142 net.cpp:137] Memory required for data: 705273888
I0601 18:37:38.212430  6142 layer_factory.cpp:63] Creating layer conv7_4/sep2
I0601 18:37:38.212445  6142 net.cpp:84] Creating Layer conv7_4/sep2
I0601 18:37:38.212452  6142 net.cpp:406] conv7_4/sep2 <- conv7_4/dw
I0601 18:37:38.212464  6142 net.cpp:380] conv7_4/sep2 -> conv7_4/sep2
I0601 18:37:38.221441  6142 net.cpp:122] Setting up conv7_4/sep2
I0601 18:37:38.221467  6142 net.cpp:129] Top shape: 8 192 7 7 (75264)
I0601 18:37:38.221473  6142 net.cpp:137] Memory required for data: 705574944
I0601 18:37:38.221482  6142 layer_factory.cpp:63] Creating layer conv7_4/sep2/bn
I0601 18:37:38.221495  6142 net.cpp:84] Creating Layer conv7_4/sep2/bn
I0601 18:37:38.221503  6142 net.cpp:406] conv7_4/sep2/bn <- conv7_4/sep2
I0601 18:37:38.221515  6142 net.cpp:367] conv7_4/sep2/bn -> conv7_4/sep2 (in-place)
I0601 18:37:38.221846  6142 net.cpp:122] Setting up conv7_4/sep2/bn
I0601 18:37:38.221861  6142 net.cpp:129] Top shape: 8 192 7 7 (75264)
I0601 18:37:38.221866  6142 net.cpp:137] Memory required for data: 705876000
I0601 18:37:38.221879  6142 layer_factory.cpp:63] Creating layer conv7_4/sep2/scale
I0601 18:37:38.221889  6142 net.cpp:84] Creating Layer conv7_4/sep2/scale
I0601 18:37:38.221894  6142 net.cpp:406] conv7_4/sep2/scale <- conv7_4/sep2
I0601 18:37:38.221904  6142 net.cpp:367] conv7_4/sep2/scale -> conv7_4/sep2 (in-place)
I0601 18:37:38.221974  6142 layer_factory.cpp:63] Creating layer conv7_4/sep2/scale
I0601 18:37:38.222168  6142 net.cpp:122] Setting up conv7_4/sep2/scale
I0601 18:37:38.222182  6142 net.cpp:129] Top shape: 8 192 7 7 (75264)
I0601 18:37:38.222187  6142 net.cpp:137] Memory required for data: 706177056
I0601 18:37:38.222196  6142 layer_factory.cpp:63] Creating layer conv7_4/Eltwise1
I0601 18:37:38.222208  6142 net.cpp:84] Creating Layer conv7_4/Eltwise1
I0601 18:37:38.222214  6142 net.cpp:406] conv7_4/Eltwise1 <- conv7_3/Eltwise1_conv7_3/Eltwise/ReLU_0_split_1
I0601 18:37:38.222223  6142 net.cpp:406] conv7_4/Eltwise1 <- conv7_4/sep2
I0601 18:37:38.222230  6142 net.cpp:380] conv7_4/Eltwise1 -> conv7_4/Eltwise1
I0601 18:37:38.222271  6142 net.cpp:122] Setting up conv7_4/Eltwise1
I0601 18:37:38.222281  6142 net.cpp:129] Top shape: 8 192 7 7 (75264)
I0601 18:37:38.222286  6142 net.cpp:137] Memory required for data: 706478112
I0601 18:37:38.222291  6142 layer_factory.cpp:63] Creating layer conv7_4/Eltwise/ReLU
I0601 18:37:38.222299  6142 net.cpp:84] Creating Layer conv7_4/Eltwise/ReLU
…
I0601 18:37:38.413013  6142 net.cpp:129] Top shape: 10 480 14 14 (940800)
I0601 18:37:38.413019  6142 net.cpp:137] Memory required for data: 745364520
I0601 18:37:38.413031  6142 layer_factory.cpp:63] Creating layer conv6_1/dw/scale
I0601 18:37:38.413043  6142 net.cpp:84] Creating Layer conv6_1/dw/scale
I0601 18:37:38.413048  6142 net.cpp:406] conv6_1/dw/scale <- conv6_1/dw
I0601 18:37:38.413055  6142 net.cpp:367] conv6_1/dw/scale -> conv6_1/dw (in-place)
I0601 18:37:38.413117  6142 layer_factory.cpp:63] Creating layer conv6_1/dw/scale
I0601 18:37:38.413307  6142 net.cpp:122] Setting up conv6_1/dw/scale
I0601 18:37:38.413321  6142 net.cpp:129] Top shape: 10 480 14 14 (940800)
I0601 18:37:38.413326  6142 net.cpp:137] Memory required for data: 749127720
I0601 18:37:38.413334  6142 layer_factory.cpp:63] Creating layer conv6_1/dw/ReLU
I0601 18:37:38.413342  6142 net.cpp:84] Creating Layer conv6_1/dw/ReLU
I0601 18:37:38.413348  6142 net.cpp:406] conv6_1/dw/ReLU <- conv6_1/dw
I0601 18:37:38.413357  6142 net.cpp:367] conv6_1/dw/ReLU -> conv6_1/dw (in-place)
I0601 18:37:38.414291  6142 net.cpp:122] Setting up conv6_1/dw/ReLU
I0601 18:37:38.414314  6142 net.cpp:129] Top shape: 10 480 14 14 (940800)
I0601 18:37:38.414320  6142 net.cpp:137] Memory required for data: 752890920
I0601 18:37:38.414326  6142 layer_factory.cpp:63] Creating layer conv6_1/sep2
I0601 18:37:38.414340  6142 net.cpp:84] Creating Layer conv6_1/sep2
I0601 18:37:38.414347  6142 net.cpp:406] conv6_1/sep2 <- conv6_1/dw
I0601 18:37:38.414356  6142 net.cpp:380] conv6_1/sep2 -> conv6_1/sep2
I0601 18:37:38.418977  6142 net.cpp:122] Setting up conv6_1/sep2
I0601 18:37:38.419001  6142 net.cpp:129] Top shape: 10 96 14 14 (188160)
I0601 18:37:38.419008  6142 net.cpp:137] Memory required for data: 753643560
I0601 18:37:38.419016  6142 layer_factory.cpp:63] Creating layer conv6_1/sep2/bn
I0601 18:37:38.419026  6142 net.cpp:84] Creating Layer conv6_1/sep2/bn
I0601 18:37:38.419032  6142 net.cpp:406] conv6_1/sep2/bn <- conv6_1/sep2
I0601 18:37:38.419044  6142 net.cpp:367] conv6_1/sep2/bn -> conv6_1/sep2 (in-place)
I0601 18:37:38.419395  6142 net.cpp:122] Setting up conv6_1/sep2/bn
I0601 18:37:38.419411  6142 net.cpp:129] Top shape: 10 96 14 14 (188160)
I0601 18:37:38.419416  6142 net.cpp:137] Memory required for data: 754396200
I0601 18:37:38.419428  6142 layer_factory.cpp:63] Creating layer conv6_1/sep2/scale
I0601 18:37:38.419437  6142 net.cpp:84] Creating Layer conv6_1/sep2/scale
I0601 18:37:38.419443  6142 net.cpp:406] conv6_1/sep2/scale <- conv6_1/sep2
I0601 18:37:38.419450  6142 net.cpp:367] conv6_1/sep2/scale -> conv6_1/sep2 (in-place)
I0601 18:37:38.419517  6142 layer_factory.cpp:63] Creating layer conv6_1/sep2/scale
I0601 18:37:38.419704  6142 net.cpp:122] Setting up conv6_1/sep2/scale
I0601 18:37:38.419718  6142 net.cpp:129] Top shape: 10 96 14 14 (188160)
I0601 18:37:38.419723  6142 net.cpp:137] Memory required for data: 755148840
I0601 18:37:38.419732  6142 layer_factory.cpp:63] Creating layer conv6_1/sep2/ReLU
I0601 18:37:38.419740  6142 net.cpp:84] Creating Layer conv6_1/sep2/ReLU
I0601 18:37:38.419746  6142 net.cpp:406] conv6_1/sep2/ReLU <- conv6_1/sep2
I0601 18:37:38.419755  6142 net.cpp:367] conv6_1/sep2/ReLU -> conv6_1/sep2 (in-place)
I0601 18:37:38.420696  6142 net.cpp:122] Setting up conv6_1/sep2/ReLU
I0601 18:37:38.420718  6142 net.cpp:129] Top shape: 10 96 14 14 (188160)
I0601 18:37:38.420724  6142 net.cpp:137] Memory required for data: 755901480
I0601 18:37:38.420729  6142 layer_factory.cpp:63] Creating layer conv6_1/sep2_conv6_1/sep2/ReLU_0_split
I0601 18:37:38.420739  6142 net.cpp:84] Creating Layer conv6_1/sep2_conv6_1/sep2/ReLU_0_split
I0601 18:37:38.420745  6142 net.cpp:406] conv6_1/sep2_conv6_1/sep2/ReLU_0_split <- conv6_1/sep2
I0601 18:37:38.420758  6142 net.cpp:380] conv6_1/sep2_conv6_1/sep2/ReLU_0_split -> conv6_1/sep2_conv6_1/sep2/ReLU_0_split_0
I0601 18:37:38.420787  6142 net.cpp:380] conv6_1/sep2_conv6_1/sep2/ReLU_0_split -> conv6_1/sep2_conv6_1/sep2/ReLU_0_split_1
I0601 18:37:38.420862  6142 net.cpp:122] Setting up conv6_1/sep2_conv6_1/sep2/ReLU_0_split
I0601 18:37:38.420872  6142 net.cpp:129] Top shape: 10 96 14 14 (188160)
I0601 18:37:38.420879  6142 net.cpp:129] Top shape: 10 96 14 14 (188160)
I0601 18:37:38.420883  6142 net.cpp:137] Memory required for data: 757406760
I0601 18:37:38.420889  6142 layer_factory.cpp:63] Creating layer conv6_2/sep1
I0601 18:37:38.420902  6142 net.cpp:84] Creating Layer conv6_2/sep1
I0601 18:37:38.420909  6142 net.cpp:406] conv6_2/sep1 <- conv6_1/sep2_conv6_1/sep2/ReLU_0_split_0
I0601 18:37:38.420917  6142 net.cpp:380] conv6_2/sep1 -> conv6_2/sep1
I0601 18:37:38.425477  6142 net.cpp:122] Setting up conv6_2/sep1
I0601 18:37:38.425503  6142 net.cpp:129] Top shape: 10 576 14 14 (1128960)
I0601 18:37:38.425508  6142 net.cpp:137] Memory required for data: 761922600
I0601 18:37:38.425518  6142 layer_factory.cpp:63] Creating layer conv6_2/sep1/bn
I0601 18:37:38.425529  6142 net.cpp:84] Creating Layer conv6_2/sep1/bn
I0601 18:37:38.425536  6142 net.cpp:406] conv6_2/sep1/bn <- conv6_2/sep1
I0601 18:37:38.425544  6142 net.cpp:367] conv6_2/sep1/bn -> conv6_2/sep1 (in-place)
I0601 18:37:38.425896  6142 net.cpp:122] Setting up conv6_2/sep1/bn
I0601 18:37:38.425910  6142 net.cpp:129] Top shape: 10 576 14 14 (1128960)
I0601 18:37:38.425915  6142 net.cpp:137] Memory required for data: 766438440
I0601 18:37:38.425927  6142 layer_factory.cpp:63] Creating layer conv6_2/sep1/scale
I0601 18:37:38.425938  6142 net.cpp:84] Creating Layer conv6_2/sep1/scale
I0601 18:37:38.425945  6142 net.cpp:406] conv6_2/sep1/scale <- conv6_2/sep1
I0601 18:37:38.425951  6142 net.cpp:367] conv6_2/sep1/scale -> conv6_2/sep1 (in-place)
I0601 18:37:38.426017  6142 layer_factory.cpp:63] Creating layer conv6_2/sep1/scale
I0601 18:37:38.426209  6142 net.cpp:122] Setting up conv6_2/sep1/scale
I0601 18:37:38.426223  6142 net.cpp:129] Top shape: 10 576 14 14 (1128960)
I0601 18:37:38.426228  6142 net.cpp:137] Memory required for data: 770954280
I0601 18:37:38.426236  6142 layer_factory.cpp:63] Creating layer conv6_2/sep1/ReLU
I0601 18:37:38.426247  6142 net.cpp:84] Creating Layer conv6_2/sep1/ReLU
I0601 18:37:38.426254  6142 net.cpp:406] conv6_2/sep1/ReLU <- conv6_2/sep1
I0601 18:37:38.426260  6142 net.cpp:367] conv6_2/sep1/ReLU -> conv6_2/sep1 (in-place)
I0601 18:37:38.427206  6142 net.cpp:122] Setting up conv6_2/sep1/ReLU
I0601 18:37:38.427229  6142 net.cpp:129] Top shape: 10 576 14 14 (1128960)
I0601 18:37:38.427234  6142 net.cpp:137] Memory required for data: 775470120
I0601 18:37:38.427240  6142 layer_factory.cpp:63] Creating layer conv6_2/dw
I0601 18:37:38.427253  6142 net.cpp:84] Creating Layer conv6_2/dw
I0601 18:37:38.427260  6142 net.cpp:406] conv6_2/dw <- conv6_2/sep1
I0601 18:37:38.427271  6142 net.cpp:380] conv6_2/dw -> conv6_2/dw
I0601 18:37:38.427577  6142 net.cpp:122] Setting up conv6_2/dw
I0601 18:37:38.427595  6142 net.cpp:129] Top shape: 10 576 14 14 (1128960)
I0601 18:37:38.427600  6142 net.cpp:137] Memory required for data: 779985960
I0601 18:37:38.427608  6142 layer_factory.cpp:63] Creating layer conv6_2/dw/bn
I0601 18:37:38.427619  6142 net.cpp:84] Creating Layer conv6_2/dw/bn
I0601 18:37:38.427626  6142 net.cpp:406] conv6_2/dw/bn <- conv6_2/dw
I0601 18:37:38.427634  6142 net.cpp:367] conv6_2/dw/bn -> conv6_2/dw (in-place)
I0601 18:37:38.427966  6142 net.cpp:122] Setting up conv6_2/dw/bn
I0601 18:37:38.427979  6142 net.cpp:129] Top shape: 10 576 14 14 (1128960)
I0601 18:37:38.427984  6142 net.cpp:137] Memory required for data: 784501800
I0601 18:37:38.427996  6142 layer_factory.cpp:63] Creating layer conv6_2/dw/scale
I0601 18:37:38.428004  6142 net.cpp:84] Creating Layer conv6_2/dw/scale
I0601 18:37:38.428010  6142 net.cpp:406] conv6_2/dw/scale <- conv6_2/dw
I0601 18:37:38.428017  6142 net.cpp:367] conv6_2/dw/scale -> conv6_2/dw (in-place)
I0601 18:37:38.428107  6142 layer_factory.cpp:63] Creating layer conv6_2/dw/scale
I0601 18:37:38.428299  6142 net.cpp:122] Setting up conv6_2/dw/scale
I0601 18:37:38.428315  6142 net.cpp:129] Top shape: 10 576 14 14 (1128960)
I0601 18:37:38.428320  6142 net.cpp:137] Memory required for data: 789017640
I0601 18:37:38.428329  6142 layer_factory.cpp:63] Creating layer conv6_2/dw/ReLU
I0601 18:37:38.428337  6142 net.cpp:84] Creating Layer conv6_2/dw/ReLU
I0601 18:37:38.428344  6142 net.cpp:406] conv6_2/dw/ReLU <- conv6_2/dw
I0601 18:37:38.428350  6142 net.cpp:367] conv6_2/dw/ReLU -> conv6_2/dw (in-place)
I0601 18:37:38.429291  6142 net.cpp:122] Setting up conv6_2/dw/ReLU
I0601 18:37:38.429313  6142 net.cpp:129] Top shape: 10 576 14 14 (1128960)
I0601 18:37:38.429319  6142 net.cpp:137] Memory required for data: 793533480
I0601 18:37:38.429325  6142 layer_factory.cpp:63] Creating layer conv6_2/sep2
I0601 18:37:38.429339  6142 net.cpp:84] Creating Layer conv6_2/sep2
I0601 18:37:38.429347  6142 net.cpp:406] conv6_2/sep2 <- conv6_2/dw
I0601 18:37:38.429358  6142 net.cpp:380] conv6_2/sep2 -> conv6_2/sep2
I0601 18:37:38.433334  6142 net.cpp:122] Setting up conv6_2/sep2
I0601 18:37:38.433358  6142 net.cpp:129] Top shape: 10 96 14 14 (188160)
I0601 18:37:38.433364  6142 net.cpp:137] Memory required for data: 794286120
I0601 18:37:38.433373  6142 layer_factory.cpp:63] Creating layer conv6_2/sep2/bn
I0601 18:37:38.433385  6142 net.cpp:84] Creating Layer conv6_2/sep2/bn
I0601 18:37:38.433393  6142 net.cpp:406] conv6_2/sep2/bn <- conv6_2/sep2
I0601 18:37:38.433403  6142 net.cpp:367] conv6_2/sep2/bn -> conv6_2/sep2 (in-place)
I0601 18:37:38.433737  6142 net.cpp:122] Setting up conv6_2/sep2/bn
I0601 18:37:38.433751  6142 net.cpp:129] Top shape: 10 96 14 14 (188160)
I0601 18:37:38.433756  6142 net.cpp:137] Memory required for data: 795038760
I0601 18:37:38.433768  6142 layer_factory.cpp:63] Creating layer conv6_2/sep2/scale
I0601 18:37:38.433779  6142 net.cpp:84] Creating Layer conv6_2/sep2/scale
I0601 18:37:38.433784  6142 net.cpp:406] conv6_2/sep2/scale <- conv6_2/sep2
I0601 18:37:38.433792  6142 net.cpp:367] conv6_2/sep2/scale -> conv6_2/sep2 (in-place)
I0601 18:37:38.433858  6142 layer_factory.cpp:63] Creating layer conv6_2/sep2/scale
I0601 18:37:38.434052  6142 net.cpp:122] Setting up conv6_2/sep2/scale
I0601 18:37:38.434065  6142 net.cpp:129] Top shape: 10 96 14 14 (188160)
I0601 18:37:38.434070  6142 net.cpp:137] Memory required for data: 795791400
I0601 18:37:38.434079  6142 layer_factory.cpp:63] Creating layer conv6_2/Eltwise1
I0601 18:37:38.434089  6142 net.cpp:84] Creating Layer conv6_2/Eltwise1
I0601 18:37:38.434095  6142 net.cpp:406] conv6_2/Eltwise1 <- conv6_1/sep2_conv6_1/sep2/ReLU_0_split_1
I0601 18:37:38.434103  6142 net.cpp:406] conv6_2/Eltwise1 <- conv6_2/sep2
I0601 18:37:38.434113  6142 net.cpp:380] conv6_2/Eltwise1 -> conv6_2/Eltwise1
I0601 18:37:38.434150  6142 net.cpp:122] Setting up conv6_2/Eltwise1
I0601 18:37:38.434159  6142 net.cpp:129] Top shape: 10 96 14 14 (188160)
I0601 18:37:38.434163  6142 net.cpp:137] Memory required for data: 796544040
I0601 18:37:38.434168  6142 layer_factory.cpp:63] Creating layer conv6_2/Eltwise/ReLU
I0601 18:37:38.434180  6142 net.cpp:84] Creating Layer conv6_2/Eltwise/ReLU
I0601 18:37:38.434185  6142 net.cpp:406] conv6_2/Eltwise/ReLU <- conv6_2/Eltwise1
I0601 18:37:38.434192  6142 net.cpp:367] conv6_2/Eltwise/ReLU -> conv6_2/Eltwise1 (in-place)
I0601 18:37:38.435808  6142 net.cpp:122] Setting up conv6_2/Eltwise/ReLU
I0601 18:37:38.435835  6142 net.cpp:129] Top shape: 10 96 14 14 (188160)
I0601 18:37:38.435842  6142 net.cpp:137] Memory required for data: 797296680
I0601 18:37:38.435847  6142 layer_factory.cpp:63] Creating layer conv7_1/sep1
I0601 18:37:38.435861  6142 net.cpp:84] Creating Layer conv7_1/sep1
I0601 18:37:38.435868  6142 net.cpp:406] conv7_1/sep1 <- conv6_2/Eltwise1
I0601 18:37:38.435878  6142 net.cpp:380] conv7_1/sep1 -> conv7_1/sep1
I0601 18:37:38.440033  6142 net.cpp:122] Setting up conv7_1/sep1
I0601 18:37:38.440058  6142 net.cpp:129] Top shape: 10 576 14 14 (1128960)
I0601 18:37:38.440083  6142 net.cpp:137] Memory required for data: 801812520
I0601 18:37:38.440091  6142 layer_factory.cpp:63] Creating layer conv7_1/sep1/bn
I0601 18:37:38.440104  6142 net.cpp:84] Creating Layer conv7_1/sep1/bn
I0601 18:37:38.440111  6142 net.cpp:406] conv7_1/sep1/bn <- conv7_1/sep1
I0601 18:37:38.440119  6142 net.cpp:367] conv7_1/sep1/bn -> conv7_1/sep1 (in-place)
I0601 18:37:38.440459  6142 net.cpp:122] Setting up conv7_1/sep1/bn
I0601 18:37:38.440472  6142 net.cpp:129] Top shape: 10 576 14 14 (1128960)
I0601 18:37:38.440477  6142 net.cpp:137] Memory required for data: 806328360
I0601 18:37:38.440490  6142 layer_factory.cpp:63] Creating layer conv7_1/sep1/scale
I0601 18:37:38.440498  6142 net.cpp:84] Creating Layer conv7_1/sep1/scale
I0601 18:37:38.440503  6142 net.cpp:406] conv7_1/sep1/scale <- conv7_1/sep1
I0601 18:37:38.440511  6142 net.cpp:367] conv7_1/sep1/scale -> conv7_1/sep1 (in-place)
I0601 18:37:38.440580  6142 layer_factory.cpp:63] Creating layer conv7_1/sep1/scale
I0601 18:37:38.440773  6142 net.cpp:122] Setting up conv7_1/sep1/scale
I0601 18:37:38.440788  6142 net.cpp:129] Top shape: 10 576 14 14 (1128960)
I0601 18:37:38.440793  6142 net.cpp:137] Memory required for data: 810844200
I0601 18:37:38.440801  6142 layer_factory.cpp:63] Creating layer conv7_1/sep1/ReLU
I0601 18:37:38.440810  6142 net.cpp:84] Creating Layer conv7_1/sep1/ReLU
I0601 18:37:38.440815  6142 net.cpp:406] conv7_1/sep1/ReLU <- conv7_1/sep1
I0601 18:37:38.440822  6142 net.cpp:367] conv7_1/sep1/ReLU -> conv7_1/sep1 (in-place)
I0601 18:37:38.441566  6142 net.cpp:122] Setting up conv7_1/sep1/ReLU
I0601 18:37:38.441586  6142 net.cpp:129] Top shape: 10 576 14 14 (1128960)
I0601 18:37:38.441591  6142 net.cpp:137] Memory required for data: 815360040
I0601 18:37:38.441597  6142 layer_factory.cpp:63] Creating layer conv7_1/dw
I0601 18:37:38.441609  6142 net.cpp:84] Creating Layer conv7_1/dw
I0601 18:37:38.441615  6142 net.cpp:406] conv7_1/dw <- conv7_1/sep1
I0601 18:37:38.441624  6142 net.cpp:380] conv7_1/dw -> conv7_1/dw
I0601 18:37:38.442086  6142 net.cpp:122] Setting up conv7_1/dw
I0601 18:37:38.442106  6142 net.cpp:129] Top shape: 10 576 7 7 (282240)
I0601 18:37:38.442111  6142 net.cpp:137] Memory required for data: 816489000
I0601 18:37:38.442118  6142 layer_factory.cpp:63] Creating layer conv7_1/dw/bn
I0601 18:37:38.442128  6142 net.cpp:84] Creating Layer conv7_1/dw/bn
I0601 18:37:38.442134  6142 net.cpp:406] conv7_1/dw/bn <- conv7_1/dw
I0601 18:37:38.442145  6142 net.cpp:367] conv7_1/dw/bn -> conv7_1/dw (in-place)
I0601 18:37:38.442497  6142 net.cpp:122] Setting up conv7_1/dw/bn
I0601 18:37:38.442510  6142 net.cpp:129] Top shape: 10 576 7 7 (282240)
I0601 18:37:38.442515  6142 net.cpp:137] Memory required for data: 817617960
I0601 18:37:38.442528  6142 layer_factory.cpp:63] Creating layer conv7_1/dw/scale
I0601 18:37:38.442538  6142 net.cpp:84] Creating Layer conv7_1/dw/scale
I0601 18:37:38.442544  6142 net.cpp:406] conv7_1/dw/scale <- conv7_1/dw
I0601 18:37:38.442551  6142 net.cpp:367] conv7_1/dw/scale -> conv7_1/dw (in-place)
I0601 18:37:38.442613  6142 layer_factory.cpp:63] Creating layer conv7_1/dw/scale
I0601 18:37:38.442804  6142 net.cpp:122] Setting up conv7_1/dw/scale
I0601 18:37:38.442817  6142 net.cpp:129] Top shape: 10 576 7 7 (282240)
I0601 18:37:38.442822  6142 net.cpp:137] Memory required for data: 818746920
I0601 18:37:38.442831  6142 layer_factory.cpp:63] Creating layer conv7_1/dw/ReLU
I0601 18:37:38.442839  6142 net.cpp:84] Creating Layer conv7_1/dw/ReLU
I0601 18:37:38.442845  6142 net.cpp:406] conv7_1/dw/ReLU <- conv7_1/dw
I0601 18:37:38.442857  6142 net.cpp:367] conv7_1/dw/ReLU -> conv7_1/dw (in-place)
I0601 18:37:38.443812  6142 net.cpp:122] Setting up conv7_1/dw/ReLU
I0601 18:37:38.443836  6142 net.cpp:129] Top shape: 10 576 7 7 (282240)
I0601 18:37:38.443842  6142 net.cpp:137] Memory required for data: 819875880
I0601 18:37:38.443848  6142 layer_factory.cpp:63] Creating layer conv7_1/sep2
I0601 18:37:38.443862  6142 net.cpp:84] Creating Layer conv7_1/sep2
I0601 18:37:38.443868  6142 net.cpp:406] conv7_1/sep2 <- conv7_1/dw
I0601 18:37:38.443897  6142 net.cpp:380] conv7_1/sep2 -> conv7_1/sep2
I0601 18:37:38.449899  6142 net.cpp:122] Setting up conv7_1/sep2
I0601 18:37:38.449924  6142 net.cpp:129] Top shape: 10 192 7 7 (94080)
I0601 18:37:38.449930  6142 net.cpp:137] Memory required for data: 820252200
I0601 18:37:38.449939  6142 layer_factory.cpp:63] Creating layer conv7_1/sep2/bn
I0601 18:37:38.449951  6142 net.cpp:84] Creating Layer conv7_1/sep2/bn
I0601 18:37:38.449959  6142 net.cpp:406] conv7_1/sep2/bn <- conv7_1/sep2
I0601 18:37:38.449966  6142 net.cpp:367] conv7_1/sep2/bn -> conv7_1/sep2 (in-place)
I0601 18:37:38.450309  6142 net.cpp:122] Setting up conv7_1/sep2/bn
I0601 18:37:38.450322  6142 net.cpp:129] Top shape: 10 192 7 7 (94080)
I0601 18:37:38.450327  6142 net.cpp:137] Memory required for data: 820628520
I0601 18:37:38.450340  6142 layer_factory.cpp:63] Creating layer conv7_1/sep2/scale
I0601 18:37:38.450348  6142 net.cpp:84] Creating Layer conv7_1/sep2/scale
I0601 18:37:38.450354  6142 net.cpp:406] conv7_1/sep2/scale <- conv7_1/sep2
I0601 18:37:38.450361  6142 net.cpp:367] conv7_1/sep2/scale -> conv7_1/sep2 (in-place)
I0601 18:37:38.450428  6142 layer_factory.cpp:63] Creating layer conv7_1/sep2/scale
I0601 18:37:38.450618  6142 net.cpp:122] Setting up conv7_1/sep2/scale
I0601 18:37:38.450630  6142 net.cpp:129] Top shape: 10 192 7 7 (94080)
I0601 18:37:38.450635  6142 net.cpp:137] Memory required for data: 821004840
I0601 18:37:38.450644  6142 layer_factory.cpp:63] Creating layer conv7_1/sep2/ReLU
I0601 18:37:38.450654  6142 net.cpp:84] Creating Layer conv7_1/sep2/ReLU
I0601 18:37:38.450660  6142 net.cpp:406] conv7_1/sep2/ReLU <- conv7_1/sep2
I0601 18:37:38.450667  6142 net.cpp:367] conv7_1/sep2/ReLU -> conv7_1/sep2 (in-place)
I0601 18:37:38.451419  6142 net.cpp:122] Setting up conv7_1/sep2/ReLU
I0601 18:37:38.451442  6142 net.cpp:129] Top shape: 10 192 7 7 (94080)
I0601 18:37:38.451447  6142 net.cpp:137] Memory required for data: 821381160
I0601 18:37:38.451453  6142 layer_factory.cpp:63] Creating layer conv7_1/sep2_conv7_1/sep2/ReLU_0_split
I0601 18:37:38.451462  6142 net.cpp:84] Creating Layer conv7_1/sep2_conv7_1/sep2/ReLU_0_split
I0601 18:37:38.451468  6142 net.cpp:406] conv7_1/sep2_conv7_1/sep2/ReLU_0_split <- conv7_1/sep2
I0601 18:37:38.451480  6142 net.cpp:380] conv7_1/sep2_conv7_1/sep2/ReLU_0_split -> conv7_1/sep2_conv7_1/sep2/ReLU_0_split_0
I0601 18:37:38.451491  6142 net.cpp:380] conv7_1/sep2_conv7_1/sep2/ReLU_0_split -> conv7_1/sep2_conv7_1/sep2/ReLU_0_split_1
I0601 18:37:38.451565  6142 net.cpp:122] Setting up conv7_1/sep2_conv7_1/sep2/ReLU_0_split
I0601 18:37:38.451575  6142 net.cpp:129] Top shape: 10 192 7 7 (94080)
I0601 18:37:38.451581  6142 net.cpp:129] Top shape: 10 192 7 7 (94080)
I0601 18:37:38.451586  6142 net.cpp:137] Memory required for data: 822133800
I0601 18:37:38.451591  6142 layer_factory.cpp:63] Creating layer conv7_2/sep1
I0601 18:37:38.451604  6142 net.cpp:84] Creating Layer conv7_2/sep1
I0601 18:37:38.451611  6142 net.cpp:406] conv7_2/sep1 <- conv7_1/sep2_conv7_1/sep2/ReLU_0_split_0
I0601 18:37:38.451618  6142 net.cpp:380] conv7_2/sep1 -> conv7_2/sep1
I0601 18:37:38.460217  6142 net.cpp:122] Setting up conv7_2/sep1
I0601 18:37:38.460244  6142 net.cpp:129] Top shape: 10 1152 7 7 (564480)
I0601 18:37:38.460250  6142 net.cpp:137] Memory required for data: 824391720
I0601 18:37:38.460259  6142 layer_factory.cpp:63] Creating layer conv7_2/sep1/bn
I0601 18:37:38.460269  6142 net.cpp:84] Creating Layer conv7_2/sep1/bn
I0601 18:37:38.460275  6142 net.cpp:406] conv7_2/sep1/bn <- conv7_2/sep1
I0601 18:37:38.460286  6142 net.cpp:367] conv7_2/sep1/bn -> conv7_2/sep1 (in-place)
I0601 18:37:38.460606  6142 net.cpp:122] Setting up conv7_2/sep1/bn
I0601 18:37:38.460620  6142 net.cpp:129] Top shape: 10 1152 7 7 (564480)
I0601 18:37:38.460625  6142 net.cpp:137] Memory required for data: 826649640
I0601 18:37:38.460636  6142 layer_factory.cpp:63] Creating layer conv7_2/sep1/scale
I0601 18:37:38.460645  6142 net.cpp:84] Creating Layer conv7_2/sep1/scale
I0601 18:37:38.460651  6142 net.cpp:406] conv7_2/sep1/scale <- conv7_2/sep1
I0601 18:37:38.460677  6142 net.cpp:367] conv7_2/sep1/scale -> conv7_2/sep1 (in-place)
I0601 18:37:38.460748  6142 layer_factory.cpp:63] Creating layer conv7_2/sep1/scale
I0601 18:37:38.460923  6142 net.cpp:122] Setting up conv7_2/sep1/scale
I0601 18:37:38.460937  6142 net.cpp:129] Top shape: 10 1152 7 7 (564480)
I0601 18:37:38.460942  6142 net.cpp:137] Memory required for data: 828907560
I0601 18:37:38.460952  6142 layer_factory.cpp:63] Creating layer conv7_2/sep1/ReLU
I0601 18:37:38.460960  6142 net.cpp:84] Creating Layer conv7_2/sep1/ReLU
I0601 18:37:38.460965  6142 net.cpp:406] conv7_2/sep1/ReLU <- conv7_2/sep1
I0601 18:37:38.460975  6142 net.cpp:367] conv7_2/sep1/ReLU -> conv7_2/sep1 (in-place)
I0601 18:37:38.461721  6142 net.cpp:122] Setting up conv7_2/sep1/ReLU
I0601 18:37:38.461743  6142 net.cpp:129] Top shape: 10 1152 7 7 (564480)
I0601 18:37:38.461750  6142 net.cpp:137] Memory required for data: 831165480
I0601 18:37:38.461755  6142 layer_factory.cpp:63] Creating layer conv7_2/dw
I0601 18:37:38.461766  6142 net.cpp:84] Creating Layer conv7_2/dw
I0601 18:37:38.461771  6142 net.cpp:406] conv7_2/dw <- conv7_2/sep1
I0601 18:37:38.461782  6142 net.cpp:380] conv7_2/dw -> conv7_2/dw
I0601 18:37:38.462515  6142 net.cpp:122] Setting up conv7_2/dw
I0601 18:37:38.462535  6142 net.cpp:129] Top shape: 10 1152 7 7 (564480)
I0601 18:37:38.462540  6142 net.cpp:137] Memory required for data: 833423400
I0601 18:37:38.462548  6142 layer_factory.cpp:63] Creating layer conv7_2/dw/bn
I0601 18:37:38.462559  6142 net.cpp:84] Creating Layer conv7_2/dw/bn
I0601 18:37:38.462566  6142 net.cpp:406] conv7_2/dw/bn <- conv7_2/dw
I0601 18:37:38.462574  6142 net.cpp:367] conv7_2/dw/bn -> conv7_2/dw (in-place)
I0601 18:37:38.462904  6142 net.cpp:122] Setting up conv7_2/dw/bn
I0601 18:37:38.462918  6142 net.cpp:129] Top shape: 10 1152 7 7 (564480)
I0601 18:37:38.462922  6142 net.cpp:137] Memory required for data: 835681320
I0601 18:37:38.462934  6142 layer_factory.cpp:63] Creating layer conv7_2/dw/scale
I0601 18:37:38.462944  6142 net.cpp:84] Creating Layer conv7_2/dw/scale
I0601 18:37:38.462949  6142 net.cpp:406] conv7_2/dw/scale <- conv7_2/dw
I0601 18:37:38.462958  6142 net.cpp:367] conv7_2/dw/scale -> conv7_2/dw (in-place)
I0601 18:37:38.463022  6142 layer_factory.cpp:63] Creating layer conv7_2/dw/scale
I0601 18:37:38.463212  6142 net.cpp:122] Setting up conv7_2/dw/scale
I0601 18:37:38.463227  6142 net.cpp:129] Top shape: 10 1152 7 7 (564480)
I0601 18:37:38.463232  6142 net.cpp:137] Memory required for data: 837939240
I0601 18:37:38.463241  6142 layer_factory.cpp:63] Creating layer conv7_2/dw/ReLU
I0601 18:37:38.463251  6142 net.cpp:84] Creating Layer conv7_2/dw/ReLU
I0601 18:37:38.463258  6142 net.cpp:406] conv7_2/dw/ReLU <- conv7_2/dw
I0601 18:37:38.463265  6142 net.cpp:367] conv7_2/dw/ReLU -> conv7_2/dw (in-place)
I0601 18:37:38.464218  6142 net.cpp:122] Setting up conv7_2/dw/ReLU
I0601 18:37:38.464241  6142 net.cpp:129] Top shape: 10 1152 7 7 (564480)
I0601 18:37:38.464246  6142 net.cpp:137] Memory required for data: 840197160
I0601 18:37:38.464252  6142 layer_factory.cpp:63] Creating layer conv7_2/sep2
I0601 18:37:38.464267  6142 net.cpp:84] Creating Layer conv7_2/sep2
I0601 18:37:38.464273  6142 net.cpp:406] conv7_2/sep2 <- conv7_2/dw
I0601 18:37:38.464287  6142 net.cpp:380] conv7_2/sep2 -> conv7_2/sep2
I0601 18:37:38.472177  6142 net.cpp:122] Setting up conv7_2/sep2
I0601 18:37:38.472203  6142 net.cpp:129] Top shape: 10 192 7 7 (94080)
I0601 18:37:38.472208  6142 net.cpp:137] Memory required for data: 840573480
I0601 18:37:38.472218  6142 layer_factory.cpp:63] Creating layer conv7_2/sep2/bn
I0601 18:37:38.472230  6142 net.cpp:84] Creating Layer conv7_2/sep2/bn
I0601 18:37:38.472237  6142 net.cpp:406] conv7_2/sep2/bn <- conv7_2/sep2
I0601 18:37:38.472247  6142 net.cpp:367] conv7_2/sep2/bn -> conv7_2/sep2 (in-place)
I0601 18:37:38.472579  6142 net.cpp:122] Setting up conv7_2/sep2/bn
I0601 18:37:38.472594  6142 net.cpp:129] Top shape: 10 192 7 7 (94080)
I0601 18:37:38.472599  6142 net.cpp:137] Memory required for data: 840949800
I0601 18:37:38.472630  6142 layer_factory.cpp:63] Creating layer conv7_2/sep2/scale
I0601 18:37:38.472641  6142 net.cpp:84] Creating Layer conv7_2/sep2/scale
I0601 18:37:38.472648  6142 net.cpp:406] conv7_2/sep2/scale <- conv7_2/sep2
I0601 18:37:38.472656  6142 net.cpp:367] conv7_2/sep2/scale -> conv7_2/sep2 (in-place)
I0601 18:37:38.472725  6142 layer_factory.cpp:63] Creating layer conv7_2/sep2/scale
I0601 18:37:38.472921  6142 net.cpp:122] Setting up conv7_2/sep2/scale
I0601 18:37:38.472935  6142 net.cpp:129] Top shape: 10 192 7 7 (94080)
I0601 18:37:38.472940  6142 net.cpp:137] Memory required for data: 841326120
I0601 18:37:38.472949  6142 layer_factory.cpp:63] Creating layer conv7_2/Eltwise1
I0601 18:37:38.472961  6142 net.cpp:84] Creating Layer conv7_2/Eltwise1
I0601 18:37:38.472967  6142 net.cpp:406] conv7_2/Eltwise1 <- conv7_1/sep2_conv7_1/sep2/ReLU_0_split_1
I0601 18:37:38.472975  6142 net.cpp:406] conv7_2/Eltwise1 <- conv7_2/sep2
I0601 18:37:38.472985  6142 net.cpp:380] conv7_2/Eltwise1 -> conv7_2/Eltwise1
I0601 18:37:38.473022  6142 net.cpp:122] Setting up conv7_2/Eltwise1
I0601 18:37:38.473031  6142 net.cpp:129] Top shape: 10 192 7 7 (94080)
I0601 18:37:38.473037  6142 net.cpp:137] Memory required for data: 841702440
I0601 18:37:38.473042  6142 layer_factory.cpp:63] Creating layer conv7_2/Eltwise/ReLU
I0601 18:37:38.473052  6142 net.cpp:84] Creating Layer conv7_2/Eltwise/ReLU
I0601 18:37:38.473057  6142 net.cpp:406] conv7_2/Eltwise/ReLU <- conv7_2/Eltwise1
I0601 18:37:38.473065  6142 net.cpp:367] conv7_2/Eltwise/ReLU -> conv7_2/Eltwise1 (in-place)
I0601 18:37:38.473804  6142 net.cpp:122] Setting up conv7_2/Eltwise/ReLU
I0601 18:37:38.473825  6142 net.cpp:129] Top shape: 10 192 7 7 (94080)
I0601 18:37:38.473830  6142 net.cpp:137] Memory required for data: 842078760
I0601 18:37:38.473836  6142 layer_factory.cpp:63] Creating layer conv7_2/Eltwise1_conv7_2/Eltwise/ReLU_0_split
I0601 18:37:38.473847  6142 net.cpp:84] Creating Layer conv7_2/Eltwise1_conv7_2/Eltwise/ReLU_0_split
I0601 18:37:38.473855  6142 net.cpp:406] conv7_2/Eltwise1_conv7_2/Eltwise/ReLU_0_split <- conv7_2/Eltwise1
I0601 18:37:38.473863  6142 net.cpp:380] conv7_2/Eltwise1_conv7_2/Eltwise/ReLU_0_split -> conv7_2/Eltwise1_conv7_2/Eltwise/ReLU_0_split_0
I0601 18:37:38.473876  6142 net.cpp:380] conv7_2/Eltwise1_conv7_2/Eltwise/ReLU_0_split -> conv7_2/Eltwise1_conv7_2/Eltwise/ReLU_0_split_1
I0601 18:37:38.473946  6142 net.cpp:122] Setting up conv7_2/Eltwise1_conv7_2/Eltwise/ReLU_0_split
I0601 18:37:38.473956  6142 net.cpp:129] Top shape: 10 192 7 7 (94080)
I0601 18:37:38.473963  6142 net.cpp:129] Top shape: 10 192 7 7 (94080)
I0601 18:37:38.473968  6142 net.cpp:137] Memory required for data: 842831400
I0601 18:37:38.473973  6142 layer_factory.cpp:63] Creating layer conv7_3/sep1
I0601 18:37:38.473986  6142 net.cpp:84] Creating Layer conv7_3/sep1
I0601 18:37:38.473992  6142 net.cpp:406] conv7_3/sep1 <- conv7_2/Eltwise1_conv7_2/Eltwise/ReLU_0_split_0
I0601 18:37:38.474004  6142 net.cpp:380] conv7_3/sep1 -> conv7_3/sep1
I0601 18:37:38.482602  6142 net.cpp:122] Setting up conv7_3/sep1
I0601 18:37:38.482628  6142 net.cpp:129] Top shape: 10 1152 7 7 (564480)
I0601 18:37:38.482635  6142 net.cpp:137] Memory required for data: 845089320
I0601 18:37:38.482643  6142 layer_factory.cpp:63] Creating layer conv7_3/sep1/bn
I0601 18:37:38.482653  6142 net.cpp:84] Creating Layer conv7_3/sep1/bn
I0601 18:37:38.482659  6142 net.cpp:406] conv7_3/sep1/bn <- conv7_3/sep1
I0601 18:37:38.482673  6142 net.cpp:367] conv7_3/sep1/bn -> conv7_3/sep1 (in-place)
I0601 18:37:38.483017  6142 net.cpp:122] Setting up conv7_3/sep1/bn
I0601 18:37:38.483032  6142 net.cpp:129] Top shape: 10 1152 7 7 (564480)
I0601 18:37:38.483038  6142 net.cpp:137] Memory required for data: 847347240
I0601 18:37:38.483049  6142 layer_factory.cpp:63] Creating layer conv7_3/sep1/scale
I0601 18:37:38.483069  6142 net.cpp:84] Creating Layer conv7_3/sep1/scale
I0601 18:37:38.483076  6142 net.cpp:406] conv7_3/sep1/scale <- conv7_3/sep1
I0601 18:37:38.483083  6142 net.cpp:367] conv7_3/sep1/scale -> conv7_3/sep1 (in-place)
I0601 18:37:38.483178  6142 layer_factory.cpp:63] Creating layer conv7_3/sep1/scale
I0601 18:37:38.483356  6142 net.cpp:122] Setting up conv7_3/sep1/scale
I0601 18:37:38.483371  6142 net.cpp:129] Top shape: 10 1152 7 7 (564480)
I0601 18:37:38.483376  6142 net.cpp:137] Memory required for data: 849605160
I0601 18:37:38.483407  6142 layer_factory.cpp:63] Creating layer conv7_3/sep1/ReLU
I0601 18:37:38.483417  6142 net.cpp:84] Creating Layer conv7_3/sep1/ReLU
I0601 18:37:38.483422  6142 net.cpp:406] conv7_3/sep1/ReLU <- conv7_3/sep1
I0601 18:37:38.483429  6142 net.cpp:367] conv7_3/sep1/ReLU -> conv7_3/sep1 (in-place)
I0601 18:37:38.484380  6142 net.cpp:122] Setting up conv7_3/sep1/ReLU
I0601 18:37:38.484402  6142 net.cpp:129] Top shape: 10 1152 7 7 (564480)
I0601 18:37:38.484408  6142 net.cpp:137] Memory required for data: 851863080
I0601 18:37:38.484413  6142 layer_factory.cpp:63] Creating layer conv7_3/dw
I0601 18:37:38.484424  6142 net.cpp:84] Creating Layer conv7_3/dw
I0601 18:37:38.484431  6142 net.cpp:406] conv7_3/dw <- conv7_3/sep1
I0601 18:37:38.484442  6142 net.cpp:380] conv7_3/dw -> conv7_3/dw
I0601 18:37:38.485167  6142 net.cpp:122] Setting up conv7_3/dw
I0601 18:37:38.485188  6142 net.cpp:129] Top shape: 10 1152 7 7 (564480)
I0601 18:37:38.485193  6142 net.cpp:137] Memory required for data: 854121000
I0601 18:37:38.485200  6142 layer_factory.cpp:63] Creating layer conv7_3/dw/bn
I0601 18:37:38.485213  6142 net.cpp:84] Creating Layer conv7_3/dw/bn
I0601 18:37:38.485219  6142 net.cpp:406] conv7_3/dw/bn <- conv7_3/dw
I0601 18:37:38.485226  6142 net.cpp:367] conv7_3/dw/bn -> conv7_3/dw (in-place)
I0601 18:37:38.485545  6142 net.cpp:122] Setting up conv7_3/dw/bn
I0601 18:37:38.485559  6142 net.cpp:129] Top shape: 10 1152 7 7 (564480)
I0601 18:37:38.485564  6142 net.cpp:137] Memory required for data: 856378920
I0601 18:37:38.485576  6142 layer_factory.cpp:63] Creating layer conv7_3/dw/scale
I0601 18:37:38.485587  6142 net.cpp:84] Creating Layer conv7_3/dw/scale
I0601 18:37:38.485594  6142 net.cpp:406] conv7_3/dw/scale <- conv7_3/dw
I0601 18:37:38.485600  6142 net.cpp:367] conv7_3/dw/scale -> conv7_3/dw (in-place)
I0601 18:37:38.485666  6142 layer_factory.cpp:63] Creating layer conv7_3/dw/scale
I0601 18:37:38.485843  6142 net.cpp:122] Setting up conv7_3/dw/scale
I0601 18:37:38.485857  6142 net.cpp:129] Top shape: 10 1152 7 7 (564480)
I0601 18:37:38.485862  6142 net.cpp:137] Memory required for data: 858636840
I0601 18:37:38.485870  6142 layer_factory.cpp:63] Creating layer conv7_3/dw/ReLU
I0601 18:37:38.485878  6142 net.cpp:84] Creating Layer conv7_3/dw/ReLU
I0601 18:37:38.485883  6142 net.cpp:406] conv7_3/dw/ReLU <- conv7_3/dw
I0601 18:37:38.485893  6142 net.cpp:367] conv7_3/dw/ReLU -> conv7_3/dw (in-place)
I0601 18:37:38.486636  6142 net.cpp:122] Setting up conv7_3/dw/ReLU
I0601 18:37:38.486656  6142 net.cpp:129] Top shape: 10 1152 7 7 (564480)
I0601 18:37:38.486661  6142 net.cpp:137] Memory required for data: 860894760
I0601 18:37:38.486666  6142 layer_factory.cpp:63] Creating layer conv7_3/sep2
I0601 18:37:38.486680  6142 net.cpp:84] Creating Layer conv7_3/sep2
I0601 18:37:38.486687  6142 net.cpp:406] conv7_3/sep2 <- conv7_3/dw
I0601 18:37:38.486696  6142 net.cpp:380] conv7_3/sep2 -> conv7_3/sep2
I0601 18:37:38.494628  6142 net.cpp:122] Setting up conv7_3/sep2
I0601 18:37:38.494653  6142 net.cpp:129] Top shape: 10 192 7 7 (94080)
I0601 18:37:38.494659  6142 net.cpp:137] Memory required for data: 861271080
I0601 18:37:38.494668  6142 layer_factory.cpp:63] Creating layer conv7_3/sep2/bn
I0601 18:37:38.494680  6142 net.cpp:84] Creating Layer conv7_3/sep2/bn
I0601 18:37:38.494688  6142 net.cpp:406] conv7_3/sep2/bn <- conv7_3/sep2
I0601 18:37:38.494697  6142 net.cpp:367] conv7_3/sep2/bn -> conv7_3/sep2 (in-place)
I0601 18:37:38.495064  6142 net.cpp:122] Setting up conv7_3/sep2/bn
I0601 18:37:38.495079  6142 net.cpp:129] Top shape: 10 192 7 7 (94080)
I0601 18:37:38.495085  6142 net.cpp:137] Memory required for data: 861647400
I0601 18:37:38.495096  6142 layer_factory.cpp:63] Creating layer conv7_3/sep2/scale
I0601 18:37:38.495126  6142 net.cpp:84] Creating Layer conv7_3/sep2/scale
I0601 18:37:38.495133  6142 net.cpp:406] conv7_3/sep2/scale <- conv7_3/sep2
I0601 18:37:38.495141  6142 net.cpp:367] conv7_3/sep2/scale -> conv7_3/sep2 (in-place)
I0601 18:37:38.495223  6142 layer_factory.cpp:63] Creating layer conv7_3/sep2/scale
I0601 18:37:38.495426  6142 net.cpp:122] Setting up conv7_3/sep2/scale
I0601 18:37:38.495440  6142 net.cpp:129] Top shape: 10 192 7 7 (94080)
I0601 18:37:38.495445  6142 net.cpp:137] Memory required for data: 862023720
I0601 18:37:38.495455  6142 layer_factory.cpp:63] Creating layer conv7_3/Eltwise1
I0601 18:37:38.495466  6142 net.cpp:84] Creating Layer conv7_3/Eltwise1
I0601 18:37:38.495473  6142 net.cpp:406] conv7_3/Eltwise1 <- conv7_2/Eltwise1_conv7_2/Eltwise/ReLU_0_split_1
I0601 18:37:38.495481  6142 net.cpp:406] conv7_3/Eltwise1 <- conv7_3/sep2
I0601 18:37:38.495491  6142 net.cpp:380] conv7_3/Eltwise1 -> conv7_3/Eltwise1
I0601 18:37:38.495528  6142 net.cpp:122] Setting up conv7_3/Eltwise1
I0601 18:37:38.495537  6142 net.cpp:129] Top shape: 10 192 7 7 (94080)
I0601 18:37:38.495543  6142 net.cpp:137] Memory required for data: 862400040
I0601 18:37:38.495546  6142 layer_factory.cpp:63] Creating layer conv7_3/Eltwise/ReLU
I0601 18:37:38.495558  6142 net.cpp:84] Creating Layer conv7_3/Eltwise/ReLU
I0601 18:37:38.495563  6142 net.cpp:406] conv7_3/Eltwise/ReLU <- conv7_3/Eltwise1
I0601 18:37:38.495570  6142 net.cpp:367] conv7_3/Eltwise/ReLU -> conv7_3/Eltwise1 (in-place)
I0601 18:37:38.496697  6142 net.cpp:122] Setting up conv7_3/Eltwise/ReLU
I0601 18:37:38.496721  6142 net.cpp:129] Top shape: 10 192 7 7 (94080)
I0601 18:37:38.496727  6142 net.cpp:137] Memory required for data: 862776360
I0601 18:37:38.496732  6142 layer_factory.cpp:63] Creating layer conv7_3/Eltwise1_conv7_3/Eltwise/ReLU_0_split
I0601 18:37:38.496747  6142 net.cpp:84] Creating Layer conv7_3/Eltwise1_conv7_3/Eltwise/ReLU_0_split
I0601 18:37:38.496753  6142 net.cpp:406] conv7_3/Eltwise1_conv7_3/Eltwise/ReLU_0_split <- conv7_3/Eltwise1
I0601 18:37:38.496762  6142 net.cpp:380] conv7_3/Eltwise1_conv7_3/Eltwise/ReLU_0_split -> conv7_3/Eltwise1_conv7_3/Eltwise/ReLU_0_split_0
I0601 18:37:38.496776  6142 net.cpp:380] conv7_3/Eltwise1_conv7_3/Eltwise/ReLU_0_split -> conv7_3/Eltwise1_conv7_3/Eltwise/ReLU_0_split_1
I0601 18:37:38.496856  6142 net.cpp:122] Setting up conv7_3/Eltwise1_conv7_3/Eltwise/ReLU_0_split
I0601 18:37:38.496866  6142 net.cpp:129] Top shape: 10 192 7 7 (94080)
I0601 18:37:38.496873  6142 net.cpp:129] Top shape: 10 192 7 7 (94080)
I0601 18:37:38.496877  6142 net.cpp:137] Memory required for data: 863529000
I0601 18:37:38.496882  6142 layer_factory.cpp:63] Creating layer conv7_4/sep1
I0601 18:37:38.496896  6142 net.cpp:84] Creating Layer conv7_4/sep1
I0601 18:37:38.496902  6142 net.cpp:406] conv7_4/sep1 <- conv7_3/Eltwise1_conv7_3/Eltwise/ReLU_0_split_0
I0601 18:37:38.496913  6142 net.cpp:380] conv7_4/sep1 -> conv7_4/sep1
I0601 18:37:38.505360  6142 net.cpp:122] Setting up conv7_4/sep1
I0601 18:37:38.505385  6142 net.cpp:129] Top shape: 10 1152 7 7 (564480)
I0601 18:37:38.505393  6142 net.cpp:137] Memory required for data: 865786920
I0601 18:37:38.505400  6142 layer_factory.cpp:63] Creating layer conv7_4/sep1/bn
I0601 18:37:38.505417  6142 net.cpp:84] Creating Layer conv7_4/sep1/bn
I0601 18:37:38.505424  6142 net.cpp:406] conv7_4/sep1/bn <- conv7_4/sep1
I0601 18:37:38.505434  6142 net.cpp:367] conv7_4/sep1/bn -> conv7_4/sep1 (in-place)
I0601 18:37:38.505755  6142 net.cpp:122] Setting up conv7_4/sep1/bn
I0601 18:37:38.505769  6142 net.cpp:129] Top shape: 10 1152 7 7 (564480)
I0601 18:37:38.505774  6142 net.cpp:137] Memory required for data: 868044840
I0601 18:37:38.505786  6142 layer_factory.cpp:63] Creating layer conv7_4/sep1/scale
I0601 18:37:38.505795  6142 net.cpp:84] Creating Layer conv7_4/sep1/scale
I0601 18:37:38.505800  6142 net.cpp:406] conv7_4/sep1/scale <- conv7_4/sep1
I0601 18:37:38.505810  6142 net.cpp:367] conv7_4/sep1/scale -> conv7_4/sep1 (in-place)
I0601 18:37:38.505872  6142 layer_factory.cpp:63] Creating layer conv7_4/sep1/scale
I0601 18:37:38.506083  6142 net.cpp:122] Setting up conv7_4/sep1/scale
I0601 18:37:38.506098  6142 net.cpp:129] Top shape: 10 1152 7 7 (564480)
I0601 18:37:38.506103  6142 net.cpp:137] Memory required for data: 870302760
I0601 18:37:38.506111  6142 layer_factory.cpp:63] Creating layer conv7_4/sep1/ReLU
I0601 18:37:38.506120  6142 net.cpp:84] Creating Layer conv7_4/sep1/ReLU
I0601 18:37:38.506126  6142 net.cpp:406] conv7_4/sep1/ReLU <- conv7_4/sep1
I0601 18:37:38.506134  6142 net.cpp:367] conv7_4/sep1/ReLU -> conv7_4/sep1 (in-place)
I0601 18:37:38.507105  6142 net.cpp:122] Setting up conv7_4/sep1/ReLU
I0601 18:37:38.507129  6142 net.cpp:129] Top shape: 10 1152 7 7 (564480)
I0601 18:37:38.507135  6142 net.cpp:137] Memory required for data: 872560680
I0601 18:37:38.507141  6142 layer_factory.cpp:63] Creating layer conv7_4/dw
I0601 18:37:38.507153  6142 net.cpp:84] Creating Layer conv7_4/dw
I0601 18:37:38.507160  6142 net.cpp:406] conv7_4/dw <- conv7_4/sep1
I0601 18:37:38.507171  6142 net.cpp:380] conv7_4/dw -> conv7_4/dw
I0601 18:37:38.507905  6142 net.cpp:122] Setting up conv7_4/dw
I0601 18:37:38.507923  6142 net.cpp:129] Top shape: 10 1152 7 7 (564480)
I0601 18:37:38.507928  6142 net.cpp:137] Memory required for data: 874818600
I0601 18:37:38.507936  6142 layer_factory.cpp:63] Creating layer conv7_4/dw/bn
I0601 18:37:38.507946  6142 net.cpp:84] Creating Layer conv7_4/dw/bn
I0601 18:37:38.507952  6142 net.cpp:406] conv7_4/dw/bn <- conv7_4/dw
I0601 18:37:38.507961  6142 net.cpp:367] conv7_4/dw/bn -> conv7_4/dw (in-place)
I0601 18:37:38.508291  6142 net.cpp:122] Setting up conv7_4/dw/bn
I0601 18:37:38.508306  6142 net.cpp:129] Top shape: 10 1152 7 7 (564480)
I0601 18:37:38.508311  6142 net.cpp:137] Memory required for data: 877076520
I0601 18:37:38.508322  6142 layer_factory.cpp:63] Creating layer conv7_4/dw/scale
I0601 18:37:38.508330  6142 net.cpp:84] Creating Layer conv7_4/dw/scale
I0601 18:37:38.508337  6142 net.cpp:406] conv7_4/dw/scale <- conv7_4/dw
I0601 18:37:38.508343  6142 net.cpp:367] conv7_4/dw/scale -> conv7_4/dw (in-place)
I0601 18:37:38.508409  6142 layer_factory.cpp:63] Creating layer conv7_4/dw/scale
I0601 18:37:38.508589  6142 net.cpp:122] Setting up conv7_4/dw/scale
I0601 18:37:38.508601  6142 net.cpp:129] Top shape: 10 1152 7 7 (564480)
I0601 18:37:38.508606  6142 net.cpp:137] Memory required for data: 879334440
I0601 18:37:38.508615  6142 layer_factory.cpp:63] Creating layer conv7_4/dw/ReLU
I0601 18:37:38.508623  6142 net.cpp:84] Creating Layer conv7_4/dw/ReLU
I0601 18:37:38.508628  6142 net.cpp:406] conv7_4/dw/ReLU <- conv7_4/dw
I0601 18:37:38.508637  6142 net.cpp:367] conv7_4/dw/ReLU -> conv7_4/dw (in-place)
I0601 18:37:38.509385  6142 net.cpp:122] Setting up conv7_4/dw/ReLU
I0601 18:37:38.509407  6142 net.cpp:129] Top shape: 10 1152 7 7 (564480)
I0601 18:37:38.509411  6142 net.cpp:137] Memory required for data: 881592360
I0601 18:37:38.509418  6142 layer_factory.cpp:63] Creating layer conv7_4/sep2
I0601 18:37:38.509431  6142 net.cpp:84] Creating Layer conv7_4/sep2
I0601 18:37:38.509438  6142 net.cpp:406] conv7_4/sep2 <- conv7_4/dw
I0601 18:37:38.509449  6142 net.cpp:380] conv7_4/sep2 -> conv7_4/sep2
I0601 18:37:38.517354  6142 net.cpp:122] Setting up conv7_4/sep2
I0601 18:37:38.517379  6142 net.cpp:129] Top shape: 10 192 7 7 (94080)
I0601 18:37:38.517385  6142 net.cpp:137] Memory required for data: 881968680
I0601 18:37:38.517395  6142 layer_factory.cpp:63] Creating layer conv7_4/sep2/bn
I0601 18:37:38.517406  6142 net.cpp:84] Creating Layer conv7_4/sep2/bn
I0601 18:37:38.517413  6142 net.cpp:406] conv7_4/sep2/bn <- conv7_4/sep2
I0601 18:37:38.517421  6142 net.cpp:367] conv7_4/sep2/bn -> conv7_4/sep2 (in-place)
I0601 18:37:38.517776  6142 net.cpp:122] Setting up conv7_4/sep2/bn
I0601 18:37:38.517791  6142 net.cpp:129] Top shape: 10 192 7 7 (94080)
I0601 18:37:38.517796  6142 net.cpp:137] Memory required for data: 882345000
I0601 18:37:38.517807  6142 layer_factory.cpp:63] Creating layer conv7_4/sep2/scale
I0601 18:37:38.517817  6142 net.cpp:84] Creating Layer conv7_4/sep2/scale
I0601 18:37:38.517840  6142 net.cpp:406] conv7_4/sep2/scale <- conv7_4/sep2
I0601 18:37:38.517848  6142 net.cpp:367] conv7_4/sep2/scale -> conv7_4/sep2 (in-place)
I0601 18:37:38.517932  6142 layer_factory.cpp:63] Creating layer conv7_4/sep2/scale
I0601 18:37:38.518127  6142 net.cpp:122] Setting up conv7_4/sep2/scale
I0601 18:37:38.518141  6142 net.cpp:129] Top shape: 10 192 7 7 (94080)
I0601 18:37:38.518146  6142 net.cpp:137] Memory required for data: 882721320
I0601 18:37:38.518155  6142 layer_factory.cpp:63] Creating layer conv7_4/Eltwise1
I0601 18:37:38.518167  6142 net.cpp:84] Creating Layer conv7_4/Eltwise1
I0601 18:37:38.518174  6142 net.cpp:406] conv7_4/Eltwise1 <- conv7_3/Eltwise1_conv7_3/Eltwise/ReLU_0_split_1
I0601 18:37:38.518182  6142 net.cpp:406] conv7_4/Eltwise1 <- conv7_4/sep2
I0601 18:37:38.518189  6142 net.cpp:380] conv7_4/Eltwise1 -> conv7_4/Eltwise1
I0601 18:37:38.518229  6142 net.cpp:122] Setting up conv7_4/Eltwise1
I0601 18:37:38.518239  6142 net.cpp:129] Top shape: 10 192 7 7 (94080)
I0601 18:37:38.518244  6142 net.cpp:137] Memory required for data: 883097640
I0601 18:37:38.518249  6142 layer_factory.cpp:63] Creating layer conv7_4/Eltwise/ReLU
I0601 18:37:38.518257  6142 net.cpp:84] Creating Layer conv7_4/Eltwise/ReLU
I0601 18:37:38.518262  6142 net.cpp:406] conv7_4/Eltwise/ReLU <- conv7_4/Eltwise1
I0601 18:37:38.518270  6142 net.cpp:367] conv7_4/Eltwise/ReLU -> conv7_4/Eltwise1 (in-place)
I0601 18:37:38.519227  6142 net.cpp:122] Setting up conv7_4/Eltwise/ReLU
I0601 18:37:38.519251  6142 net.cpp:129] Top shape: 10 192 7 7 (94080)
I0601 18:37:38.519258  6142 net.cpp:137] Memory required for data: 883473960
I0601 18:37:38.519263  6142 layer_factory.cpp:63] Creating layer conv8_1/sep1
I0601 18:37:38.519279  6142 net.cpp:84] Creating Layer conv8_1/sep1
I0601 18:37:38.519284  6142 net.cpp:406] conv8_1/sep1 <- conv7_4/Eltwise1
I0601 18:37:38.519299  6142 net.cpp:380] conv8_1/sep1 -> conv8_1/sep1
I0601 18:37:38.527011  6142 net.cpp:122] Setting up conv8_1/sep1
I0601 18:37:38.527036  6142 net.cpp:129] Top shape: 10 1152 7 7 (564480)
I0601 18:37:38.527042  6142 net.cpp:137] Memory required for data: 885731880
I0601 18:37:38.527061  6142 layer_factory.cpp:63] Creating layer conv8_1/sep1/bn
I0601 18:37:38.527076  6142 net.cpp:84] Creating Layer conv8_1/sep1/bn
I0601 18:37:38.527083  6142 net.cpp:406] conv8_1/sep1/bn <- conv8_1/sep1
I0601 18:37:38.527091  6142 net.cpp:367] conv8_1/sep1/bn -> conv8_1/sep1 (in-place)
I0601 18:37:38.527415  6142 net.cpp:122] Setting up conv8_1/sep1/bn
I0601 18:37:38.527428  6142 net.cpp:129] Top shape: 10 1152 7 7 (564480)
I0601 18:37:38.527433  6142 net.cpp:137] Memory required for data: 887989800
I0601 18:37:38.527446  6142 layer_factory.cpp:63] Creating layer conv8_1/sep1/scale
I0601 18:37:38.527456  6142 net.cpp:84] Creating Layer conv8_1/sep1/scale
I0601 18:37:38.527462  6142 net.cpp:406] conv8_1/sep1/scale <- conv8_1/sep1
I0601 18:37:38.527469  6142 net.cpp:367] conv8_1/sep1/scale -> conv8_1/sep1 (in-place)
I0601 18:37:38.527532  6142 layer_factory.cpp:63] Creating layer conv8_1/sep1/scale
I0601 18:37:38.527714  6142 net.cpp:122] Setting up conv8_1/sep1/scale
I0601 18:37:38.527726  6142 net.cpp:129] Top shape: 10 1152 7 7 (564480)
I0601 18:37:38.527732  6142 net.cpp:137] Memory required for data: 890247720
I0601 18:37:38.527741  6142 layer_factory.cpp:63] Creating layer conv8_1/sep1/ReLU
I0601 18:37:38.527751  6142 net.cpp:84] Creating Layer conv8_1/sep1/ReLU
I0601 18:37:38.527757  6142 net.cpp:406] conv8_1/sep1/ReLU <- conv8_1/sep1
I0601 18:37:38.527765  6142 net.cpp:367] conv8_1/sep1/ReLU -> conv8_1/sep1 (in-place)
I0601 18:37:38.530213  6142 net.cpp:122] Setting up conv8_1/sep1/ReLU
I0601 18:37:38.530238  6142 net.cpp:129] Top shape: 10 1152 7 7 (564480)
I0601 18:37:38.530244  6142 net.cpp:137] Memory required for data: 892505640
I0601 18:37:38.530251  6142 layer_factory.cpp:63] Creating layer conv8_1/dw
I0601 18:37:38.530263  6142 net.cpp:84] Creating Layer conv8_1/dw
I0601 18:37:38.530270  6142 net.cpp:406] conv8_1/dw <- conv8_1/sep1
I0601 18:37:38.530279  6142 net.cpp:380] conv8_1/dw -> conv8_1/dw
I0601 18:37:38.530705  6142 net.cpp:122] Setting up conv8_1/dw
I0601 18:37:38.530725  6142 net.cpp:129] Top shape: 10 1152 7 7 (564480)
I0601 18:37:38.530730  6142 net.cpp:137] Memory required for data: 894763560
I0601 18:37:38.530740  6142 layer_factory.cpp:63] Creating layer conv8_1/dw/bn
I0601 18:37:38.530748  6142 net.cpp:84] Creating Layer conv8_1/dw/bn
I0601 18:37:38.530755  6142 net.cpp:406] conv8_1/dw/bn <- conv8_1/dw
I0601 18:37:38.530766  6142 net.cpp:367] conv8_1/dw/bn -> conv8_1/dw (in-place)
I0601 18:37:38.531122  6142 net.cpp:122] Setting up conv8_1/dw/bn
I0601 18:37:38.531137  6142 net.cpp:129] Top shape: 10 1152 7 7 (564480)
I0601 18:37:38.531142  6142 net.cpp:137] Memory required for data: 897021480
I0601 18:37:38.531154  6142 layer_factory.cpp:63] Creating layer conv8_1/dw/scale
I0601 18:37:38.531163  6142 net.cpp:84] Creating Layer conv8_1/dw/scale
I0601 18:37:38.531169  6142 net.cpp:406] conv8_1/dw/scale <- conv8_1/dw
I0601 18:37:38.531177  6142 net.cpp:367] conv8_1/dw/scale -> conv8_1/dw (in-place)
I0601 18:37:38.531246  6142 layer_factory.cpp:63] Creating layer conv8_1/dw/scale
I0601 18:37:38.531426  6142 net.cpp:122] Setting up conv8_1/dw/scale
I0601 18:37:38.531440  6142 net.cpp:129] Top shape: 10 1152 7 7 (564480)
I0601 18:37:38.531445  6142 net.cpp:137] Memory required for data: 899279400
I0601 18:37:38.531453  6142 layer_factory.cpp:63] Creating layer conv8_1/dw/ReLU
I0601 18:37:38.531463  6142 net.cpp:84] Creating Layer conv8_1/dw/ReLU
I0601 18:37:38.531469  6142 net.cpp:406] conv8_1/dw/ReLU <- conv8_1/dw
I0601 18:37:38.531476  6142 net.cpp:367] conv8_1/dw/ReLU -> conv8_1/dw (in-place)
I0601 18:37:38.532424  6142 net.cpp:122] Setting up conv8_1/dw/ReLU
I0601 18:37:38.532447  6142 net.cpp:129] Top shape: 10 1152 7 7 (564480)
I0601 18:37:38.532454  6142 net.cpp:137] Memory required for data: 901537320
I0601 18:37:38.532459  6142 layer_factory.cpp:63] Creating layer conv8_1/sep2
I0601 18:37:38.532474  6142 net.cpp:84] Creating Layer conv8_1/sep2
I0601 18:37:38.532480  6142 net.cpp:406] conv8_1/sep2 <- conv8_1/dw
I0601 18:37:38.532492  6142 net.cpp:380] conv8_1/sep2 -> conv8_1/sep2
I0601 18:37:38.543190  6142 net.cpp:122] Setting up conv8_1/sep2
I0601 18:37:38.543215  6142 net.cpp:129] Top shape: 10 320 7 7 (156800)
I0601 18:37:38.543221  6142 net.cpp:137] Memory required for data: 902164520
I0601 18:37:38.543229  6142 layer_factory.cpp:63] Creating layer conv8_1/sep2/bn
I0601 18:37:38.543242  6142 net.cpp:84] Creating Layer conv8_1/sep2/bn
I0601 18:37:38.543249  6142 net.cpp:406] conv8_1/sep2/bn <- conv8_1/sep2
I0601 18:37:38.543259  6142 net.cpp:367] conv8_1/sep2/bn -> conv8_1/sep2 (in-place)
I0601 18:37:38.543601  6142 net.cpp:122] Setting up conv8_1/sep2/bn
I0601 18:37:38.543615  6142 net.cpp:129] Top shape: 10 320 7 7 (156800)
I0601 18:37:38.543622  6142 net.cpp:137] Memory required for data: 902791720
I0601 18:37:38.543632  6142 layer_factory.cpp:63] Creating layer conv8_1/sep2/scale
I0601 18:37:38.543644  6142 net.cpp:84] Creating Layer conv8_1/sep2/scale
I0601 18:37:38.543650  6142 net.cpp:406] conv8_1/sep2/scale <- conv8_1/sep2
I0601 18:37:38.543658  6142 net.cpp:367] conv8_1/sep2/scale -> conv8_1/sep2 (in-place)
I0601 18:37:38.543721  6142 layer_factory.cpp:63] Creating layer conv8_1/sep2/scale
I0601 18:37:38.543917  6142 net.cpp:122] Setting up conv8_1/sep2/scale
I0601 18:37:38.543931  6142 net.cpp:129] Top shape: 10 320 7 7 (156800)
I0601 18:37:38.543936  6142 net.cpp:137] Memory required for data: 903418920
I0601 18:37:38.543946  6142 layer_factory.cpp:63] Creating layer conv8_1/sep2/ReLU
I0601 18:37:38.543953  6142 net.cpp:84] Creating Layer conv8_1/sep2/ReLU
I0601 18:37:38.543959  6142 net.cpp:406] conv8_1/sep2/ReLU <- conv8_1/sep2
I0601 18:37:38.543969  6142 net.cpp:367] conv8_1/sep2/ReLU -> conv8_1/sep2 (in-place)
I0601 18:37:38.544901  6142 net.cpp:122] Setting up conv8_1/sep2/ReLU
I0601 18:37:38.544924  6142 net.cpp:129] Top shape: 10 320 7 7 (156800)
I0601 18:37:38.544930  6142 net.cpp:137] Memory required for data: 904046120
I0601 18:37:38.544936  6142 layer_factory.cpp:63] Creating layer Pooling1
I0601 18:37:38.544965  6142 net.cpp:84] Creating Layer Pooling1
I0601 18:37:38.544971  6142 net.cpp:406] Pooling1 <- conv8_1/sep2
I0601 18:37:38.544986  6142 net.cpp:380] Pooling1 -> Pooling1
I0601 18:37:38.546131  6142 net.cpp:122] Setting up Pooling1
I0601 18:37:38.546155  6142 net.cpp:129] Top shape: 10 320 1 1 (3200)
I0601 18:37:38.546160  6142 net.cpp:137] Memory required for data: 904058920
I0601 18:37:38.546166  6142 layer_factory.cpp:63] Creating layer fc1
I0601 18:37:38.546180  6142 net.cpp:84] Creating Layer fc1
I0601 18:37:38.546185  6142 net.cpp:406] fc1 <- Pooling1
I0601 18:37:38.546197  6142 net.cpp:380] fc1 -> fc1
I0601 18:37:38.546382  6142 net.cpp:122] Setting up fc1
I0601 18:37:38.546396  6142 net.cpp:129] Top shape: 10 2 (20)
I0601 18:37:38.546401  6142 net.cpp:137] Memory required for data: 904059000
I0601 18:37:38.546411  6142 layer_factory.cpp:63] Creating layer acc
I0601 18:37:38.546419  6142 net.cpp:84] Creating Layer acc
I0601 18:37:38.546424  6142 net.cpp:406] acc <- fc1
I0601 18:37:38.546432  6142 net.cpp:406] acc <- label
I0601 18:37:38.546442  6142 net.cpp:380] acc -> acc
I0601 18:37:38.546453  6142 net.cpp:122] Setting up acc
…
